model_path/data45/G45.pth (torch, 652927 bytes, 12 tensors)

gru1.weight_ih_l0 f8 [192, 13]
0.06283359930900949 -0.020365139863341944 -0.07517736270833392 -0.029099129463080135 -0.0762987050024193 0.05670470117336192 0.056432449326743295 0.013215083595840943
0.04845038951111022 0.02407936925333499 0.027430481447388196 0.16987714018590971 -0.013440290633996228 0.0088478750565946 -0.027786563587456726 -0.014079465800695605
-0.014957756658757069 -0.01663931902215882 0.010187880455484398 0.010128543107810799 -0.005950081491569968 0.010504742210432507 -0.0019377445619976573 0.0026993882402653944
0.01429244874211405 -0.01661976182048674 0.039770567841803064 0.043008949219098834 -0.025652206875857272 0.07366756925447397 -0.008271234963530525 0.050849653884824916
0.033305479922610765 0.05206440001300128 0.07743439718731553 0.06011771940022811 0.040554451832688784 0.08678677093302098 0.060461579057151646 -0.017673383100588566
0.024639026783721398 0.06604621680887372 0.10303080393538788 0.12388248156124064 -0.020962160783815097 -0.019888474355508303 0.001612373569675358 0.028473280725203616
-0.005035930533828209 0.04367379670488536 -0.04774656653415156 0.046569279929324005 0.011905285885827985 0.01808329447102547 -0.002508090472422793 0.008404266362844772
0.000333553597115357 0.020251219500790715 0.021794302583912767 0.016771593978151485 0.02919002271689153 0.019096382282851057 0.0032623216294079137 -0.010015340696156973
0.04290766614277477 0.049940233965125 -0.017665603626690295 -0.06700562781588966 -0.028938456575214398 -0.07157912432498885 0.059443663758722995 0.058637477691986635
-0.007646853642500357 0.05720896600296953 0.013444452923284726 0.02224719875070867 0.12226663918505655 -0.059204618799888205 0.015594945396653025 0.03431254241554139
0.06256782536538143 0.08462290441797699 0.12257824299456045 0.016734486332754435 0.010357284764571324 0.02436530316326549 0.05580486050793827 0.006588799676919397
0.059284361954734154 -0.06578105811868096 0.10591741236736185 0.0039707275978967385 0.0707090484299421 0.03417300483874328 0.06612772841998929 0.015731856968640212
0.0029345914782399943 -0.0020779821905899877 0.07012563024835183 0.008688996633896346 0.018704498026256438 -0.011044396235677083 -0.07339238244229342 0.08511303750780695
0.030888818140138483 -0.046175243255067326 -0.05452041674591537 -0.019180722707192326 -0.03634174799107653 0.03226124072578501 0.031427434218451 -0.017835901401455894
0.04652834066340005 0.009914175660928387 0.030566804179106868 0.11240260905721855 -0.0297091949379677 -0.010630410815656917 -0.010619810182781787 -0.004387854730513408
0.011610366337478058 -0.013912411197322243 0.006908068136660627 -0.027676139882889018 0.02283069213964138 -0.01666070032133463 0.007195622636122216 0.045268422966768224
0.019970488241094143 0.027161666252402076 0.02000107731098078 -0.03297004632853052 -0.04123312858804601 -0.0033561513649888967 -0.020899175446386534 0.020402970067180504
0.020348654144163675 -0.008930143968162751 0.036928956912680916 0.00542826256358161 0.02597336829993599 0.08321213197520425 -0.02142832632457417 -0.005173225491422787
0.02067596437426658 0.01797902551890786 0.04875196468375683 0.0023267946039013734 0.02230975636862402 0.03090105962940208 0.03949116388225445 -0.009322953756122276
0.00038823599431618317 0.024178736510050286 -0.04296974828192946 0.07891058072393348 -0.0028990016002509423 0.019515521264964135 0.00188621579061117 0.09779983053089081
0.02571178093618863 0.007007241013693987 0.012034263299315583 0.15502611798533017 0.09571357352013835 -0.013501666661895615 0.06534983871128867 -0.17006830290265534
0.2515168138716746 0.00039791017534670023 0.0036512598267110495 -0.00674204483536005 0.012488361969138863 -0.011984161818290671 -0.002204434434847177 -0.0017236789135814414
0.019877870043160342 0.0010960831850891902 0.0007177614712415722 -0.0009383856135707707 0.019977548121793757 0.02368539053503001 -0.006031337300035119 -0.00015225109573612322
0.026947015746964547 0.02258252953653829 0.009410988340766936 -0.014098692621982115 -0.025229375648544532 0.0433545325928121 0.0018478648781741277 -0.02449350264834842
0.006517949490155158 -0.06920031765638503 0.06320162758359857 -0.008395741947822725 0.015015397693811562 0.017802749638057176 0.03897686866846235 0.03237197544666777
-0.006520117541780183 -0.01800461578401439 0.01720763197832279 0.0072368909126639385 0.00048135350413477034 0.010234341883134067 -0.025755425661515327 0.03520174558679137
-0.03680538100373711 0.0824466146514252 -0.022312727698636254 0.07455739298347526 -0.016765516060128903 0.018443516340432505 0.019955725400410546 0.07564402715831814
-0.021571071163563417 0.051443753397271835 -0.013294263670143037 0.0021093910174406153 0.034520439277199555 0.014076883806917363 -0.020689880871426026 -0.017650550500261465
-0.006142347210368015 -0.0040791392472563975 0.018674407297868918 0.017029763614392582 0.0060607734070545986 0.023192867786960746 0.006942956941706154 0.033334361792189134
0.0555008391424189 0.002171356359318573 0.037179329992248676 0.020840797840780925 0.012299329532925243 0.03236488150642584 -0.008695216584402045 0.006697662254640973
-0.022506844512666917 0.0652969630208393 -0.01165121144313948 -0.010268096715896227 0.02120594887669847 -0.01031246545398088 0.0555907327738725 -0.0005082065818775806
0.007333842385904134 0.0010646208629502287 0.03289793366398419 0.010048126757522207 0.004452485654172688 -0.004551557970365807 0.05590028686672174 0.011365411988764737
00000000: 2346 1fde dc15 b03f b41d c466 99da 94bf
00000010: d458 3bda d23e b3bf 6143 8b85 29cc 9dbf
00000020: 2f69 b6da 4f88 b3bf 8259 230a 6608 ad3f
00000030: b044 95c8 b6e4 ac3f 9d45 dd7e 8210 8b3f
00000040: ec7b db4c 7dce a83f 0337 ce1d 43a8 983f
00000050: b296 eb72 bc16 9c3f e4de b7bc 88be c53f
00000060: 4a24 c645 9586 8bbf 13ae 0eb0 d51e 823f
00000070: 2d62 81b7 1474 9cbf 2fea 45e9 b1d5 8cbf
00000080: 72fa 5d1d 2ca2 8ebf 518d 1ccc e509 91bf
00000090: 5993 f92a 62dd 843f 5cbf 3b0b 46be 843f
000000a0: 9822 a3d6 1c5f 78bf 7b47 f9a1 8283 853f
000000b0: 6bdf 6461 7dbf 5fbf 0fb7 c106 071d 663f
000000c0: 60c6 6aff 5b45 8d3f 9ff8 f155 c504 91bf
000000d0: 2aa2 72d0 ce5c a43f 43a7 a9dc 4405 a63f
000000e0: 6c7b 6876 9244 9abf b349 b9b8 e0db b23f
000000f0: f2c0 535d 82f0 80bf 0680 e540 f708 aa3f
00000100: 2c24 1776 6a0d a13f a0f3 ae5e 2fa8 aa3f
00000110: 5347 819b bdd2 b33f ebd9 77ed bfc7 ae3f
00000120: fe3e a898 8dc3 a43f 1efd e166 a837 b63f
00000130: 7e12 6ef1 d1f4 ae3f acf2 b4a9 f818 92bf
00000140: d724 f718 f93a 993f abf8 37a5 67e8 b03f
00000150: 7811 620d 3a60 ba3f 7b54 da26 c3b6 bf3f
00000160: 8675 14cc 1a77 95bf b76c b2eb a45d 94bf
00000170: ea4f 0bf0 c86a 5a3f a22a 1986 1928 9d3f
00000180: 6ddc 294f 8ea0 74bf 104b 1471 695c a63f
00000190: 325c 85eb 3c72 a8bf fde4 96bc edd7 a73f
000001a0: 12b9 3b6c cc61 883f 508f 6d59 6d84 923f
000001b0: 902d bed1 d88b 64bf 0eff 6689 4136 813f
000001c0: f7cc 83ca 19dc 353f cc0d d755 bcbc 943f
000001d0: 581f 59e3 3e51 963f 1243 8d9e 922c 913f
000001e0: 4012 c143 fde3 9d3f 24cd 8185 008e 933f
000001f0: 6188 a296 95b9 6a3f 8e80 fc45 ec82 84bf
00000200: 436c a95d fef7 a53f 8b04 452f c491 a93f
00000210: 53e9 5c97 ee16 92bf 6d00 1ee4 4727 b1bf
00000220: 365b 59f2 0aa2 9dbf 6359 0d6e 0253 b2bf
00000230: 3ea5 985f 666f ae3f 1997 0342 bb05 ae3f
00000240: 5449 fda4 4e52 7fbf 1e9d 0a5c 7e4a ad3f
00000250: a2e8 f1ec c388 8b3f 3c64 3f3c f8c7 963f
00000260: f90f b1d0 dd4c bf3f 990b 095b 1150 aebf
00000270: e636 b123 3ef0 8f3f d1e3 08df 6991 a13f
00000280: 21e5 b9eb 7104 b03f 24be f7be d8a9 b53f
00000290: 09df dca8 4961 bf3f 62e3 0e5e d822 913f
000002a0: c4aa b63a 3336 853f e830 f9d0 37f3 983f
000002b0: aaca ad65 7492 ac3f 0ac1 1d72 dbfc 7a3f
000002c0: cb05 8517 855a ae3f 08e6 5005 07d7 b0bf
000002d0: 20dc 314e 671d bb3f 7fe5 c912 9c43 703f
000002e0: 9ab2 89fa fc19 b23f cd7c 60c4 1f7f a13f
000002f0: 1231 ec2e bfed b03f 801d be0c 031c 903f
00000300: 8b1c a3cd 480a 683f 31af 9b31 d805 61bf
00000310: e82e 87d8 c0f3 b13f 8a67 0563 89cb 813f
00000320: 2b54 3e9d 4527 933f b623 17c5 719e 86bf
00000330: 197c 5dda d7c9 b2bf 272b 8fd0 f7c9 b53f
00000340: ac5c e57e 51a1 9f3f e7a9 540f 48a4 a7bf
00000350: 94a7 c69d 19ea abbf 0bd2 f682 1ca4 93bf
00000360: 97c9 33b6 629b a2bf 68f6 b09b 8b84 a03f
00000370: 56b4 54b4 4117 a03f 6b11 db14 9343 92bf
00000380: ff0f f90a 90d2 a73f 5d09 d821 e24d 843f
00000390: 2785 2b81 e74c 9f3f 90c5 e2d9 6ac6 bc3f
000003a0: 31a3 9852 166c 9ebf e4cd 5e96 65c5 85bf
000003b0: baf0 65cb d6bf 85bf 0d10 13c9 fff8 71bf
000003c0: 915e b6fd 2cc7 873f c9da ce38 1c7e 8cbf
000003d0: cca2 9b6b a24b 7c3f 2dc4 b44e 2257 9cbf
000003e0: dcd6 56d0 ed60 973f 89cb 08ac 800f 91bf
000003f0: b812 583e 2879 7d3f 6c16 5e38 6c2d a73f
00000400: 9dc9 85c7 2473 943f f125 0991 44d0 9b3f
00000410: 61e1 bd93 297b 943f c110 752d 73e1 a0bf
00000420: 7847 9835 821c a5bf f435 4c0b 5c7e 6bbf
00000430: 41ee 38ec 9766 95bf 601f b824 84e4 943f
00000440: a866 4410 47d6 943f 53ab 55a2 f749 82bf
00000450: 5c43 6e2c 5ae8 a23f 5a77 f422 f23b 763f
00000460: 1827 a93d c398 9a3f a6c4 76e9 634d b53f
00000470: 6897 16a3 4ef1 95bf 37d3 ce24 8530 75bf
00000480: 28f4 337b 142c 953f 857b 78fa 1769 923f
00000490: 5b6e dd7b 04f6 a83f d0f3 4d57 a40f 633f
000004a0: 6c9b f067 5ed8 963f 2c82 1402 87a4 9f3f
000004b0: 8be4 b592 2f38 a43f 5398 e0ab e917 83bf
000004c0: d362 12e6 8471 393f f8ed 468a 4fc2 983f
000004d0: b12d 2d7f 2100 a6bf 8485 84db 7b33 b43f
000004e0: 3b59 0da2 a5bf 67bf 5ec0 6376 e0fb 933f
000004f0: 3e63 91c8 5ce7 5e3f 983c afe1 6809 b93f
00000500: bcac f868 3054 9a3f 7ff7 d2ef 9fb3 7c3f
00000510: 0c86 6a7a 6ba5 883f 1cec 6255 e5d7 c33f
00000520: 9a62 0d4c af80 b83f dfe0 0806 c3a6 8bbf
00000530: 1b59 105c c4ba b03f dacc 8653 ccc4 c5bf
00000540: 0145 7efa d918 d03f 3fa5 9a30 d313 3a3f
00000550: 7d01 7031 3fe9 6d3f b372 37e1 8b9d 7bbf
00000560: d48c e791 7f93 893f cce0 a2f8 268b 88bf
00000570: df18 b9b9 080f 62bf 0b3f 0224 a23d 5cbf
00000580: 0480 ff46 dd5a 943f f9fa c05b 4ef5 513f
00000590: 8cc3 cc05 0585 473f 42b9 bac2 bfbf 4ebf
000005a0: a177 598f fe74 943f 75b9 f6a6 fb40 983f
000005b0: efd7 46c7 50b4 78bf 89fe 34f4 b2f4 23bf
000005c0: 1b9a 6e9d ff97 9b3f 4413 48e7 df1f 973f
000005d0: 074d 2c79 1146 833f e878 d27d c6df 8cbf
000005e0: db69 3cbd bad5 99bf 532e 3db7 9032 a63f
000005f0: 1d20 07ce 8146 5e3f 0d49 5b23 d314 99bf
00000600: 7cea 5abe 90b2 7a3f f9fc 34ad 1cb7 b1bf
00000610: f688 865b fb2d b03f a280 bb68 c931 81bf
00000620: c736 4090 64c0 8e3f 22b7 e54d e23a 923f
00000630: 7a8b 76b0 c6f4 a33f 7a61 b33f 0f93 a03f
00000640: 1175 bab9 d6b4 7abf 0aa7 e04f cd6f 92bf
00000650: c99f 5aa2 e09e 913f 3eba b61c 6ea4 7d3f
00000660: 59ed dd8e c58b 3f3f 6c20 791d bef5 843f
00000670: 3ca0 a45b a15f 9abf 1461 1d94 f605 a23f
00000680: 73ab 74a7 27d8 a2bf 5702 98a9 381b b53f
00000690: 6533 00cf 25d9 96bf edfe 897c 3116 b33f
000006a0: a61b b7bc fa2a 91bf 5f87 056e dbe2 923f
000006b0: 38d3 d90f 466f 943f d45f c82e 685d b33f
000006c0: aaaf bf14 ba16 96bf a47b d9ec d556 aa3f
000006d0: a756 80dd 053a 8bbf 7478 e6ad b647 613f
000006e0: b86e 7abb a9ac a13f 6775 a45c 57d4 8c3f
000006f0: 8dbb cd66 ba2f 95bf 6abd 9e64 fc12 92bf
00000700: 9931 3ac6 b728 79bf 47d0 9a9a 49b5 70bf
00000710: d553 7742 621f 933f 8434 2117 4070 913f
00000720: 1af4 2579 2ed3 783f 66f0 9402 dfbf 973f
00000730: 3cdd 08d0 3770 7c3f 0902 7693 3311 a13f
00000740: 73d4 0822 9b6a ac3f 5db7 a311 aac9 613f
00000750: fbcb ce4c 2b09 a33f 3445 9844 4a57 953f
00000760: 8866 da10 6430 893f b5d0 3737 2192 a03f
00000770: 67a5 e436 ccce 81bf 864e 7e05 026f 7b3f
00000780: 1be5 78c4 080c 97bf 4fdf b340 4db7 b03f
00000790: e944 db20 97dc 87bf 3b0d b29c 7007 85bf
000007a0: 41d0 9f23 03b7 953f b485 edae b31e 85bf
000007b0: 20ec 7276 6376 ac3f d818 0b53 25a7 40bf
000007c0: cf3f 3953 170a 7e3f 0626 7ff2 5771 513f
000007d0: 50b5 627a ffd7 a03f 431a 7abe 1c94 843f
000007e0: 994c 5404 c53c 723f a99e 0e8a a7a4 72bf
000007f0: fcf2 db5f f69e ac3f 85e4 60c6 bf46 873f

gru1.weight_hh_l0 f8 [192, 64]
0.023603930692000168 -0.04314645654321934 0.031166683789190245 0.014565400504336254 -0.040744770801583396 -0.03017964831224118 -0.02233657595795375 -0.004384980395182684
0.035054763919796075 -0.011883955142399231 -0.038870033899561986 -0.014987423099522038 0.02223453531336977 0.02884268820405865 0.0067557288596284005 -0.0025256229325401752
-0.010431675576670244 -0.0021135196038193794 -0.011654254551348794 -0.010475107154828661 -0.010109928010065022 0.005553359465465172 0.02444242411445435 -0.037674811083764546
-0.052304457200529536 -0.024232075114373485 -0.01708127015206738 0.005200026202483554 -0.004704438367039283 -0.002865027274078043 0.011531042611928938 0.005262884327834235
0.019695770489529033 0.035996481723661045 -0.0017015669641284009 0.008457835241722998 -0.010341182607475725 -0.020599510277053798 0.01389917448863922 0.02807473517302202
0.013870181266183265 -0.0026393542438384317 -0.012980329251159927 -0.0021154646262670517 -0.03029721175056434 -0.015197471410860674 -0.023533357001088603 0.0016110152192765218
0.009834178705240657 0.04786794145664152 -0.004977470170616484 0.008401562343738412 0.036077216249437626 0.014387337463088571 -0.007451854996366865 -0.0119542357399392
-0.02009536650725246 -0.011294222010806399 9.126234540418401e-05 0.03419042560692972 -0.039581636395839524 -0.005287161854350917 0.0238447916103592 0.02982819521149268
0.00597947294406633 -0.004135355341137586 0.004428059054955473 -0.00021680672777020182 -0.007238662349685009 -0.008172027497987528 0.0002365152084195527 0.005793562129839689
0.009784093938730537 0.0019299235733933242 -0.004554605953423202 -0.00023582551264266275 -2.360306407789945e-05 -0.00042766322002771523 0.0021644404253938713 0.00014237979033076038
-0.0005367894935314799 0.002792710715378323 0.003892741287601424 0.0003335512614480477 0.005000589285545567 -0.000990065998612126 -0.0018207563791783508 -0.006594172023742197
-0.005141769306544033 0.0003865677783741815 -0.0026313278968834947 0.003433696823111896 -0.00018692992098879276 -0.00364614637001875 -0.002604474939236108 -0.0018482685086138983
-0.002554816074849005 0.002586747692884623 -0.0003140599949853527 -0.004229790094723432 0.0011786322363962968 -0.00581235796442686 0.00022195085419559544 0.0015081496946524624
-0.003518521377202758 0.003575073824760623 -0.0016330745973345431 -0.006102371266479828 -0.003224221901932862 -0.0041562706377955986 -0.0035900674675435544 -0.004580174443096679
-0.00020474415956715986 0.011454871452791938 -0.005702680047790188 -0.00659121703503089 0.005003984571858358 -0.0017840567032260065 -0.003910781842438716 0.0009710403287300429
-0.0032576622111462152 -0.003039625281386412 0.004941195282944736 0.0068788731307956935 0.0003721875321531695 -0.0020153264529450352 -0.00010012481946025298 0.0019086746404120155
-0.017854126768666583 -0.028644354767889048 -0.0491923711680763 -0.04482028203589005 1.1102857518212915e-05 0.030480763594628507 0.018837201835435944 -0.025485516313131285
-0.02819313043690211 0.009120464161513579 0.004377271487202006 0.013321819194128703 -8.258429204689492e-05 0.040042074695457584 -0.034319308823445346 -0.031663379953339774
-0.00914617978912631 -0.02736566703596778 -0.002228160980808556 0.03311356535166533 -0.010994862279438467 0.0049224333619220404 0.05496140978440899 -0.027839147545806978
-0.026014941893718637 -0.0018977543542030592 -0.022552083562599527 0.0018893144060461017 -0.04486474857816529 0.01979942742480279 0.0450949604357227 -0.004425847075421098
0.009559960982802262 0.04986388178425279 0.037744566095231996 -0.022923124664806786 0.005377255692763335 -0.021469415157925272 -0.004942972045588817 0.053345718327063495
0.012966023888256573 -0.01945050376803529 0.022074593030659843 -0.018233652216208228 0.06694878218461738 -0.003428417387150247 -0.027084383091454917 -0.0035799891529566487
0.013266737157350196 -0.03857552967943554 -0.042061261028129224 0.02915242535733541 0.045508644977161714 0.005804954317524884 0.002433874415021906 -0.025139298546166252
-0.04074750038871034 0.0037508568676885147 -0.0471124681782828 -0.007278248553471118 0.00975735308571059 -0.0024670559883009304 0.05466030850940934 0.03068372135222088
0.01655810424621859 0.004523702576056237 -0.019347442148455327 -0.024251000326027214 0.03849060183758337 0.0024381603529932115 0.04194277986931442 0.012782847102470667
-0.03155984111357013 0.03311418997101175 0.010786160631435244 0.04979621676880761 -0.03829441088309767 0.0033898537721957557 -0.0432996411647504 -0.010989405801946073
-0.04434197770876841 -0.011807994654843789 0.013518470244248385 0.03612654353899826 0.04655048264578159 0.0011376092603115659 0.023336215954053954 -0.010089959065892657
0.02252893802871813 0.04742520795868478 -0.018092969356031306 0.04906351348644103 -0.01802263110314495 -0.007836417643680024 -0.0073129976097884245 -0.03331187867291137
-0.02372584741351379 0.014143397357854639 0.04185291957630613 -0.03394992974408574 0.03912396425763656 -0.025592965564986712 -0.033704941069193535 0.022214803020405655
-0.030610084267359644 -0.005528565309464146 0.03630762454818664 -0.02820158209609265 0.045091520328448015 -0.028203031134919457 -0.02760338467850741 -0.04979394607342668
-0.014075368757693859 0.022635090005391014 -0.023333068264268883 -0.03809939213668007 0.03835409218840731 -0.027835913033554552 -0.03505222248171844 0.014843112996941986
-0.01571644962011879 -0.0046655995270696434 -0.0234628346869355 -0.026826110137174005 0.04102598836161548 -0.02537075450509936 1.4276990280995394e-05 0.0036998874693618734
00000000: be4a 84f9 a02b 983f fd33 95d7 4a17 a6bf
00000010: d1ba 65be 28ea 9f3f 65db 8df6 76d4 8d3f
00000020: 68d1 26a4 7fdc a4bf 80ff 05ea 69e7 9ebf
00000030: 52e3 f93c 66df 96bf aa2b 4136 fcf5 71bf
00000040: 4a84 35b1 b2f2 a13f 6f4a 7875 9d56 88bf
00000050: 3d3b c9e8 c5e6 a3bf b595 82e0 b9b1 8ebf
00000060: 0ffc 0c68 a6c4 963f 7cb8 420a f088 9d3f
00000070: 9236 3428 e5ab 7b3f a094 b67c 9db0 64bf
00000080: 02e3 8dcb 335d 85bf 64d2 7d32 5f50 61bf
00000090: ab27 4291 2fde 87bf 3078 3715 f973 85bf
000000a0: b05b 5891 83b4 84bf 5efb 9794 1ebf 763f
000000b0: 0f80 d350 6f07 993f fbb9 f9e2 1c4a a3bf
000000c0: 1cfd 385a a6c7 aabf 9394 8508 4bd0 98bf
000000d0: 5b86 b5a2 c07d 91bf c0ed a567 9f4c 753f
000000e0: 9471 eb0e f644 73bf 5dd0 37ce 6578 67bf
000000f0: 3d92 4157 969d 873f 4980 21c1 888e 753f
00000100: 71fa 7cc8 202b 943f 1862 8c7f 216e a23f
00000110: 73ea 9f9d e3e0 5bbf 5fb4 106e 5752 813f
00000120: f7fe ce08 c22d 85bf 8c72 d0bb 0918 95bf
00000130: 8cf8 f59e 2b77 8c3f d5e0 a595 9fbf 9c3f
00000140: 183c 6c37 f867 8c3f ff72 1d85 209f 65bf
00000150: 1917 004d 6e95 8abf 8557 576c 7354 61bf
00000160: a5bf 8376 3b06 9fbf f346 8815 da1f 8fbf
00000170: df33 bdda 2019 98bf c497 876b 1665 5a3f
00000180: 5850 601f f123 843f 6f8e 2a96 2582 a83f
00000190: 2804 9879 4163 74bf 2767 039c d634 813f
000001a0: 8317 d87f b678 a23f a239 0bbf 1b77 8d3f
000001b0: c818 1018 d685 7ebf a0e8 695c 767b 88bf
000001c0: ee93 cc37 e193 94bf ad85 5cd1 6c21 87bf
000001d0: 66cf cc27 83ec 173f ebdb a24f 6881 a13f
000001e0: 2b41 af53 0b44 a4bf 4aae 0cb4 fda7 75bf
000001f0: 35f1 95e0 c46a 983f 366f ba4b 488b 9e3f
00000200: 1691 df8b ee7d 783f d30f 29ff 3bf0 70bf
00000210: 0570 360d 2823 723f 85a9 539c d36a 2cbf
00000220: 3f5e f0a0 49a6 7dbf 0a57 c4f6 7ebc 80bf
00000230: 1638 9b2b 2200 2f3f d705 007e fdba 773f
00000240: 6318 e7db ae09 843f d88e 6aa8 af9e 5f3f
00000250: 2da0 dbb9 d9a7 72bf 78be 8dba fde8 2ebf
00000260: a807 7a36 e6bf f8be 284e 318b ff06 3cbf
00000270: f42a eb1a 29bb 613f 75d6 0e16 79a9 223f
00000280: 2926 e7a8 ea96 41bf d056 1226 bde0 663f
00000290: 0987 b490 abe3 6f3f 2fe6 6bc2 0fdc 353f
000002a0: e907 1377 7f7b 743f 1357 6f45 a338 50bf
000002b0: 4c40 9046 ced4 5dbf 4f8e fa92 7d02 7bbf
000002c0: c330 3e30 890f 75bf 78f6 3ef7 8755 393f
000002d0: 32ac 6368 4b8e 65bf fb9b e8f1 fb20 6c3f
000002e0: bfb0 69cb 5380 28bf 7515 4ded 85de 6dbf
000002f0: 101f fed5 fa55 65bf b348 1e33 3348 5ebf
00000300: 4404 a46f d6ed 64bf 5b61 ce97 cd30 653f
00000310: 3a40 4e68 0d95 34bf dd33 03a2 4153 71bf
00000320: de84 32ba 8a4f 533f bef0 eaf5 b2ce 77bf
00000330: 1a3b f751 6f17 2d3f 079f 6c67 a3b5 583f
00000340: ee02 dac7 dfd2 6cbf e96b 0f25 7949 6d3f
00000350: 49e0 327f 9cc1 5abf fa02 48d0 ccfe 78bf
00000360: 4291 f6f3 ae69 6abf 310b 6767 2a06 71bf
00000370: 2f10 a2cb ea68 6dbf 13d6 1637 a9c2 72bf
00000380: 4a9e 53f0 12d6 2abf 5a31 28d2 a675 873f
00000390: 0e81 e084 b15b 77bf 2f63 b359 64ff 7abf
000003a0: 0385 5fe1 0e7f 743f eac1 734c e03a 5dbf
000003b0: 4e4e d781 c004 70bf c332 3d3a add1 4f3f
000003c0: 15b2 1015 d0af 6abf 91eb 9e65 8ee6 68bf
000003d0: c45a 4b02 383d 743f 67e4 1472 052d 7c3f
000003e0: 57cf 5047 4564 383f 54e2 9826 7282 60bf
000003f0: f2ee e64c 433f 1abf 468c 31ca 8f45 5f3f
00000400: 1bbe 472a 5a48 92bf 5abd c51b f254 9dbf
00000410: 7258 c212 be2f a9bf 5f52 151b aff2 a6bf
00000420: f48a 2b1e cd48 e73e 4824 2f6b 5936 9f3f
00000430: 094d 5337 0f4a 933f b0a6 580c e018 9abf
00000440: 081e cbf4 a8de 9cbf 4263 62fa bfad 823f
00000450: 73c6 21de e6ed 713f 9397 184e 7848 8b3f
00000460: 5743 8255 23a6 15bf 8bdc 8f12 6580 a43f
00000470: 2e3a 09ea 4c92 a1bf eec5 c2ba 2e36 a0bf
00000480: 68fe 9e78 3bbb 82bf 6492 cfd3 be05 9cbf
00000490: c995 5ed1 ca40 62bf 928d 7ae0 42f4 a03f
000004a0: 804e 506f 7984 86bf 332c e6a4 8b29 743f
000004b0: afd6 21e3 e623 ac3f 24f2 0791 dd81 9cbf
000004c0: 173e 9032 a9a3 9abf 89f6 c638 c217 5fbf
000004d0: e19d 6eb5 e417 97bf bc3b 7ee5 5bf4 5e3f
000004e0: 06e1 c527 83f8 a6bf c282 1315 4d46 943f
000004f0: 005a 92c8 af16 a73f 42f1 2247 d620 72bf
00000500: 6068 2d3e 2c94 833f ebaa 073b c287 a93f
00000510: 7c22 f679 4153 a33f d1a7 07db 2879 97bf
00000520: d57c 7b15 7606 763f afc1 de0f 14fc 95bf
00000530: 9358 7ef4 143f 74bf d356 3147 2150 ab3f
00000540: a046 7944 ee8d 8a3f 0a39 4c36 d5ea 93bf
00000550: c188 8edc b89a 963f a62d d2af d7ab 92bf
00000560: f56d fd2d 8e23 b13f c450 c191 e915 6cbf
00000570: 08c7 702e 02bc 9bbf f69b 9f0a c853 6dbf
00000580: 543c b951 972b 8b3f ad50 ccfc 2bc0 a3bf
00000590: feb2 16b9 0d89 a5bf 7d0c 0926 22da 9d3f
000005a0: 3670 b9bb e84c a73f d23b 2d8f efc6 773f
000005b0: 7b9e 7b60 34f0 633f 7f91 66c4 1dbe 99bf
000005c0: 6163 203b dbdc a4bf 1fb4 84f2 1dba 6e3f
000005d0: 597f 1e1c 201f a8bf 612a 26f8 cbcf 7dbf
000005e0: 4970 30c3 a9fb 833f 715c 3099 ca35 64bf
000005f0: 88d6 df9a 6ffc ab3f 86d2 e8ae 8d6b 9f3f
00000600: f893 e290 9bf4 903f d295 ef29 7287 723f
00000610: e9cc 27dd d0cf 93bf 7caa 2e15 41d5 98bf
00000620: d309 3148 0ab5 a33f 7df3 4f5f 31f9 633f
00000630: e51e af27 8679 a53f 76fe 09b2 e42d 8a3f
00000640: 5044 e68a 9c28 a0bf 8b05 ebd5 57f4 a03f
00000650: 0a95 4af9 0d17 863f cd1d f9c4 e37e a93f
00000660: 6b98 b934 539b a3bf 8daa dfe2 09c5 6b3f
00000670: c357 76dd 5e2b a6bf c0b5 2c14 9d81 86bf
00000680: 08c0 32e0 fdb3 a6bf a6bd fd36 ca2e 88bf
00000690: 155c ba5c 92af 8b3f 12f8 08a6 2d7f a23f
000006a0: 573e 2701 77d5 a73f 9301 65a4 7aa3 523f
000006b0: b418 57f1 72e5 973f dddc a561 0baa 84bf
000006c0: fe14 3070 d311 973f a289 60ea 1d48 a83f
000006d0: 19ce af9e f686 92bf e4c5 b353 da1e a93f
000006e0: e119 b44c 8674 92bf 78ae fa2b 8a0c 80bf
000006f0: 7ac4 1dd9 3bf4 7dbf dadb ef2a 410e a1bf
00000700: 7dfd d7aa 964b 98bf 81bd d9a8 36f7 8c3f
00000710: 740b a5f1 be6d a53f e299 e79b e261 a1bf
00000720: 94ed f365 0e08 a43f 06e5 6fd8 0a35 9abf
00000730: 912a 3627 c641 a1bf f8c1 d631 7abf 963f
00000740: 18a9 6cfb 3f58 9fbf 2ecc 2af3 1ea5 76bf
00000750: 2750 0fb8 e996 a23f 5455 3123 e0e0 9cbf
00000760: f473 465a 3c16 a73f 717d 7d61 41e1 9cbf
00000770: 9cf8 cfc9 0f44 9cbf df2a d993 977e a9bf
00000780: 318e f203 8cd3 8cbf 27bc 422d a72d 973f
00000790: ec04 71b4 9fe4 97bf 59f4 7276 c381 a3bf
000007a0: 9ae4 3bc7 25a3 a33f 749e 8880 0481 9cbf
000007b0: dc14 6c6a 5df2 a1bf 0c3f 24e7 1066 8e3f
000007c0: 8ab4 8214 f917 90bf cff2 2856 3c1c 73bf
000007d0: 917c 9b2e a406 98bf 2f4a dfc6 4d78 9bbf
000007e0: b932 99bc 5b01 a53f 743a 7f83 cafa 99bf
000007f0: 15ed 5a9a e6f0 ed3e cdd5 c0f5 394f 6e3f

gru1.bias_ih_l0 f8 [192]
0.04297851257005006 0.004542476857026803 0.04764203275163474 0.036606114508110035 0.012805553343809317 0.06696011996633676 0.07687307755097511 0.030657133906679294
0.04318834071037037 0.07368489355469038 0.02967745557823026 0.04234573923035225 0.09490370162544824 0.021120239541754005 0.026256619474078986 -0.0030014892025008342
0.0796030125332067 -0.005318910313712213 -0.014271637551795547 0.05436226188633197 0.056246132559562546 0.012907839557517904 0.036267636879731384 -0.022222553412164534
0.005145876207788359 0.08214827541925517 0.047725198378345796 0.014101041903807952 -0.010278075208454886 0.036844774442196235 -0.018417069367622742 -0.02405556958573628
0.016524519986900067 -0.01884577439725995 0.004614025130112806 -0.060932624676209385 0.04129230846448975 0.05675935756854266 -0.006206272360759316 0.036803809140418094
0.0353491463851331 0.004648008662006661 0.06179768389493663 0.013560403837801384 0.017509856564494913 -0.020825249757614402 0.003837780687600441 0.020967516438633767
-0.006177052016815251 0.12109286096063283 0.08585942287257037 0.056559524563636096 0.07264767976358993 -0.026109564904259742 0.0534877552897264 0.029718513299501533
-0.03813471061462226 -0.027756599345007505 0.03257023748265237 0.04927336003017936 -0.014161209205158159 -0.032486762597507095 0.01771231050954753 0.011081339117553145
-0.017009505894952016 -0.024388001095746202 -0.007206512286892808 -0.017370678440883483 -0.019730402052251315 -0.014133487682547071 0.002493902164279511 -0.03914383503742054
-0.0032266275333063172 0.03764858220960727 -0.04353203348887116 0.1127705440415816 0.06820722266159399 0.02394911808626428 0.016514394347148305 -0.01443490965255042
0.08192215364780339 0.019499535688906194 0.009569560064442933 0.01599508844537363 0.047671733427055184 -0.008860284765401702 -0.01961552106519518 -0.005574455960064336
-0.0030728300116925917 0.0070396002576955516 0.006346669371097659 0.09228861593315905 -0.011041137357338457 0.04029194631080039 -0.00628628666397288 0.029366661683276788
0.002124056752664892 0.01443534482276269 0.034200600855110355 0.04109169627216967 0.004750115865481791 0.00564528393976557 0.022282597543634347 -0.02335044811229326
0.000777257746581457 -0.003072271453384109 0.00207428950703368 -0.020467937519419614 -0.020223910619115 0.044598038060171416 0.07951201929003053 -0.0004988949450019987
-0.019309368919133364 -0.10326554895527017 -0.037779663194198 -0.009866127964017878 0.07875802364009393 -0.04330601144188009 0.0017957422239370433 -0.009766734580432968
-0.0015976664430267914 -0.027313648718632382 0.004413972093759524 0.004318922565423903 -0.04179564449874827 0.03879812561059931 -0.004740408354317842 -0.0029885646354687956
-0.06336300081493418 0.00727797451290043 0.06289176829976156 0.05782157360812405 -0.05705583192460189 0.040844050020800805 0.09291235716106006 0.116500312659913
-0.028488050722543554 0.00896426364879148 0.08865268439044284 -0.0737476224624474 0.03437592311631631 0.0873828709907799 -0.08784782161749255 -0.0802923212754165
0.017400875127174763 -0.04967054327324461 0.06647826042611832 0.09568026999872101 0.03511750730852396 -0.09545379697520122 -0.09080350742112459 -0.08060819706768818
-0.06209026692542252 0.0502384823153041 -0.08955060907021296 0.11984323352816835 -0.11434521206022338 0.026902639426492295 0.015216318549700519 -0.09407103787259102
0.025650783756604494 0.04465113666440326 0.00748161110004555 -0.0733508125403434 0.06089810713504015 -0.05780002819357245 0.08141395741010912 -0.07437987701914578
-0.07791861710676554 0.052020021720709915 -0.04914170473031527 -0.06304760183251541 0.0489377170475009 -0.1348961783254169 -0.05762733220641749 -0.046407950819065194
-0.08361185804488706 0.002827061816733348 -0.025234900869272565 0.08238409335584547 0.1421252623665325 -0.06850656970878065 -0.002904957613235286 -0.06340702774248651
-0.007935620789107244 0.06857900185480914 -0.0835529721174063 -0.08424391097125535 0.08013145425976537 0.05964565658976417 0.0976937180269947 0.08975197161171289
00000000: f492 d693 4701 a63f 0345 b3d8 219b 723f
00000010: 669d 2a59 8964 a83f c2bb 4a61 09be a23f
00000020: 53fe 8c46 cc39 8a3f 5f43 6465 4c24 b13f
00000030: 2c39 063a f4ad b33f 11b8 126e 9564 9f3f
00000040: c1ce d63d c81c a63f a4d1 0660 03dd b23f
00000050: 9047 8c54 c463 9e3f d315 3d3a 57ae a53f
00000060: 172a c0e6 9b4b b83f bd4a 7648 8ba0 953f
00000070: c25b c7e7 03e3 9a3f a666 d93e 9496 68bf
00000080: 6a42 7eef dc60 b43f 6963 901d 48c9 75bf
00000090: 9ad4 5cc4 723a 8dbf bf73 e0d1 5ed5 ab3f
000000a0: ad56 bd07 4bcc ac3f e4a9 17e6 6c6f 8a3f
000000b0: d771 9af4 ab91 a23f 4931 8e50 82c1 96bf
000000c0: 5bf2 58a0 d713 753f 6737 595c ab07 b53f
000000d0: a4d0 75ec 6f6f a83f 9ff2 87ce 01e1 8c3f
000000e0: aed1 16e7 ab0c 85bf 1ef5 837a 51dd a23f
000000f0: 9708 7d9a ecdb 92bf bd2a a1f2 05a2 98bf
00000100: dd0d b4c3 cdeb 903f 16ec d082 4e4c 93bf
00000110: 238e 96f0 27e6 723f 5cce 7c9c 8f32 afbf
00000120: f4d6 dcf4 4324 a53f af6a ff00 900f ad3f
00000130: 77cb 1c8d bf6b 79bf 39ad 40e9 f2d7 a23f
00000140: d1d1 5487 4819 a23f 0914 1e53 ca09 733f
00000150: 8a37 982e f2a3 af3f e101 0898 8ec5 8b3f
00000160: 8868 3595 1aee 913f 6f58 8fda 3653 95bf
00000170: 10de 5bd1 6870 6f3f f272 8735 8278 953f
00000180: 56d9 5dc6 1b4d 79bf d5e0 9a15 f1ff be3f
00000190: 1c87 4a15 e2fa b53f 7e66 8eb8 5ef5 ac3f
000001a0: ac03 b7d0 0999 b23f 7d9f 813d 77bc 9abf
000001b0: 0362 693f bf62 ab3f 0f12 d4aa 876e 9e3f
000001c0: d04c dd8d 6486 a3bf fd6b bdd9 396c 9cbf
000001d0: 3934 9fd1 0bad a03f 028d c99b 5b3a a93f
000001e0: f684 4353 8d00 8dbf d783 d1dd 1aa2 a0bf
000001f0: 321b 8009 2d23 923f 39a1 d828 d0b1 863f
00000200: 8ae5 289e f06a 91bf 76f2 7b0c 2bf9 98bf
00000210: 5a63 7269 9384 7dbf e46f 407f 9ec9 91bf
00000220: 4695 34de 3434 94bf 3eea ff9a 04f2 8cbf
00000230: 5c27 8587 176e 643f 6ac7 a626 a90a a4bf
00000240: 6deb 6b77 ba6e 6abf d97c a9ca ac46 a33f
00000250: 037f 53a8 d449 a6bf 3058 9cc6 87de bc3f
00000260: b2ba ae4e 0776 b13f f44f cb1b 1e86 983f
00000270: a278 893e 26e9 903f 6c00 07c7 0c90 8dbf
00000280: 3e36 bcaa d9f8 b43f e8bd 48b0 aff7 933f
00000290: 6372 1c9c 3499 833f b4f9 1337 0461 903f
000002a0: eb91 06f0 6d68 a83f cbb9 674a 5725 82bf
000002b0: c844 e055 1716 94bf fcda a9a0 3dd5 76bf
000002c0: 441f 010d 312c 69bf efb2 234e 8ed5 7c3f
000002d0: 28bf 3216 f7fe 793f 9fdc 390b 3aa0 b73f
000002e0: f81f e25e bc9c 86bf 15e7 645f 25a1 a43f
000002f0: 6124 293a a6bf 79bf 31e8 164e 4b12 9e3f
00000300: c98e 3349 7866 613f 56ab 5c2f 4790 8d3f
00000310: 423d 5abc bd82 a13f 9e94 4087 f809 a53f
00000320: 7a16 b684 db74 733f dee8 5d5e 821f 773f
00000330: 981d e1ce 3fd1 963f 82fc f40b 2ee9 97bf
00000340: a698 124d 1c78 493f 5fc3 552d 052b 69bf
00000350: d26e 0bb3 19fe 603f 31c7 0c09 8cf5 94bf
00000360: 2247 d3aa 93b5 94bf 664f ded5 8dd5 a63f
00000370: 9356 7d52 e65a b43f 34c0 88bc 0859 40bf
00000380: 1d6a 0ed0 d5c5 93bf c7fd 906b 9c6f babf
00000390: 9ff6 be23 db57 a3bf 4682 8c47 b134 84bf
000003a0: bcf0 d45f 7c29 b43f 34e5 b99d 342c a6bf
000003b0: 5641 ed87 e36b 5d3f 3ab4 e4ec 9400 84bf
000003c0: 3797 da47 192d 5abf 5b80 ecef 1bf8 9bbf
000003d0: 2947 9c9c 6214 723f 1e5d c2f2 b7b0 713f
000003e0: 0e88 791c 3d66 a5bf 1889 4911 59dd a33f
000003f0: d2a9 9fad ad6a 73bf d2db e16b 797b 68bf
00000400: e0cc 46c0 8e38 b0bf 5876 3968 82cf 7d3f
00000410: 5cfb 08c8 ac19 b03f 66e0 4c0f ca9a ad3f
00000420: d710 5308 6c36 adbf 8dab 26e6 82e9 a43f
00000430: 88a9 66af 1ac9 b73f 271d d9e8 f6d2 bd3f
00000440: bc6f b8b8 f82b 9dbf 195e a219 db5b 823f
00000450: 09d9 283c f1b1 b63f a24b a2ca 1fe1 b2bf
00000460: dfd8 1b93 b899 a13f 08d0 224d b95e b63f
00000470: 9439 dfe0 317d b6bf 5e72 ff9d 098e b4bf
00000480: 333a 5ff6 88d1 913f 51c4 dddd 6a6e a9bf
00000490: 94d6 6c22 b804 b13f 4657 848e 807e b83f
000004a0: 2676 d002 ecfa a13f 739a 49f8 a86f b8bf
000004b0: ec5e bc0e e63e b7bf 80fb 3122 bda2 b4bf
000004c0: 706f b0a3 4bca afbf dafd 16bd dbb8 a93f
000004d0: 411f 4be9 c9ec b6bf e57e a6d0 0bae be3f
000004e0: 66ba 4052 ba45 bdbf 612c 0d92 5d8c 9b3f
000004f0: 03b7 4ab4 bb29 8f3f ccde 291f 0a15 b8bf
00000500: 4bd1 67f5 3244 9a3f 74da 6787 83dc a63f
00000510: 1bf8 efaf 09a5 7e3f daec fe6c 1ec7 b2bf
00000520: ec0c 1165 092e af3f 223a 991d f797 adbf
00000530: ceac 838c 8bd7 b43f 8419 4743 8f0a b3bf
00000540: 5a1d 3978 79f2 b3bf 4929 0e48 5ea2 aa3f
00000550: d96e 5ffd 1929 a9bf fd3d f63b e323 b0bf
00000560: fa13 854c 5d0e a93f 9cab 2129 4744 c1bf
00000570: 3355 5d66 5481 adbf 4aa3 156e c8c2 a7bf
00000580: 434f dc33 9667 b5bf 5413 7e41 c728 673f
00000590: d528 ce87 2dd7 99bf 1d89 acba 1f17 b53f
000005a0: ce5b e61c 2931 c23f f7d9 7584 a589 b1bf
000005b0: 0a5b 3e3e 23cc 67bf 4f94 7d66 713b b0bf
000005c0: 79f4 19fe 8c40 80bf 70a2 28ba 648e b13f
000005d0: 0755 ba42 ba63 b5bf ad38 824a 0291 b5bf
000005e0: 7436 6db7 7e83 b43f 508f cd20 e089 ae3f
000005f0: ba59 f39b 7402 b93f 58e6 d236 fcf9 b63f

gru1.bias_hh_l0 f8 [192]
0.022527299131612107 0.004579714992958359 0.09418098005170501 0.03459015471923033 0.04853144834400882 0.03865546977116322 0.06337082087360711 0.03521147962376556
0.04269126492687716 -0.029315799255691746 0.028700933824581526 0.056432926663100534 0.06314584894010487 0.004017271203708158 0.02421221451113148 0.010860606698698006
0.10503691045909604 -0.003995269056813972 0.07136366577947983 -0.011851560263482577 0.07004908889498435 0.00890670202547464 0.07791478624482288 0.025089457135621968
0.013116438181885492 0.044786122703288474 0.052309253021204184 0.06897921037703514 0.056426938946178465 0.04563775914614089 0.01978794231029842 -0.05097199180151071
-0.006690539460796353 0.04744071530514508 0.05431004292206722 0.03693854462332567 -0.032079214899408647 0.013158718324014655 0.10135660533053069 0.0378460390887521
0.0349967019383534 0.02985080946170243 0.04994350891986173 0.03516741733943163 0.017626515700681526 0.007065065262008613 0.017354387786524265 0.07935160211271779
-0.002213664820440194 0.13732510872295114 0.005854913905663171 0.04400091638045969 0.0017474332660634222 0.019993225028009785 0.012368368939920152 0.011774457785483116
-0.061977257352769516 0.03224496376012634 0.03654040425142743 -0.03158872872833795 0.05510738053298415 -0.043293542556632356 0.02001342095727374 0.00979363407819656
-0.01696283017131726 -0.024373873900072472 -0.007206537646802769 -0.017396467529269887 -0.018138247827318838 -0.015172230111881919 0.0024939130723693253 -0.03917669317179151
-0.004054346331873232 0.03560875521856335 -0.043469783099701065 0.08320208201316184 0.05236689753721881 0.027634691017760636 0.019265103089284263 -0.014430271381272182
0.11486425931539329 0.01956178021370617 0.009449218108778797 0.015767445513623492 0.047538282551597755 -0.008859383390200095 -0.019176194857441743 -0.005527098795190856
-0.0031538312833202043 0.007095799641396653 0.006339081363157703 0.1177121626909652 -0.010948143691034222 0.04044322754896993 -0.0062831414969891745 0.03785476725425483
0.002127117773160505 0.015729496125477554 0.028517834977343545 0.044942866587937974 0.004813034477207009 0.005602634684479027 0.01971577431738759 -0.023287871770941118
0.0008873455477665987 -0.003075185851919406 0.002059307406169534 -0.021375686678868737 -0.02039808049062671 0.0674110194820156 0.08459379681501637 0.0018800556301223985
-0.019430444520143017 -0.10504181399499052 -0.041129489691801184 -0.010096653127215157 0.07753367788766043 -0.04304462443872856 0.0019405899834847367 -0.009912905840730176
-0.001596814930976221 -0.027295612527547593 0.004429580139404272 0.003958398024556305 -0.04191599973797159 0.03941835434738007 -0.004713831024086706 -0.0025476506005849752
0.032747337453823494 -0.09229285203017572 -0.049921245955254996 -0.002160283329290556 0.0917386964728177 0.023672871468392767 -0.039445032204052474 0.10564459705771431
0.06527133308493362 0.07181069761663915 -0.051442323995085956 0.10221740265816143 0.08727172926109669 -0.03553775062163376 0.0065597818024164065 0.018113109573446688
-0.06750244334099194 -0.038292683789713976 0.1087608965333283 0.0903650550889067 -0.024612284937646337 0.08961207925036448 0.09792363285313677 0.09102960524054703
0.07835001528296927 0.049179897577868635 0.07665005919493664 0.10457218314890446 -0.11087247760550517 -0.10968888502617583 0.028399252838445112 -0.0969078536469128
0.03997729975255217 0.09761650229850997 -0.04846079385218853 -0.03405716611325306 -0.013063147886423336 0.04446639846501365 -0.0774741675739201 0.05241850595509608
0.04399842962524636 0.11093919851173836 0.11061927333106573 0.03275164796866872 -0.0992411857943889 -0.13367722203583574 -0.09550172696259744 -0.11189021033441598
-0.0975190179393326 -0.11290449897758038 -0.06339272535111966 0.026334843245457155 -0.06708565968144778 0.09542046267034422 0.020998675529581904 -0.03420350144577828
-0.023399361198516253 -0.09659143333666623 -0.08585607914373176 -0.045346008227141577 -0.1262932974683156 -0.056720501267897946 0.019367506503921127 0.0358319302217133
00000000: ff61 2674 6511 973f 5786 eae1 2dc2 723f
00000010: 6d30 3aa5 3e1c b83f b1ba 90fe ccb5 a13f
00000020: 9318 ee2e 1dd9 a83f 4513 f554 a6ca a33f
00000030: b73d 2cf3 1139 b03f 4c0e db32 3d07 a23f
00000040: 6322 5f25 a1db a53f 67b8 3cfc f504 9ebf
00000050: a8a0 9010 c763 9d3f c304 dfcc c6e4 ac3f
00000060: 9f6e 138c 532a b03f 4982 0607 6a74 703f
00000070: 90c8 f435 16cb 983f ed5c aff4 153e 863f
00000080: 5171 4bef b2e3 ba3f 47f8 00df 575d 70bf
00000090: 2042 a5a2 e344 b23f 8ee5 e77d a145 88bf
000000a0: 6426 ebb1 bcee b13f d129 514f ad3d 823f
000000b0: 43dd cb32 39f2 b33f c8d0 7cf7 0cb1 993f
000000c0: d3e7 3f88 cadc 8a3f 6989 a6e8 34ee a63f
000000d0: 852e 0246 47c8 aa3f 685b ac1c 9fa8 b13f
000000e0: 6242 c6e2 fde3 ac3f 12a5 fd15 d55d a73f
000000f0: 36bc 4f54 4a43 943f f453 993b 0019 aabf
00000100: 0ed6 d302 8a67 7bbf 2509 7841 264a a83f
00000110: 32a7 63a4 86ce ab3f 3ef0 3ce2 9be9 a23f
00000120: 5ba6 bfd5 af6c a0bf dc10 df46 f5f2 8a3f
00000130: 47d2 20a9 81f2 b93f 26b2 5658 8e60 a33f
00000140: 960f 9674 16eb a13f afab 96e9 3591 9e3f
00000150: 0ba5 ea12 3292 a93f e01c b7b6 7601 a23f
00000160: 614d e871 af0c 923f 3a32 e903 42f0 7c3f
00000170: 71de f03f 59c5 913f 7b96 f5f7 6250 b43f
00000180: 4453 4240 6422 62bf 7d3e 7181 de93 c13f
00000190: fe76 ee7b 52fb 773f d43a b2c1 4987 a63f
000001a0: 2628 b32e 44a1 5c3f d627 8c9e 1a79 943f
000001b0: 9b86 d060 9654 893f b32b eff8 341d 883f
000001c0: 4412 daaa 7bbb afbf 04f3 9e71 6982 a03f
000001d0: fc28 7c82 6cb5 a23f 4ff0 9ed9 652c a0bf
000001e0: f195 50da 0837 ac3f c643 d13a 922a a6bf
000001f0: b964 f8f1 657e 943f 8248 9950 af0e 843f
00000200: 5b69 5543 b45e 91bf 764d 1cfd 76f5 98bf
00000210: 67a4 2a38 9a84 7dbf b3a3 6a2c 61d0 91bf
00000220: b57a e634 d592 92bf 6a75 1a41 9e12 8fbf
00000230: ce71 b762 1d6e 643f 1065 e0af f70e a4bf
00000240: 3acf 6e4e 4a9b 70bf 23e1 3a8e 4f3b a23f
00000250: 400b 8ee1 ab41 a6bf d2a4 344d bb4c b53f
00000260: f273 a180 d5cf aa3f 6619 a0b8 444c 9c3f
00000270: b3e2 e32e 3bba 933f 4460 3d3d 9e8d 8dbf
00000280: 1427 3d7d be67 bd3f aadf 13d9 0008 943f
00000290: 5ef3 ff95 1c5a 833f d736 4a5b 5725 903f
000002a0: 20f7 bb11 f056 a83f c19a 634f de24 82bf
000002b0: aa05 19a7 eca2 93bf 75dd 1249 95a3 76bf
000002c0: 92bc 0147 10d6 69bf aa59 6136 7c10 7d3f
000002d0: 495c 4332 02f7 793f 6160 1961 6222 be3f
000002e0: 2fd6 d6f8 fa6b 86bf 25c4 5587 f9b4 a43f
000002f0: 8c6c eef3 59bc 79bf 5d9d b536 b361 a33f
00000300: 9ea5 a7a8 e36c 613f 9814 c49d 641b 903f
00000310: 6c58 5282 c733 9d3f ec0b 5e5c c002 a73f
00000320: d636 c91a d5b6 733f c340 dccb c9f2 763f
00000330: e34c a237 5f30 943f 9439 999e c6d8 97bf
00000340: 2ef4 cf0d 9813 4d3f 843e 38d5 2131 69bf
00000350: d5f4 c73e aede 603f 6e73 dc0c 82e3 95bf
00000360: f504 6f02 3ce3 94bf ebb5 103c d941 b13f
00000370: b3d4 c366 f0a7 b53f 26dc 8b5c 86cd 5e3f
00000380: cc03 0b0f 93e5 93bf 042d d233 05e4 babf
00000390: cf41 41aa ec0e a5bf abf3 d7d7 8dad 84bf
000003a0: b9b8 dd42 3fd9 b33f 1c44 77ec f109 a6bf
000003b0: 1c93 e5a0 6ccb 5f3f 9e73 27b3 374d 84bf
000003c0: 9df0 00fa 8629 5abf 323a 858c 61f3 9bbf
000003d0: d40c 575d c024 723f e2d7 f560 ae36 703f
000003e0: d582 1b90 0376 a5bf 627a 917d a42e a43f
000003f0: 5fac 6561 cf4e 73bf 6e51 5b80 cfde 64bf
00000400: ec5d ca4e 42c4 a03f bbc9 1f1d 81a0 b7bf
00000410: a9bc 810d 478f a9bf 490f fb47 71b2 61bf
00000420: 4de0 20ed 2f7c b73f d460 0983 b33d 983f
00000430: 7eb5 9ca6 2332 a4bf c6aa 5c39 860b bb3f
00000440: 2953 f740 9fb5 b03f 7733 c495 2f62 b23f
00000450: aed5 60f6 a556 aabf bcb5 7f71 eb2a ba3f
00000460: deb1 0aa7 7057 b63f edfa 6209 0132 a2bf
00000470: 4ae2 f604 6ede 7a3f debd fc34 3e8c 923f
00000480: 15b6 8c12 d747 b1bf 8314 1b41 199b a3bf
00000490: a6bc b10d c1d7 bb3f 29df 4e0c 2a22 b73f
000004a0: 2150 8c7b f633 99bf cdf5 b435 d1f0 b63f
000004b0: 8017 9cf0 8511 b93f 2fd7 7959 b74d b73f
000004c0: 510d 4821 bf0e b43f 0b66 6f87 1b2e a93f
000004d0: 328d 7a99 569f b33f 5624 b21a 3ec5 ba3f
000004e0: 4c96 5781 2362 bcbf aa10 ec1d 9214 bcbf
000004f0: 7a15 b098 b114 9d3f 7198 23fe f3ce b8bf
00000500: 1209 0a96 e777 a43f cb08 ec24 65fd b83f
00000510: 5679 7769 dacf a8bf b23d 4ddd f06f a1bf
00000520: e9d6 a307 dac0 8abf ef34 5bbe 4cc4 a63f
00000530: 9fca 03d8 58d5 b3bf 1b8c 9031 99d6 aa3f
00000540: 50af a150 f686 a63f 66ce 73e5 8266 bc3f
00000550: 6ba3 4371 8b51 bc3f 44c1 d4f1 d2c4 a03f
00000560: 8035 67cf de67 b9bf 0799 6ed0 551c c1bf
00000570: 8b10 041a cd72 b8bf 24fe 203a d6a4 bcbf
00000580: b097 c9a0 01f7 b8bf b912 ae2a 4fe7 bcbf
00000590: 6bf7 2f72 813a b0bf 5127 f069 85f7 9a3f
000005a0: 82c6 5c9a 862c b1bf 29cf 89b6 796d b83f
000005b0: c1ae a242 ad80 953f a992 3c10 1f83 a1bf
000005c0: 5c32 618c 00f6 97bf 0237 4157 37ba b8bf
000005d0: 23ca 15fc a9fa b5bf c8ef ad8c 9737 a7bf
000005e0: 0b4b 2af7 602a c0bf 9eac ea33 780a adbf
000005f0: b65a 285c 13d5 933f 34dd e810 9058 a23f
