model_path/data45/P45.pth (torch, 108013 bytes, 14 tensors)

fc1.weight f8 [64, 128]
00000000: 44c3 00c0 be25 c03e 1c4f b14d 7830 1ebf
00000010: 265f 7bcc b4f6 f7be 0293 3b33 2283 48bf
00000020: 7b36 7bc3 4b6e a6bc 5b77 3b43 160b 11bf
00000030: a14d 35dd 1e2a 103f 0b40 d8e0 e143 05bf
00000040: 6c09 4050 d355 023f d949 6fa9 4784 6a3f
00000050: 1e60 dc35 15eb 543f 38f3 35f9 726a 5c3f
00000060: 3b55 4761 588f 4dbf 5349 6759 8c10 b8bc
00000070: 4051 a55c 81af 063f d115 ba6a bcda 4ebf
00000080: ff6c ed90 7b58 d53e d1c9 abfe aa5d 953e
00000090: f965 9377 c6eb e23e 2e52 f5b2 a6f4 40bf
000000a0: a095 39ee d749 133f 4e9c 940c 90bb 19bf
000000b0: 9e13 90a4 5844 f1be 82a9 e880 c882 ddbe
000000c0: 1a43 f349 a62b e93b f7ea c9fa 6f8c 403e
000000d0: 2aa7 a00c 587b 4cbf dd2d f71f 4b34 053f
000000e0: 3d74 197f 90b1 5d3e c70e 205e 8941 7e3e
000000f0: 8730 7e29 7547 813d f186 cb55 a2f9 61bf
00000100: 5271 4bcc 6131 253f 370e a99e 7108 6fbe
00000110: 44b0 875a e979 20bf dd78 b803 51e8 37bf
00000120: 5091 c7e4 d67d 423f 08c9 1340 f1a7 cb3d
00000130: b559 14ff 2f13 23bf 9d51 4c26 0d9d 553a
00000140: 14f7 8bbd 652d 1e3f b297 6651 344a 1ebf
00000150: 4c54 3059 9b7f f5bd 0e31 f7d4 3282 46bf
00000160: 2484 df98 46ec a3be 26fc 21d8 de51 d33c
00000170: 956f ed6e 97b5 893e 4a4d 803e 1c6a 093f
00000180: 63e1 e3e3 dcc0 343f 81a5 5302 01ba 53bf
00000190: 35c5 494a 9225 c1be 60fe 5e39 0230 473d
000001a0: ade9 a3de fdd1 f5bd 43c9 b88b 43d5 633b
000001b0: 0fdf 6f29 a11d 57bf 070d 59d7 f13b a13e
000001c0: d688 2f13 e5f8 173f 600f 9b7b c5ba 483f
000001d0: 0667 a28b 070c f43b 6535 691c 61ed 35bf
000001e0: dde3 a945 8749 203f 5abb f58e 1a2c c33b
000001f0: b4f5 0612 4d57 d8be fbdc 7823 cd32 473e
00000200: e50b 3c18 9e81 35bf 59da fe5f e23c 583e
00000210: 3952 4f43 bed8 d53e 010f 85d2 7674 2fbf
00000220: 0d60 b8df 7ffa 643f 1814 b200 809f 23bb
00000230: 8860 9336 09ce 323f 9b14 c3d4 3f43 62be
00000240: 2b96 b6a3 52a7 a13c 19ac 3049 63ae fd3e
00000250: e851 8258 883c 30bf f0aa e1c2 e91f e6be
00000260: a05d 31fb daad 473f 84c4 c3e1 ec20 423f
00000270: e55d 0ee5 4787 543f aa4b d0d5 e822 d9bd
00000280: a917 2368 8aa5 0abf bd38 d17d 2ebe 2e3f
00000290: e831 5da1 d5ff 323f 7924 3169 bb50 a13e
000002a0: 025e 3cf1 e9c9 d53a a8c8 a513 7dfe 4d3f
000002b0: 1664 804f 1844 243f 4cf5 0df9 d66d 483f
000002c0: 0aaa e767 aa31 31bf 6292 f9ed 810f ec3e
000002d0: 69ce 818e 1a11 5d3e 801a 4fc9 07be 003f
000002e0: 1381 c625 b6c0 083f 6b29 c3b2 917c e73e
000002f0: 1440 05e3 7c2e 533f 1aa9 b6b8 d20a 4bbf
00000300: c0db a81f a99a eabe 3f06 6df7 7244 44ba
00000310: 317c 956c 9a46 3c3f b894 17e4 005b 153f
00000320: 3328 7d17 9c4d 15bf 719b 5637 1244 26bf
00000330: 3d45 8896 d062 29bf 7364 1875 08d2 533f
00000340: 2ad7 9950 fbaf 31bf 3c5b 4d7a 2eab 123f
00000350: 83e2 f0ce eae0 d03e 6619 a0d6 6bca 3ebf
00000360: 6141 d992 f089 133a b80c fbeb c8a4 51bf
00000370: 290b 225c b925 e63e 117f e567 eaf7 f5be
00000380: c823 579c 0014 183f 4b53 5869 61b1 b3bc
00000390: bc70 6675 9381 21bf c7bb 06a4 118b 34bf
000003a0: 5737 51a5 2fd4 40be 6203 6441 69b0 443f
000003b0: 5ebb b966 66e7 5ebf 640d 514b 71e2 fe3b
000003c0: f828 11c7 3e8e 6dbf 2bc9 6318 f9ad 20be
000003d0: e151 62b4 8d12 e73d d912 a6e6 17fd 253f
000003e0: 3a6c cdbb f078 4e3f 5155 96d9 4651 48bf
000003f0: ac43 9849 2166 2d3f 32c0 487b ac3c 4bbf
00000400: 7987 801c 1dee b13d 9f03 8e6a b096 ecbe
00000410: e035 3cd7 d34d a2be d338 4e5d a001 c03e
00000420: 0f67 887f 3e13 71bb 2bf8 7cab 942d d3be
00000430: c557 72f7 3529 cf3e 75e0 caaa 8013 95be
00000440: 7e6f 181f a5c3 653e 0b61 1fa4 6a0c 05bf
00000450: 838a 0dd0 89b7 e03e baa6 8b59 8013 f33e
00000460: 26c7 409f 2d15 103f b77a c05b fb38 a9bb
00000470: 8a7a afab c10a b23e c343 e67c 3948 fabe
00000480: 42a4 5526 7092 95bc bc29 550c a751 24bd
00000490: 59ca 6f97 baa7 e5bd d392 887a 3fcc 89be
000004a0: 8073 05a5 a4d5 e23e e76b d442 f066 f53e
000004b0: d30c 9b2d a286 a6be d972 a5d4 ac2c 88be
000004c0: d59e b498 cb48 37bd e3eb f1ba 1336 ee3d
000004d0: 7aee 456f 6b5c f3be f961 90e4 4191 463e
000004e0: 9a5a e611 403b e73a 3a6c 81ab 379a f9ba
000004f0: 6559 3b28 e840 0dbd e5a3 3fb6 7697 08bf
00000500: d39e 3df3 db80 d7be 3ca5 7be7 668b b1bb
00000510: 0a77 3b1f 205f 00bf 60ec b65c 0a4c 02bf
00000520: 4f07 41ad d20b cabe f9ff f92f e0e2 1ebd
00000530: fb2b 31ac 3464 7f3e daac 81eb 6c2f 9bbb
00000540: f046 bb9a 43ea c5be 4ee3 d219 ea38 e6be
00000550: 3df6 3abc 03f8 833c 9b1e 4cfd 3fbc a3be
00000560: 4da1 130c 3295 b4bd 38cb c2ae 2976 abba
00000570: 0502 30f0 8cef 91bc 45c0 7c8c c997 713e
00000580: 795c 5b39 a275 fc3e f09c b397 7535 7ebe
00000590: 65fc b53c d825 38bb bbd8 3ef3 13a7 423c
000005a0: 8d9b a16f 685a 08bb 367f aaf0 fb7f a73b
000005b0: 74da 225e 037a fa3e 31b5 4c44 b9ed 313c
000005c0: 23d6 3700 070a cebe 1e38 215b c0aa ef3e
000005d0: deb2 8a4d d43e c93a e8ee dd26 4805 d23e
000005e0: 96ce 2f1b da93 8c3e adcb 3d5b 95b4 043b
000005f0: 54d1 d7a4 8c28 52be fab0 3796 6984 14bb
00000600: b24c 0234 96ac 453e 4070 92a5 92a3 113e
00000610: 2128 24c2 5129 6fbe 8168 54c9 c5e1 02bf
00000620: 4e89 17a0 8151 513f 43a5 f4e7 9238 363d
00000630: 75ec a3d0 8cd2 e53e 1f0e e138 9b72 b0bd
00000640: 147e cba4 8b21 503c be90 7b56 6b9e d0be
00000650: 4c56 d525 847d e0be 3f9c ddad 9944 483d
00000660: 77eb 7c7d f572 f8be 7b93 c792 8a8c d3be
00000670: fd8f f8c8 1410 25bf f346 a6f1 5aae 57be
00000680: dc72 01bc c3de 41be 3674 c4a9 1606 12bf
00000690: eaed 07e4 6133 053f 870b 5ec1 026f b93a
000006a0: 59de 877e b00c 873d 6392 4f61 6b26 d73e
000006b0: 4808 728a 3a36 17bf 3fd1 5a96 93f0 263f
000006c0: 00d0 f3cb f299 d63e a5d9 631f 365f 5b3d
000006d0: c124 d38b 4519 863a 24f2 d827 3b1e 833e
000006e0: 0619 2955 3203 0a3f 8c4d 1700 f4f7 f1bd
000006f0: 6382 f398 0398 013f 90a3 143f a765 31bf
00000700: 4a18 98b8 54d9 3cbe f81d a7c5 013c b4ba
00000710: 4eca 4546 6d70 0d3f af46 a4fe bd9e 533e
00000720: 15bc cbdf 1753 1c3e 4984 5679 f475 f0be
00000730: ed52 ed88 26a6 e7be 8d73 3a4a c030 f23e
00000740: d2d9 3f2b 5645 f73e f72e a4b4 d8e1 a1be
00000750: 8d0c c9fb 3063 193f b702 8bec c6e8 31bf
00000760: 3609 5eac 5868 803c 3505 b4c6 33ef ffbe
00000770: 72aa e9ad 504c b5bb 07e5 5cd6 4ca9 9abe
00000780: 50b4 3ec6 873a c63e f1f1 48a9 8f96 683d
00000790: 01bd 53e5 6785 ecbe f28e 62ad 90e4 bfbe
000007a0: 262a 31a3 4e2d a43c b334 dcd6 8ac9 7f3e
000007b0: b82d 8ef9 593b 0c3f 7234 6813 fa31 cebd
000007c0: a052 0a47 4617 1f3f 008e c7e5 94ae 72bb
000007d0: 5a9a 72b3 6989 ee3c a760 91f4 fb1f d0be
000007e0: f270 f863 7a49 fb3e ac2b fdf7 db3b d63e
000007f0: 40ed d058 8c98 d63e 651c 5d67 2e52 c93e
1.9249250726927835e-06 -0.00011516317629061936 -2.285356165895795e-05 -0.0007480542176066809 -1.5564524364334543e-16 -6.50150621441503e-05 6.166280154689406e-05 -4.056008411279518e-05
3.497172477297497e-05 0.003236904110488253 0.0012767512448075345 0.0017343638217816714 -0.0009020978491728679 -3.339639892315002e-16 4.3269286453070325e-05 -0.000941602707329176
5.0891960786351035e-06 3.1837657725390775e-07 9.022234495881057e-06 -0.0005174459419473082 7.357960162720232e-05 -9.816233354752285e-05 -1.6467073042053888e-05 -7.03594015631149e-06
4.264049595992716e-20 7.70603477664282e-09 -0.0008691959312774101 4.044393790144836e-05 2.7654330331218774e-08 1.127123918920837e-07 1.9644098189805328e-12 -0.0021942301376477393
0.00016168898414193694 -5.780343655507871e-08 -0.00012570355944718965 -0.0003647992886913873 0.0005643176351069288 5.0306016305454154e-11 -0.00014553032773596616 1.091201977231889e-27
0.00011511739229416409 -0.00011554664920385044 -3.1284382826373055e-10 -0.0006869075968381226 -5.937502451891242e-07 1.0724647050257488e-15 1.9154952420995912e-07 4.847429937640065e-05
0.00031667130305337003 -0.001204014764250111 -2.044053490295748e-06 1.6475733799240054e-13 -3.175268647323228e-10 1.3124419444203057e-22 -0.0014108728262253766 5.136179612248082e-07
9.144685900211737e-05 0.0007546867629675096 6.792184454841158e-20 -0.0003345834815363296 0.00012426162978210103 8.119776522697428e-21 -5.803351342978923e-06 1.0802616675412765e-08
-0.00032816037877142344 2.2573237501184408e-08 5.208648009753579e-06 -0.0002399821326070015 0.00256085372326354 -8.115901984257973e-24 0.0002869389050608258 -3.401691603533243e-08
1.224964902344637e-16 2.830620048769822e-05 -0.0002477486491525836 -1.0549860317084794e-05 0.0007226294750450231 0.0005532414102430582 0.0012529565903828196 -9.14455641881411e-11
-5.082443841923575e-05 0.0002345496895110373 0.00028990712722956483 5.160379309500534e-07 2.8161268216776205e-25 0.0009153471685705754 0.000154617278668196 0.0007455157921040594
-0.0002623597173669062 1.3380325469111366e-05 2.707057769652276e-08 3.1933415051412124e-05 4.721217985381907e-05 1.119928273176216e-05 0.0011707515332837247 -0.000825264827132774
-1.2685844002919655e-05 -5.1162058052364e-28 0.00043145437355990567 8.146470010890721e-05 -8.126511772591008e-05 -0.00016987535825060574 -0.00019367977371635174 0.001209743746932082
-0.0002698887406958778 7.121535470609464e-05 4.024167750187591e-06 -0.0004698289181991527 6.165366737086403e-29 -0.0010768854262302296 1.0560684021725785e-05 -2.095071840224535e-05
9.185079314656599e-05 -2.7329378526330127e-16 -0.00013356137305898196 -0.0003134649341757747 -7.836544894036808e-09 0.0006313814108410527 -0.0018862247478883191 1.0464089593865232e-19
-0.003607866871367379 -1.9417589230254795e-09 1.6787434826973e-10 0.00016776005515963565 0.0009299445588156826 -0.0007421108195326075 0.00022429615346244763 -0.0008312074847420857
1.6307359786640882e-11 -1.3632120799080177e-05 -5.45502116784741e-07 1.908105995380215e-06 -2.2598802499777576e-22 -4.5724033766441855e-06 3.714678253506433e-06 -3.14059586152815e-07
4.0539052902960475e-08 -4.0146831920830494e-05 7.97126131297133e-06 1.8192460262611848e-05 6.135073618976066e-05 -2.670545108727502e-21 1.075388054820307e-06 -2.5064589686932747e-05
-7.48429921138393e-17 -3.6093715044063644e-14 -1.57562251196179e-10 -1.9220891302284675e-07 8.981010211678428e-06 2.0410636513461865e-05 -6.713244957368837e-07 -1.8011415143627638e-07
-8.272265232328261e-14 2.1981569123296386e-10 -1.8464102099254098e-05 1.0508769980987902e-08 6.005188139567242e-25 -1.3236136752836287e-24 -1.2991182546192183e-14 -4.690485982889579e-05
-5.603636782903787e-06 -3.715200632477058e-21 -3.122631815498211e-05 -3.489882109471913e-05 -3.10494702129928e-06 -2.7432485908086282e-14 1.1694218486725857e-07 -1.4391754555219813e-21
-2.6124827935202516e-06 -1.05964289168634e-05 3.4640358282809576e-17 -5.881593048992464e-07 -1.8719942917668365e-11 -4.4366564866528327e-26 -6.222711338141758e-17 6.553873099497594e-08
2.714110049492318e-05 -1.125366448254924e-07 -1.997461744574677e-23 2.0223241663700845e-18 -2.5180573192208314e-24 2.4881527234398493e-21 2.5250066649740906e-05 9.719117978388569e-19
-3.580948033872113e-06 1.5100001153591692e-05 1.6314474810722181e-25 4.296453523507561e-06 2.129193155949709e-07 2.1408885952759685e-24 -1.6911324165649213e-08 -4.242864986756431e-24
1.0092820468515306e-08 1.0267223931188275e-09 -5.804263760081222e-08 -3.6014412368072e-05 0.0010570302841804327 7.894482084522654e-14 1.0405760367584855e-05 -1.4959078728283687e-11
3.497861081557651e-18 -3.9622367251393675e-06 -7.863186676597366e-06 1.7243429765249932e-13 -2.331643904017073e-05 -4.66084229031472e-06 -0.00016069654201189546 -2.2054719919757387e-08
-8.32144830835876e-09 -6.875527691759049e-05 4.043714989518026e-05 8.218050951111682e-26 2.6204325068527626e-12 5.519408223773715e-06 -8.854610733702404e-05 0.00017501641848628212
5.388584383359679e-06 3.889783726492843e-13 8.925600893161373e-27 1.4244087147450058e-07 4.961488106807088e-05 -2.614770623034111e-10 3.355751970857549e-05 -0.000265458423273795
-6.716919362300131e-09 -6.538087919506885e-26 5.615075568500949e-05 1.827262955620987e-08 1.648707725190319e-09 -1.5698205592000023e-05 -1.1276734111534284e-05 1.7347749816754325e-05
2.2192808231092012e-05 -5.329314743131548e-07 9.684549781589971e-05 -0.0002732740072524486 2.846265419071344e-17 -3.0455001632572274e-05 -4.510049388668129e-21 -3.972847565262236e-07
2.649859696965527e-06 6.988366748431859e-13 -1.3599928176037756e-05 -1.9009609580144857e-06 1.4000593158807618e-16 1.1841682631356745e-07 5.3847964586041725e-05 -5.4924789044918655e-11
0.00011860243263079684 -2.472536752028358e-22 3.3902624173316523e-15 -3.8444848736372854e-06 2.6022933751077824e-05 5.300957013630347e-06 5.3872803507619e-06 3.018500872284694e-06

fc1.bias f8 [64]
00000000: 8ade 5464 4f92 5dbf 6819 d301 98d8 d7be
00000010: fc8f 529f 53f4 a0bf acab 16e7 74ac 53bf
00000020: 5965 591e 9c49 32bf ca12 b0d7 ca9a 873f
00000030: 4b6c d66c c8fa a9be cbba 4617 506c b33f
00000040: 3894 ec0f 45c1 a93f 0fe2 c42c e76c 873f
00000050: 3363 249d 6bfa 773f 7e77 2c24 74da a3bf
00000060: 3f17 3bcc ddb3 04be 777c bde3 e2e7 80bf
00000070: 82e7 4cb5 e652 88bf 2f5f 5db5 9a86 a73f
00000080: b99b a1a2 7020 a7bf 838c 2844 290f a0bf
00000090: 0e02 9fe8 a34e 76bf e5a3 0f54 cccf a53f
000000a0: d225 9fce a738 a1bf f5cf 2579 584a 5dbf
000000b0: 45d7 7ed2 13a3 a73f a8ab 4b56 0a96 a73f
000000c0: 3d40 c6c1 a7e3 a43f d014 5175 9993 95bf
000000d0: 63e8 2565 685e b2bf 50dc d62f 9f02 40bf
000000e0: 8b1b f7c5 c4e5 793e 675b 7090 48ed abbf
000000f0: b56e 8ddb ea2a a93f 92c7 da85 b7d0 b43f
00000100: 2498 6400 ce9c 88bf fac9 4b31 dd22 923f
00000110: d4f4 ed00 2eae b23f e0b8 c3f1 01e6 90bf
00000120: 0560 1360 8d1e b33f 6ba1 d2c4 9948 aebf
00000130: ff51 e61d 8778 44bf a5fc 1ba5 f08d aa3f
00000140: 9f3b 9ab2 00cf 90bf a327 11dc 3059 aa3f
00000150: 9065 f48a 3583 ab3f f3de 0f6d ee11 943f
00000160: 20b5 54d2 afaa a53f b5c9 9cd6 02a0 b2bf
00000170: e2ae a9c5 2bd9 b03f 7809 db5e bbc9 af3f
00000180: 236a e0f2 33e5 ab3f c4ec 6378 d36b 22be
00000190: 4b7c 3278 23c8 b2bf 91c7 1bc3 dc0d a4be
000001a0: 915d ffe0 0266 b03f 49f0 dbf1 4e78 a1bf
000001b0: 923c 8f0d 73b7 ad3f a62a 451a 653e b4bf
000001c0: 4751 79ed 726a afbf 4a61 df49 ac81 753f
000001d0: 06e8 bd97 8385 b3bf 280b dbd5 8d8c a6bf
000001e0: 508d 618b fd39 b83f 4ea4 15b6 4ede 93bf
000001f0: dae0 a7d7 a18e b53f 45da 02d9 1072 1a3f
-0.0018049025832861687 -5.6853459941607755e-06 -0.0331140644059644 -0.001200784838469397 -0.00027904569137645257 0.01152571173407448 -7.74253032953691e-07 0.07587147300976509
0.05030265635858949 0.01143818478941319 0.0058540538468825785 -0.0387760442883822 -6.025250510862242e-10 -0.008254787993506192 -0.01187687149796424 0.04594882453846904
-0.0451693724178805 -0.03136567074786802 -0.00544609095408123 0.04260099912773522 -0.03363537213551705 -0.001787744903222863 0.04616605705761726 0.04606659224904003
0.04079937210474369 -0.021070859704441613 -0.07175304860530356 -0.0004885937957429618 9.647583131605942e-08 -0.054544704086018574 0.04915555887302273 0.08130976694044836
-0.012017831217757964 0.017711120733062892 0.07297027132695472 -0.016502409344803293 0.07468494029615165 -0.059147649074762075 -0.0006247195959070971 0.051864166407534364
-0.016414652730016518 0.051461722243927775 0.053735421383133475 0.019599652678123424 0.04231786196246845 -0.07275407542764507 0.06581376624825055 0.06208596737771449
0.05448305454065785 -2.144509406098529e-09 -0.07336637196066069 -5.976602379371945e-07 0.06405656807998229 -0.0341210050810053 0.058040233044828984 -0.0790770711075007
-0.06135901593066478 0.005250618936735238 -0.07625601248392408 -0.0440410922579047 0.09463486340387317 -0.019402723182256935 0.08420764460595667 0.00010088184194754445

bn1_fc.weight f8 [64]
00000000: 0000 0000 0000 f03f 0000 0000 0000 f03f
00000010: 0000 0000 0000 f03f 0000 0000 0000 f03f
00000020: 0000 0000 0000 f03f 0000 0000 0000 f03f
00000030: 0000 0000 0000 f03f 0000 0000 0000 f03f
00000040: 0000 0000 0000 f03f 0000 0000 0000 f03f
00000050: 0000 0000 0000 f03f 0000 0000 0000 f03f
00000060: 0000 0000 0000 f03f 0000 0000 0000 f03f
00000070: 0000 0000 0000 f03f 0000 0000 0000 f03f
00000080: 0000 0000 0000 f03f 0000 0000 0000 f03f
00000090: 0000 0000 0000 f03f 0000 0000 0000 f03f
000000a0: 0000 0000 0000 f03f 0000 0000 0000 f03f
000000b0: 0000 0000 0000 f03f 0000 0000 0000 f03f
000000c0: 0000 0000 0000 f03f 0000 0000 0000 f03f
000000d0: 0000 0000 0000 f03f 0000 0000 0000 f03f
000000e0: 0000 0000 0000 f03f 0000 0000 0000 f03f
000000f0: 0000 0000 0000 f03f 0000 0000 0000 f03f
00000100: 0000 0000 0000 f03f 0000 0000 0000 f03f
00000110: 0000 0000 0000 f03f 0000 0000 0000 f03f
00000120: 0000 0000 0000 f03f 0000 0000 0000 f03f
00000130: 0000 0000 0000 f03f 0000 0000 0000 f03f
00000140: 0000 0000 0000 f03f 0000 0000 0000 f03f
00000150: 0000 0000 0000 f03f 0000 0000 0000 f03f
00000160: 0000 0000 0000 f03f 0000 0000 0000 f03f
00000170: 0000 0000 0000 f03f 0000 0000 0000 f03f
00000180: 0000 0000 0000 f03f 0000 0000 0000 f03f
00000190: 0000 0000 0000 f03f 0000 0000 0000 f03f
000001a0: 0000 0000 0000 f03f 0000 0000 0000 f03f
000001b0: 0000 0000 0000 f03f 0000 0000 0000 f03f
000001c0: 0000 0000 0000 f03f 0000 0000 0000 f03f
000001d0: 0000 0000 0000 f03f 0000 0000 0000 f03f
000001e0: 0000 0000 0000 f03f 0000 0000 0000 f03f
000001f0: 0000 0000 0000 f03f 0000 0000 0000 f03f
1.0 1.0 1.0 1.0 1.0 1.0 1.0 1.0
1.0 1.0 1.0 1.0 1.0 1.0 1.0 1.0
1.0 1.0 1.0 1.0 1.0 1.0 1.0 1.0
1.0 1.0 1.0 1.0 1.0 1.0 1.0 1.0
1.0 1.0 1.0 1.0 1.0 1.0 1.0 1.0
1.0 1.0 1.0 1.0 1.0 1.0 1.0 1.0
1.0 1.0 1.0 1.0 1.0 1.0 1.0 1.0
1.0 1.0 1.0 1.0 1.0 1.0 1.0 1.0

bn1_fc.bias f8 [64]
00000000: 0000 0000 0000 0000 0000 0000 0000 0000
00000010: 0000 0000 0000 0000 0000 0000 0000 0000
00000020: 0000 0000 0000 0000 0000 0000 0000 0000
00000030: 0000 0000 0000 0000 0000 0000 0000 0000
00000040: 0000 0000 0000 0000 0000 0000 0000 0000
00000050: 0000 0000 0000 0000 0000 0000 0000 0000
00000060: 0000 0000 0000 0000 0000 0000 0000 0000
00000070: 0000 0000 0000 0000 0000 0000 0000 0000
00000080: 0000 0000 0000 0000 0000 0000 0000 0000
00000090: 0000 0000 0000 0000 0000 0000 0000 0000
000000a0: 0000 0000 0000 0000 0000 0000 0000 0000
000000b0: 0000 0000 0000 0000 0000 0000 0000 0000
000000c0: 0000 0000 0000 0000 0000 0000 0000 0000
000000d0: 0000 0000 0000 0000 0000 0000 0000 0000
000000e0: 0000 0000 0000 0000 0000 0000 0000 0000
000000f0: 0000 0000 0000 0000 0000 0000 0000 0000
00000100: 0000 0000 0000 0000 0000 0000 0000 0000
00000110: 0000 0000 0000 0000 0000 0000 0000 0000
00000120: 0000 0000 0000 0000 0000 0000 0000 0000
00000130: 0000 0000 0000 0000 0000 0000 0000 0000
00000140: 0000 0000 0000 0000 0000 0000 0000 0000
00000150: 0000 0000 0000 0000 0000 0000 0000 0000
00000160: 0000 0000 0000 0000 0000 0000 0000 0000
00000170: 0000 0000 0000 0000 0000 0000 0000 0000
00000180: 0000 0000 0000 0000 0000 0000 0000 0000
00000190: 0000 0000 0000 0000 0000 0000 0000 0000
000001a0: 0000 0000 0000 0000 0000 0000 0000 0000
000001b0: 0000 0000 0000 0000 0000 0000 0000 0000
000001c0: 0000 0000 0000 0000 0000 0000 0000 0000
000001d0: 0000 0000 0000 0000 0000 0000 0000 0000
000001e0: 0000 0000 0000 0000 0000 0000 0000 0000
000001f0: 0000 0000 0000 0000 0000 0000 0000 0000
0.0 0.0 0.0 0.0 0.0 0.0 0.0 0.0
0.0 0.0 0.0 0.0 0.0 0.0 0.0 0.0
0.0 0.0 0.0 0.0 0.0 0.0 0.0 0.0
0.0 0.0 0.0 0.0 0.0 0.0 0.0 0.0
0.0 0.0 0.0 0.0 0.0 0.0 0.0 0.0
0.0 0.0 0.0 0.0 0.0 0.0 0.0 0.0
0.0 0.0 0.0 0.0 0.0 0.0 0.0 0.0
0.0 0.0 0.0 0.0 0.0 0.0 0.0 0.0

bn1_fc.running_mean f8 [64]
00000000: 0000 0000 0000 0000 0000 0000 0000 0000
00000010: 0000 0000 0000 0000 0000 0000 0000 0000
00000020: 0000 0000 0000 0000 0000 0000 0000 0000
00000030: 0000 0000 0000 0000 0000 0000 0000 0000
00000040: 0000 0000 0000 0000 0000 0000 0000 0000
00000050: 0000 0000 0000 0000 0000 0000 0000 0000
00000060: 0000 0000 0000 0000 0000 0000 0000 0000
00000070: 0000 0000 0000 0000 0000 0000 0000 0000
00000080: 0000 0000 0000 0000 0000 0000 0000 0000
00000090: 0000 0000 0000 0000 0000 0000 0000 0000
000000a0: 0000 0000 0000 0000 0000 0000 0000 0000
000000b0: 0000 0000 0000 0000 0000 0000 0000 0000
000000c0: 0000 0000 0000 0000 0000 0000 0000 0000
000000d0: 0000 0000 0000 0000 0000 0000 0000 0000
000000e0: 0000 0000 0000 0000 0000 0000 0000 0000
000000f0: 0000 0000 0000 0000 0000 0000 0000 0000
00000100: 0000 0000 0000 0000 0000 0000 0000 0000
00000110: 0000 0000 0000 0000 0000 0000 0000 0000
00000120: 0000 0000 0000 0000 0000 0000 0000 0000
00000130: 0000 0000 0000 0000 0000 0000 0000 0000
00000140: 0000 0000 0000 0000 0000 0000 0000 0000
00000150: 0000 0000 0000 0000 0000 0000 0000 0000
00000160: 0000 0000 0000 0000 0000 0000 0000 0000
00000170: 0000 0000 0000 0000 0000 0000 0000 0000
00000180: 0000 0000 0000 0000 0000 0000 0000 0000
00000190: 0000 0000 0000 0000 0000 0000 0000 0000
000001a0: 0000 0000 0000 0000 0000 0000 0000 0000
000001b0: 0000 0000 0000 0000 0000 0000 0000 0000
000001c0: 0000 0000 0000 0000 0000 0000 0000 0000
000001d0: 0000 0000 0000 0000 0000 0000 0000 0000
000001e0: 0000 0000 0000 0000 0000 0000 0000 0000
000001f0: 0000 0000 0000 0000 0000 0000 0000 0000
0.0 0.0 0.0 0.0 0.0 0.0 0.0 0.0
0.0 0.0 0.0 0.0 0.0 0.0 0.0 0.0
0.0 0.0 0.0 0.0 0.0 0.0 0.0 0.0
0.0 0.0 0.0 0.0 0.0 0.0 0.0 0.0
0.0 0.0 0.0 0.0 0.0 0.0 0.0 0.0
0.0 0.0 0.0 0.0 0.0 0.0 0.0 0.0
0.0 0.0 0.0 0.0 0.0 0.0 0.0 0.0
0.0 0.0 0.0 0.0 0.0 0.0 0.0 0.0

bn1_fc.running_var f8 [64]
00000000: 0000 0000 0000 f03f 0000 0000 0000 f03f
00000010: 0000 0000 0000 f03f 0000 0000 0000 f03f
00000020: 0000 0000 0000 f03f 0000 0000 0000 f03f
00000030: 0000 0000 0000 f03f 0000 0000 0000 f03f
00000040: 0000 0000 0000 f03f 0000 0000 0000 f03f
00000050: 0000 0000 0000 f03f 0000 0000 0000 f03f
00000060: 0000 0000 0000 f03f 0000 0000 0000 f03f
00000070: 0000 0000 0000 f03f 0000 0000 0000 f03f
00000080: 0000 0000 0000 f03f 0000 0000 0000 f03f
00000090: 0000 0000 0000 f03f 0000 0000 0000 f03f
000000a0: 0000 0000 0000 f03f 0000 0000 0000 f03f
000000b0: 0000 0000 0000 f03f 0000 0000 0000 f03f
000000c0: 0000 0000 0000 f03f 0000 0000 0000 f03f
000000d0: 0000 0000 0000 f03f 0000 0000 0000 f03f
000000e0: 0000 0000 0000 f03f 0000 0000 0000 f03f
000000f0: 0000 0000 0000 f03f 0000 0000 0000 f03f
00000100: 0000 0000 0000 f03f 0000 0000 0000 f03f
00000110: 0000 0000 0000 f03f 0000 0000 0000 f03f
00000120: 0000 0000 0000 f03f 0000 0000 0000 f03f
00000130: 0000 0000 0000 f03f 0000 0000 0000 f03f
00000140: 0000 0000 0000 f03f 0000 0000 0000 f03f
00000150: 0000 0000 0000 f03f 0000 0000 0000 f03f
00000160: 0000 0000 0000 f03f 0000 0000 0000 f03f
00000170: 0000 0000 0000 f03f 0000 0000 0000 f03f
00000180: 0000 0000 0000 f03f 0000 0000 0000 f03f
00000190: 0000 0000 0000 f03f 0000 0000 0000 f03f
000001a0: 0000 0000 0000 f03f 0000 0000 0000 f03f
000001b0: 0000 0000 0000 f03f 0000 0000 0000 f03f
000001c0: 0000 0000 0000 f03f 0000 0000 0000 f03f
000001d0: 0000 0000 0000 f03f 0000 0000 0000 f03f
000001e0: 0000 0000 0000 f03f 0000 0000 0000 f03f
000001f0: 0000 0000 0000 f03f 0000 0000 0000 f03f
1.0 1.0 1.0 1.0 1.0 1.0 1.0 1.0
1.0 1.0 1.0 1.0 1.0 1.0 1.0 1.0
1.0 1.0 1.0 1.0 1.0 1.0 1.0 1.0
1.0 1.0 1.0 1.0 1.0 1.0 1.0 1.0
1.0 1.0 1.0 1.0 1.0 1.0 1.0 1.0
1.0 1.0 1.0 1.0 1.0 1.0 1.0 1.0
1.0 1.0 1.0 1.0 1.0 1.0 1.0 1.0
1.0 1.0 1.0 1.0 1.0 1.0 1.0 1.0

fc2.weight f8 [64, 64]
00000000: 50fd 233b a391 37bb 563f 06d4 9031 fcb9
00000010: 6983 ac52 9e93 b83b 945c d6ad 4abd c1b9
00000020: 2e83 0386 12c2 e93b ebc4 9bbe 5fcc e9bd
00000030: 2224 5d3d 0ad7 ba3d 3650 9da4 b359 c6b9
00000040: 04ed 076e e375 b83f a5c4 4295 6820 b0bf
00000050: 6b0d 53e6 93e5 b8bf 57a7 5fd8 a552 a3bf
00000060: 64fd 514f d2c8 373b 88cf 5caa 538d 8fbf
00000070: 694e da35 0f01 8fbf 613e 42ce a7a7 623f
00000080: dacf a7d6 cfaf 0ebf 0c61 d29b 95b4 82bf
00000090: 05bb 10e6 4a88 74bf 31fd 5db4 f9cf 95bf
000000a0: 52a9 7418 f2e6 ae3f c0da eaa8 1119 083e
000000b0: 40d3 c796 f611 92bf e3d1 330f 8d25 8a3f
000000c0: 3193 7ad5 49c0 953f 1fed 081d abbf b73f
000000d0: 35d2 d587 56a8 753f 3370 8387 ffd2 a43b
000000e0: bc37 263a fc41 c93a ae07 cfe6 8ff9 9dbf
000000f0: 4684 e4ac 822c 29ba 0fc5 f550 946c a8bf
00000100: 2cf1 6f2b 90ce 1a3b a247 4a1c 6219 97bf
00000110: 8e65 c418 aa2b a8bf 1f0d eb29 43ac 803f
00000120: a5a6 9d70 c1e5 a33f c2d3 6f07 72c0 56bf
00000130: f4af 051f b988 de39 93c5 28fa 5674 b5bf
00000140: 80a6 72ec b20b b0bf 5be9 e245 eafa 8d3f
00000150: b58a 4865 6cee 97bf 76d7 5c24 363e 4f3f
00000160: e1c8 82c1 c2aa a6bf 8ecf af78 8b04 a1bf
00000170: cfe6 321f 9ee2 b63f 61f2 ca4b d2ae b2bf
00000180: 0b80 a7cd b71e ab3f 8e72 00ce b9bd ee39
00000190: 4c8e b11e 34ff 4abf f8a5 14d2 d7a3 d2b9
000001a0: 5432 38ec 6d8e a63f 95fa 1f06 222b b43f
000001b0: 3771 86f9 3854 a5bf 419b 55e2 0fc6 b13f
000001c0: bd2a e6df 1c0c 34bf d6f2 28e4 655a 803f
000001d0: a286 0eee 10b5 6e3f 0b53 96b6 4189 bebd
000001e0: 7721 40ae 7faa 963f 4042 5953 18a2 633f
000001f0: 7cb6 ed93 c34b 67bf 932a f688 9fbb 7e3a
00000200: 2d38 5d10 f856 84bb 9af5 c42a ab6b 283e
00000210: cf38 dd63 51a9 f8ba a671 fe28 ea22 6b3a
00000220: ae34 fe3d 9e51 143a 81d8 e164 576c c93d
00000230: 886b 4c23 7160 823b d7e4 117a 8fec 1e3e
00000240: ff80 b2fb eef9 4abf 46f8 d682 aa90 feb9
00000250: 1d3e f9d7 1a70 5fbf d63f d582 88cf 62bf
00000260: 7bac 61cb b396 3a3a b679 4c23 3bb3 44bf
00000270: b992 a949 7c38 153e 148f 5530 bcd0 073e
00000280: b5e4 f26e 6a78 503e 51c8 7dc5 39e3 fdb9
00000290: eca0 69ee c9bd b43c f490 fa2d 994b 5d3d
000002a0: 91ba d003 ed9e 29bf 35e6 e028 2c61 b239
000002b0: a8a9 36eb 0b7a f9bd 27f8 403e bef3 a2bc
000002c0: 4d2d 64f8 cb45 023b 64c9 001d c399 3bbf
000002d0: 041a 12af 3d09 1abf 8a17 4afb 4fb0 efb9
000002e0: 8140 c221 ffe1 f0b9 e276 c550 2d77 0dbf
000002f0: 6293 ba1b 8e90 3bbb 1833 4b22 1132 4fbf
00000300: a165 b7b8 eef7 803c 468b 143d 2b61 523d
00000310: 994f 7335 d440 61be 648f a50c 7117 50be
00000320: df3b 40c7 918b 00be e1b6 ccf7 6560 ffbe
00000330: cfdf 6efd 1b07 f4b9 f7f8 f950 5b29 003e
00000340: dce1 87f9 d678 e0bb 564f 8fe4 6123 13bf
00000350: e67d fc88 11f6 0abe 43e7 6af4 699e 32be
00000360: 761f c917 1390 4dbf 930e 39cc 53e9 d6bc
00000370: e806 e894 1b07 54bf b21f 977d 338b 4d3e
00000380: 87cd 8ab1 05fd f0be 8acb 9e9d 644e a7ba
00000390: f5aa 9668 867a 28bf 5f59 d456 f4cc 423d
000003a0: f184 5738 5225 e8b9 024d 438d fef4 c6b9
000003b0: 8c51 4943 aba2 37bf b157 40de de1d 293a
000003c0: d7fb 9718 1806 1d3e 4664 b60e 8856 cabd
000003d0: f3d0 b375 ae03 873a 1486 b61f f610 c2b9
000003e0: 6fba 1ffe a396 4dbf 1066 3252 5874 753d
000003f0: a94b c904 580d 87be 2405 367a 0ac3 f9b9
00000400: 58fb 8c68 aa5b e7b9 3e22 b766 6423 1e3e
00000410: 3284 add4 0522 beb9 0719 b173 de4d ac3f
00000420: 02be e9fa c2c7 383e e51e 8de7 3863 7c3f
00000430: 796a 4f54 73e4 c4bd 6698 78a7 4c09 a9bf
00000440: a849 ab9c 63c1 a4bf bee4 2beb 9f44 9bbf
00000450: 2ef0 47f8 dda6 8e3f 3647 88f3 3444 983f
00000460: 33b7 93b7 19d4 813d 9968 7323 e844 aabf
00000470: e8d6 a4c4 8941 a3bf 8b2f 73c8 0168 a4bf
00000480: 9bea 2b0f d43c af3f 13db a765 f71e 8d3f
00000490: 8b8a 1a72 3ccd b23f 8035 31c9 86b4 b5bf
000004a0: fad5 d8f2 3167 b83f 4668 008c 4e4b 5fbc
000004b0: 1b8e c256 3f92 b9bf d099 387f 984d aabf
000004c0: 415d e964 6a5b b23f 2975 70cc 990b bb3f
000004d0: bd46 187f 61a5 b4bf fcb6 961b e0d9 fd3d
000004e0: ff3b a3ea 1b89 3e3e ed5a e6ff a1ec bdbf
000004f0: cb54 1ddc 9148 9b3f a299 c647 dfad ad3f
00000500: e8d1 fd4d c080 4dbf 552e 94c6 b46e a83f
00000510: 4d43 61b8 fe34 913f 0371 5320 33eb b63f
00000520: 488a 0c87 1a67 a23f 7c6e f3b6 6226 b8bf
00000530: 60b3 6fad 97a8 9abe dbd1 ccff 5831 adbf
00000540: fd5c 80ef 0c81 a73f 4f8a 2e52 c185 acbf
00000550: 68ab 59d9 8ae4 a43f d801 0a26 fbad 983f
00000560: 7c57 5a23 c637 b5bf fbff 8968 9857 a6bf
00000570: 2a95 ce5b 599f 993f 0027 e5b0 1f97 8cbf
00000580: a938 27e3 b8a3 b63f 4988 a1b8 a001 39be
00000590: 1b1c d23b 0df7 b33f f81e a3eb 3cd7 a4be
000005a0: c0ce 2665 42e5 b23f 93e5 991a c252 9cbf
000005b0: 53a5 6626 ed4d a43f 2e24 aad6 ae02 a5bf
000005c0: 0efb 70e2 d421 bcbf 26b6 867a 50dc 8fbf
000005d0: e32b 6f7e 928f 90bf e5a5 caa7 aab6 893f
000005e0: 6bad 1926 1aa1 b1bf cb6c a47c 2a09 3abf
000005f0: 2cdb fad7 7f25 9cbf 9232 3b98 1494 093f
00000600: 3f65 294d b300 d23a c205 435b 1f2d 4cbc
00000610: 048c 1077 95d2 b4bc b831 2ee0 20c0 eab9
00000620: 79e1 b81f f0bd 87be 0640 8c83 9d86 a5bd
00000630: df8c f3cb a688 d8bd b5ed 08a0 3aca d1be
00000640: 4f53 777f 9f88 a53f 7bb0 9aca ea04 44bd
00000650: 8832 7dc9 8b68 8dbf 9f4c 3c10 6496 8a3f
00000660: c091 4790 944d acbd ae3c 47da 2313 b43f
00000670: 834e f84f 4233 33bf 3101 6d16 84d0 32bf
00000680: 7a92 a55f 17a6 353a c4a2 ea8b 050c a13a
00000690: 07e1 bcdc 3dab dabe 534a 75ac de24 e939
000006a0: 17b2 6b1e 123d a0bf c7b6 3ef1 f4f3 8ebe
000006b0: dc69 479c 1d33 783f e3cc 0735 b282 753a
000006c0: 96b4 e85b 65f4 5a3e ea1a ae71 340d aabf
000006d0: ea90 5588 a32e 8cbf a25f e34b b3b8 cb3e
000006e0: 25bb 69db 154d 363e 4b5b 8b00 b9f9 40bf
000006f0: 532c b618 02d1 3ebb 9201 1e12 ba45 aebf
00000700: 09c0 2746 e605 1abf 4572 4cfc 8529 a73b
00000710: 1f0f a849 b480 98bf 5b7e ca7b 3997 a93f
00000720: 8b30 4c69 5a9f 9a39 09f2 8281 6470 93bf
00000730: f747 7669 a4ae 1b3e dd3a fefa e7b7 fb3e
00000740: 1861 1648 8bc3 be3a 239b b001 4026 983f
00000750: f3a9 443a c04d d3be b1a1 f92e 935c 743f
00000760: 62ce 7ebf 4d09 b83f bd18 1955 b544 3bbf
00000770: e8ce 0755 43c6 813f 28f7 5cfb 3523 7b3f
00000780: 6968 545e 81b1 8a3f aac8 c30d c62c 7e3d
00000790: 26ed e7f8 f1c5 8abf ce36 b4c4 d712 4a3e
000007a0: 35da 9966 709f c239 52f8 d188 8d71 58bf
000007b0: 0d98 51ed 236c 91bf 690c 52ac 04f6 00ba
000007c0: cb3b 787d 3910 86bf e6a7 8e2b 78b0 bfbe
000007d0: a4b1 f233 5578 483b be26 dcbd fdf3 d83b
000007e0: df29 dd40 a5ba 8b3f 8428 23ec b351 21bd
000007f0: 2d1b e25f 30d6 973f 6ffc ef97 1b03 bebe
-1.949573462264523e-23 -2.22408415601178e-29 5.204304802596478e-21 -1.7492419400415127e-30 4.363591049441953e-20 -1.8770759886037042e-10 2.441083779145635e-11 -2.20391933915064e-30
0.09554883419325583 -0.06299451488554782 -0.09725307820467825 -0.03773992792396424 1.9674043425709614e-23 -0.015406278263618636 -0.015138739424663332 0.0022772099928898702
-5.853035948524795e-05 -0.009133499925426246 -0.00501279122640486 -0.02130117572187124 0.06035572575122451 7.013419444461966e-10 -0.017646649315753438 0.012766935373726923
0.021241334585869246 0.09276837786540114 0.005287492761784797 2.2048491623829427e-21 1.6322441558892836e-25 -0.029272316420026527 -1.5886944836850394e-28 -0.04770339477807727
5.543534375672764e-24 -0.022557766892141402 -0.04720813324292826 0.008141064373723026 0.038862271306084474 -0.0013886560025160176 6.021784456921201e-30 -0.08380645377544331
-0.06267851135876334 0.014638738878023963 -0.02337045067009554 0.0009534611096799611 -0.044271551248486814 -0.033237799150724986 0.0893954111260442 -0.07298006391915514
0.05296873460224568 1.2125232457233446e-29 -0.0008238796703036815 -3.6760941674455544e-30 0.04405539997614896 0.07878315591367831 -0.0416581921192311 0.06942843700163072
-0.00030589775988036275 0.007984920525922073 0.0037484484350479167 -2.777247478146322e-11 0.022134776125342506 0.002396628867053857 -0.0028437442664913087 6.206460346566689e-27
-5.383879758392422e-22 2.8429297441829633e-09 -1.2749644024965113e-24 2.7400747046413546e-27 6.411489358371739e-29 4.624454691601699e-11 4.86427896208951e-22 1.8000174478376779e-09
-0.0008232514295692105 -2.411161386843743e-29 -0.0019188177247037093 -0.0022962251884237435 3.3559633471165585e-28 -0.0006317175635535608 1.2352041946994514e-09 6.931185353689196e-10
1.5339231160194216e-08 -2.3577159405751553e-29 2.878442273021669e-16 4.163113386152172e-13 -0.00019547122238479768 9.061832608862654e-31 -3.7073542431605697e-10 -1.3150676124823947e-16
1.8893470646611563e-24 -0.0004211522436917885 -9.931982983078102e-05 -1.2498996338836338e-29 -1.3318180301695456e-29 -5.620104829760581e-05 -2.280095929260544e-23 -0.0009520133649743882
2.943563162617616e-17 2.6118934241873575e-13 -3.213666016082343e-08 -1.4986441235027527e-08 -4.815284963317095e-10 -2.992301550646434e-05 -1.5799125436842703e-29 4.703630002441796e-10
-2.790470466670584e-20 -7.300648680025104e-05 -7.846743411045049e-10 -4.335028175561518e-09 -0.0009021847941505917 -1.2718401277769422e-15 -0.0012223977424813907 1.3757382721644378e-08
-1.6201370359692566e-05 -3.76532336529994e-26 -0.0001867569992957879 1.3358632116913384e-13 -9.523833233145305e-30 -2.263735877635887e-30 -0.0003606479761278029 1.5850854766360316e-28
1.6894078101517777e-09 -4.790856759835861e-11 9.295434376689374e-27 -1.7814703386226666e-30 -0.0009029675240961997 1.2195455765750426e-12 -1.7175171009245404e-07 -2.032253889012999e-29
-9.213133718251367e-30 1.7542770802520197e-09 -1.4856667456861128e-30 0.05528159296277307 5.769617601917514e-09 0.006930563243095132 -3.800302654057815e-11 -0.048899074023481856
-0.040537941813130474 -0.02662896988747287 0.014966711177287175 0.02369768844989225 2.02686776580882e-12 -0.05130696709393696 -0.03760939145506176 -0.03985601016901715
0.0610109585304219 0.014219219960961682 0.07344415460333147 -0.08478586589736459 0.09532463244325831 -6.785840830283471e-18 -0.09988780849612804 -0.05137325814239413
0.07170739139234163 0.10564576379006908 -0.08064851143742664 4.343903254363457e-10 7.109619263279607e-09 -0.11689198014787978 0.026644019183852657 0.05796716452759944
-0.0009003581035203463 0.04771962093408592 0.016803722385080367 0.0895263627930412 0.03594286821887188 -0.09433571783613987 -3.972435655408997e-07 -0.05701711771544967
0.04590645240403466 -0.05570797088809753 0.04080613997651633 0.02410118503257927 -0.08288229334934089 -0.04363704944717025 0.025021930912449232 -0.013960120759878958
0.08843570276005387 -5.822246582506765e-09 0.0779884596869213 -6.211034453634868e-07 0.07381072015305801 -0.027659447549444115 0.03965703099977227 -0.04103609438340815
-0.10989122894623568 -0.015556935061648746 -0.01617268463796141 0.012555440183251452 -0.06886447363074459 -0.00039727484967650985 -0.027486798817984923 4.8787001131954684e-05
2.3267990824926e-25 -3.0548761992362147e-18 -2.889715294326311e-16 -1.0551212470782432e-29 -1.768912766141064e-07 -9.788819157049964e-12 -8.925342668747628e-11 -4.241456281802089e-06
0.042057976064518436 -1.422450255915585e-13 -0.01435956200261869 0.012982160325498092 -1.2870736168458112e-11 0.07841705397662466 -0.0002929722686257701 -0.0002870867232793893
2.7324619764142947e-28 2.75408486560657e-26 -6.358364270480033e-06 9.917568266031901e-30 -0.0317159330496432 -2.3061749543139618e-07 0.005908122697713538 4.344017287326117e-27
2.510349416723376e-08 -0.050881995083775625 -0.013760831449595352 3.3046586330568885e-06 5.192382904376123e-09 -0.0005180505114264848 -2.5490760260483546e-23 -0.059125723563741364
-9.927003842569183e-05 2.4523933912303916e-21 -0.023928467746386347 0.04998187671776285 3.281473187540974e-31 -0.01898343124843119 1.6113158913465111e-09 2.6434310427310134e-05
9.940334117049349e-26 0.023583412268773373 -4.602364161147225e-06 0.004971098838361263 0.0938919632451927 -0.0004160826402749387 0.00867893794291015 0.006625376574275234
0.01303387707826094 1.7152443127019544e-12 -0.013072863014704849 1.21414684057786e-08 1.8363507308833207e-30 -0.0014919168636704683 -0.017014085159097237 -2.6759753520733347e-29
-0.010773133412866806 -1.888831475430839e-06 4.0482302050946557e-23 2.1136089823342455e-20 0.013539591829290152 -3.076499348275568e-14 0.02327800355171943 -1.7888629313398695e-06

fc2.bias f8 [64]
00000000: bcc5 ae9e fd5d b1bf af32 fd46 8c46 40bf
00000010: 02e3 99ec 8d20 aabf 7797 a38a 530c b4bf
00000020: 0af1 4f76 f41c 4b3d 24be 2b72 c509 a2bf
00000030: 0ca6 2619 3c02 b8bf 6830 d75a f985 2cbd
00000040: 7d37 7da2 e93e a1bf 1491 910b 0161 b8bf
00000050: 2c7d 4e8a f87d 763f 6fdd 14e0 a1a2 a3bf
00000060: c15d 9c14 e192 b23f e925 3e93 09b1 583e
00000070: e427 4717 cc2f 9dbf c7bb 33f9 a73a a0bf
00000080: 708d 46af bd00 9f3f df74 260e a2b0 bfbf
00000090: 430d 80a4 b40e 933f bdd8 9321 f748 ad3f
000000a0: 37c0 99ee 1e03 a33f c125 224a fb88 84bf
000000b0: 1da1 27aa 68af bb3f a49a 10dc 318f c3ba
000000c0: f497 c805 7093 3f3f 56de 930d 7caa 62bf
000000d0: 5175 be7b 1229 b83f e4dd a442 e95f b5bf
000000e0: ab0f c791 6156 b4bf 7198 59f1 a2d5 b9bf
000000f0: 595b 6267 cc1c b63f 93ad dc06 e6a7 8cbf
00000100: d99c 1191 f3ac a6bf f5ff e071 5a4d 28be
00000110: b69c 3d02 23f7 91bf 1208 a676 c786 a4bf
00000120: 60ae 2c30 d01e b4bf 8639 6eeb 42b4 40bd
00000130: af2f a285 6155 853f 6af7 498a 460e 5fbd
00000140: 5b20 2b40 996e b8bf 6f0b f491 e10b a7bf
00000150: 6c02 1541 74ad 9cbf 42fd 4676 fe08 a3bf
00000160: 00ed 514f 259a b0bf e450 4240 1be2 973f
00000170: caeb 12ce 072c aabf 5f61 b7e7 23af b7bf
00000180: 551a 3139 c63c 8bbf 6904 b85b 5f11 ad3f
00000190: 25e4 6ea4 c567 a03f 2889 85ce 6ec9 a03f
000001a0: ff40 9a42 95de ad3f 6365 7fb5 9c7c 913f
000001b0: afdd c7dc a2e9 983f a9af 0e9c dd9e bf3f
000001c0: 4c80 29fb ffb7 a0bf d888 0357 d4ad bf3f
000001d0: 0789 096e 5cd3 a93f b0ed f2c9 8f11 abbf
000001e0: aa36 2422 dc6e bc3f a698 53a4 1195 5cbf
000001f0: f956 ef2f a915 a7bf b7dc 8d22 76d0 89bf
-0.06784043430413694 -0.0004966912219771159 -0.05102962029645221 -0.07831308493368093 1.926501994126694e-13 -0.03523079889953021 -0.09378409971272833 -5.0667623169071174e-14
-0.033683110318277955 -0.09523016483723651 0.005491228924170682 -0.0383501611744873 0.07255369904702659 2.2995800110934603e-08 -0.028502644463323082 -0.031697510881592054
0.030276264021848076 -0.12378895612205863 0.01861078504590564 0.057197306488818246 0.03713318503002976 -0.0100268966673579 0.10814527658624624 -1.2639936621707645e-25
0.0004818104260116967 -0.0022785590086831604 0.09437671204655841 -0.08349473835993809 -0.07944307145140665 -0.10091608421643784 0.08637692951229549 -0.01399211605492815
-0.0442882647119462 -2.829143932173883e-09 -0.017544314395675463 -0.04009078334185302 -0.07859517265449645 -1.186900967754904e-13 0.010416757479354858 -4.4132894825419573e-13
-0.09543760124791005 -0.04501252085358131 -0.02800542494992657 -0.03717799371542664 -0.0648520773556136 0.02332346515375229 -0.05111717596579231 -0.09251617819916678
-0.013299511547427626 0.056773166605133714 0.03204171783676938 0.03278681059852523 0.058338798885531055 0.017076920106636872 0.024328751302133685 0.12351784763330777
-0.03265380803054593 0.12374617695198553 0.050440681869774955 -0.052868359949083454 0.11106658776790349 -0.0017445251735864003 -0.04508713445799901 -0.012604639939793534

bn2_fc.weight f8 [64]
00000000: 0000 0000 0000 f03f 0000 0000 0000 f03f
00000010: 0000 0000 0000 f03f 0000 0000 0000 f03f
00000020: 0000 0000 0000 f03f 0000 0000 0000 f03f
00000030: 0000 0000 0000 f03f 0000 0000 0000 f03f
00000040: 0000 0000 0000 f03f 0000 0000 0000 f03f
00000050: 0000 0000 0000 f03f 0000 0000 0000 f03f
00000060: 0000 0000 0000 f03f 0000 0000 0000 f03f
00000070: 0000 0000 0000 f03f 0000 0000 0000 f03f
00000080: 0000 0000 0000 f03f 0000 0000 0000 f03f
00000090: 0000 0000 0000 f03f 0000 0000 0000 f03f
000000a0: 0000 0000 0000 f03f 0000 0000 0000 f03f
000000b0: 0000 0000 0000 f03f 0000 0000 0000 f03f
000000c0: 0000 0000 0000 f03f 0000 0000 0000 f03f
000000d0: 0000 0000 0000 f03f 0000 0000 0000 f03f
000000e0: 0000 0000 0000 f03f 0000 0000 0000 f03f
000000f0: 0000 0000 0000 f03f 0000 0000 0000 f03f
00000100: 0000 0000 0000 f03f 0000 0000 0000 f03f
00000110: 0000 0000 0000 f03f 0000 0000 0000 f03f
00000120: 0000 0000 0000 f03f 0000 0000 0000 f03f
00000130: 0000 0000 0000 f03f 0000 0000 0000 f03f
00000140: 0000 0000 0000 f03f 0000 0000 0000 f03f
00000150: 0000 0000 0000 f03f 0000 0000 0000 f03f
00000160: 0000 0000 0000 f03f 0000 0000 0000 f03f
00000170: 0000 0000 0000 f03f 0000 0000 0000 f03f
00000180: 0000 0000 0000 f03f 0000 0000 0000 f03f
00000190: 0000 0000 0000 f03f 0000 0000 0000 f03f
000001a0: 0000 0000 0000 f03f 0000 0000 0000 f03f
000001b0: 0000 0000 0000 f03f 0000 0000 0000 f03f
000001c0: 0000 0000 0000 f03f 0000 0000 0000 f03f
000001d0: 0000 0000 0000 f03f 0000 0000 0000 f03f
000001e0: 0000 0000 0000 f03f 0000 0000 0000 f03f
000001f0: 0000 0000 0000 f03f 0000 0000 0000 f03f
1.0 1.0 1.0 1.0 1.0 1.0 1.0 1.0
1.0 1.0 1.0 1.0 1.0 1.0 1.0 1.0
1.0 1.0 1.0 1.0 1.0 1.0 1.0 1.0
1.0 1.0 1.0 1.0 1.0 1.0 1.0 1.0
1.0 1.0 1.0 1.0 1.0 1.0 1.0 1.0
1.0 1.0 1.0 1.0 1.0 1.0 1.0 1.0
1.0 1.0 1.0 1.0 1.0 1.0 1.0 1.0
1.0 1.0 1.0 1.0 1.0 1.0 1.0 1.0

bn2_fc.bias f8 [64]
00000000: 0000 0000 0000 0000 0000 0000 0000 0000
00000010: 0000 0000 0000 0000 0000 0000 0000 0000
00000020: 0000 0000 0000 0000 0000 0000 0000 0000
00000030: 0000 0000 0000 0000 0000 0000 0000 0000
00000040: 0000 0000 0000 0000 0000 0000 0000 0000
00000050: 0000 0000 0000 0000 0000 0000 0000 0000
00000060: 0000 0000 0000 0000 0000 0000 0000 0000
00000070: 0000 0000 0000 0000 0000 0000 0000 0000
00000080: 0000 0000 0000 0000 0000 0000 0000 0000
00000090: 0000 0000 0000 0000 0000 0000 0000 0000
000000a0: 0000 0000 0000 0000 0000 0000 0000 0000
000000b0: 0000 0000 0000 0000 0000 0000 0000 0000
000000c0: 0000 0000 0000 0000 0000 0000 0000 0000
000000d0: 0000 0000 0000 0000 0000 0000 0000 0000
000000e0: 0000 0000 0000 0000 0000 0000 0000 0000
000000f0: 0000 0000 0000 0000 0000 0000 0000 0000
00000100: 0000 0000 0000 0000 0000 0000 0000 0000
00000110: 0000 0000 0000 0000 0000 0000 0000 0000
00000120: 0000 0000 0000 0000 0000 0000 0000 0000
00000130: 0000 0000 0000 0000 0000 0000 0000 0000
00000140: 0000 0000 0000 0000 0000 0000 0000 0000
00000150: 0000 0000 0000 0000 0000 0000 0000 0000
00000160: 0000 0000 0000 0000 0000 0000 0000 0000
00000170: 0000 0000 0000 0000 0000 0000 0000 0000
00000180: 0000 0000 0000 0000 0000 0000 0000 0000
00000190: 0000 0000 0000 0000 0000 0000 0000 0000
000001a0: 0000 0000 0000 0000 0000 0000 0000 0000
000001b0: 0000 0000 0000 0000 0000 0000 0000 0000
000001c0: 0000 0000 0000 0000 0000 0000 0000 0000
000001d0: 0000 0000 0000 0000 0000 0000 0000 0000
000001e0: 0000 0000 0000 0000 0000 0000 0000 0000
000001f0: 0000 0000 0000 0000 0000 0000 0000 0000
0.0 0.0 0.0 0.0 0.0 0.0 0.0 0.0
0.0 0.0 0.0 0.0 0.0 0.0 0.0 0.0
0.0 0.0 0.0 0.0 0.0 0.0 0.0 0.0
0.0 0.0 0.0 0.0 0.0 0.0 0.0 0.0
0.0 0.0 0.0 0.0 0.0 0.0 0.0 0.0
0.0 0.0 0.0 0.0 0.0 0.0 0.0 0.0
0.0 0.0 0.0 0.0 0.0 0.0 0.0 0.0
0.0 0.0 0.0 0.0 0.0 0.0 0.0 0.0

bn2_fc.running_mean f8 [64]
00000000: 0000 0000 0000 0000 0000 0000 0000 0000
00000010: 0000 0000 0000 0000 0000 0000 0000 0000
00000020: 0000 0000 0000 0000 0000 0000 0000 0000
00000030: 0000 0000 0000 0000 0000 0000 0000 0000
00000040: 0000 0000 0000 0000 0000 0000 0000 0000
00000050: 0000 0000 0000 0000 0000 0000 0000 0000
00000060: 0000 0000 0000 0000 0000 0000 0000 0000
00000070: 0000 0000 0000 0000 0000 0000 0000 0000
00000080: 0000 0000 0000 0000 0000 0000 0000 0000
00000090: 0000 0000 0000 0000 0000 0000 0000 0000
000000a0: 0000 0000 0000 0000 0000 0000 0000 0000
000000b0: 0000 0000 0000 0000 0000 0000 0000 0000
000000c0: 0000 0000 0000 0000 0000 0000 0000 0000
000000d0: 0000 0000 0000 0000 0000 0000 0000 0000
000000e0: 0000 0000 0000 0000 0000 0000 0000 0000
000000f0: 0000 0000 0000 0000 0000 0000 0000 0000
00000100: 0000 0000 0000 0000 0000 0000 0000 0000
00000110: 0000 0000 0000 0000 0000 0000 0000 0000
00000120: 0000 0000 0000 0000 0000 0000 0000 0000
00000130: 0000 0000 0000 0000 0000 0000 0000 0000
00000140: 0000 0000 0000 0000 0000 0000 0000 0000
00000150: 0000 0000 0000 0000 0000 0000 0000 0000
00000160: 0000 0000 0000 0000 0000 0000 0000 0000
00000170: 0000 0000 0000 0000 0000 0000 0000 0000
00000180: 0000 0000 0000 0000 0000 0000 0000 0000
00000190: 0000 0000 0000 0000 0000 0000 0000 0000
000001a0: 0000 0000 0000 0000 0000 0000 0000 0000
000001b0: 0000 0000 0000 0000 0000 0000 0000 0000
000001c0: 0000 0000 0000 0000 0000 0000 0000 0000
000001d0: 0000 0000 0000 0000 0000 0000 0000 0000
000001e0: 0000 0000 0000 0000 0000 0000 0000 0000
000001f0: 0000 0000 0000 0000 0000 0000 0000 0000
0.0 0.0 0.0 0.0 0.0 0.0 0.0 0.0
0.0 0.0 0.0 0.0 0.0 0.0 0.0 0.0
0.0 0.0 0.0 0.0 0.0 0.0 0.0 0.0
0.0 0.0 0.0 0.0 0.0 0.0 0.0 0.0
0.0 0.0 0.0 0.0 0.0 0.0 0.0 0.0
0.0 0.0 0.0 0.0 0.0 0.0 0.0 0.0
0.0 0.0 0.0 0.0 0.0 0.0 0.0 0.0
0.0 0.0 0.0 0.0 0.0 0.0 0.0 0.0

bn2_fc.running_var f8 [64]
00000000: 0000 0000 0000 f03f 0000 0000 0000 f03f
00000010: 0000 0000 0000 f03f 0000 0000 0000 f03f
00000020: 0000 0000 0000 f03f 0000 0000 0000 f03f
00000030: 0000 0000 0000 f03f 0000 0000 0000 f03f
00000040: 0000 0000 0000 f03f 0000 0000 0000 f03f
00000050: 0000 0000 0000 f03f 0000 0000 0000 f03f
00000060: 0000 0000 0000 f03f 0000 0000 0000 f03f
00000070: 0000 0000 0000 f03f 0000 0000 0000 f03f
00000080: 0000 0000 0000 f03f 0000 0000 0000 f03f
00000090: 0000 0000 0000 f03f 0000 0000 0000 f03f
000000a0: 0000 0000 0000 f03f 0000 0000 0000 f03f
000000b0: 0000 0000 0000 f03f 0000 0000 0000 f03f
000000c0: 0000 0000 0000 f03f 0000 0000 0000 f03f
000000d0: 0000 0000 0000 f03f 0000 0000 0000 f03f
000000e0: 0000 0000 0000 f03f 0000 0000 0000 f03f
000000f0: 0000 0000 0000 f03f 0000 0000 0000 f03f
00000100: 0000 0000 0000 f03f 0000 0000 0000 f03f
00000110: 0000 0000 0000 f03f 0000 0000 0000 f03f
00000120: 0000 0000 0000 f03f 0000 0000 0000 f03f
00000130: 0000 0000 0000 f03f 0000 0000 0000 f03f
00000140: 0000 0000 0000 f03f 0000 0000 0000 f03f
00000150: 0000 0000 0000 f03f 0000 0000 0000 f03f
00000160: 0000 0000 0000 f03f 0000 0000 0000 f03f
00000170: 0000 0000 0000 f03f 0000 0000 0000 f03f
00000180: 0000 0000 0000 f03f 0000 0000 0000 f03f
00000190: 0000 0000 0000 f03f 0000 0000 0000 f03f
000001a0: 0000 0000 0000 f03f 0000 0000 0000 f03f
000001b0: 0000 0000 0000 f03f 0000 0000 0000 f03f
000001c0: 0000 0000 0000 f03f 0000 0000 0000 f03f
000001d0: 0000 0000 0000 f03f 0000 0000 0000 f03f
000001e0: 0000 0000 0000 f03f 0000 0000 0000 f03f
000001f0: 0000 0000 0000 f03f 0000 0000 0000 f03f
1.0 1.0 1.0 1.0 1.0 1.0 1.0 1.0
1.0 1.0 1.0 1.0 1.0 1.0 1.0 1.0
1.0 1.0 1.0 1.0 1.0 1.0 1.0 1.0
1.0 1.0 1.0 1.0 1.0 1.0 1.0 1.0
1.0 1.0 1.0 1.0 1.0 1.0 1.0 1.0
1.0 1.0 1.0 1.0 1.0 1.0 1.0 1.0
1.0 1.0 1.0 1.0 1.0 1.0 1.0 1.0
1.0 1.0 1.0 1.0 1.0 1.0 1.0 1.0

fc3.weight f8 [1, 64]
00000000: d003 a072 5be3 9abf e352 c4fd f736 7fbf
00000010: 0c26 1022 17e7 b73f 39cf 893f 3d1b 61bf
00000020: 43ad 6ecd 1a91 efb9 f341 c134 465d 89bf
00000030: e391 e6e1 17e5 acbf de8e 2edf 81ea 34bf
00000040: 5199 d68b 4bc7 be3f d81f 67c7 7430 9ebf
00000050: 017e 4591 807e ae3f 040c ae8f 4261 953f
00000060: 184f bef0 ad4d b13f 63bd c41c b003 ecbe
00000070: 3c03 edf1 c659 b73f 07ed c423 4c95 b33f
00000080: 5386 203e 883a bfbf f673 076d 8b1c a1bf
00000090: cce9 2624 76c3 943f e48f 2e44 08b3 a93f
000000a0: 08c5 d76b 5d52 90bf 32b0 8e57 6a61 4e3f
000000b0: 863f 087f 0bfd b2bf 0cb9 3af7 ae92 44ba
000000c0: d81b dc52 1c28 a53f 01e3 1a0b 8cdc 63bf
000000d0: 8b1f 14f6 d7a8 a33f e2c8 ff24 0b39 a23f
000000e0: b731 8211 eb6b 953f d1ec 32ad 1a59 a0bf
000000f0: 6c88 d3a2 a457 be3f 72f8 273c 383a b5bf
00000100: 8733 5471 781c 853f 96d8 cf98 b77a 613a
00000110: 75d5 b688 a792 b6bf 2cad 222d 3d3c 8bbf
00000120: 99d4 857c 91b8 bdbf c520 2fc9 112e 223f
00000130: a440 1aec fa4c b33f 3a38 f72c b2be 85bd
00000140: a7a9 7d58 2c8c bbbf 9479 3995 20ec bebf
00000150: e51f e156 81c8 b23f 1140 3f67 d140 b5bf
00000160: ac18 ab14 ce2c bb3f 5206 59e7 c73a 95bf
00000170: a170 53fb 5669 a8bf c8a5 68af b03d b7bf
00000180: 8716 3482 29b9 babf 2f21 fc7e c43d abbf
00000190: cb85 ae1d eb85 683f 4f60 b1ee c0d7 9c3f
000001a0: 695b 8d3a 39e5 b43f 22ba 4201 d156 be3f
000001b0: 5668 9b15 a2be b1bf 07c1 927e 61cb bc3f
000001c0: ed34 0dda b8ae b6bf 91cb b884 b879 bc3f
000001d0: 536e 3ad2 de0a ae3f 0b09 f957 8805 953f
000001e0: 24ef bc36 c9fb a63f 2803 03a3 697b b43f
000001f0: 242c a408 bb11 b2bf fd8a 5ac9 d3b2 ab3f
-0.026257923957022034 -0.007620781627583925 0.0933699091111963 -0.0020881839994276977 -1.2450913215973481e-29 -0.012384937748863378 -0.056435343099369616 -0.00031915350626319876
0.12022850193043168 -0.02948172061022078 0.059558885320026185 0.02087882997467362 0.06759154441379811 -1.3358309751325658e-05 0.09121364027397488 0.07649684785149101
-0.1219868804623954 -0.03342090326234619 0.020276876408141395 0.050194032977088715 -0.015939197261052335 0.0009271401641988196 -0.07417365886089841 -5.193350852132315e-28
0.04132164489242712 -0.0024245009634252805 0.0383975494278835 0.035591457621096514 0.020919487899435398 -0.031929811136672044 0.11852482772113299 -0.08291961163192399
0.0103082093796958 1.764964720826422e-27 -0.08817526901005641 -0.01329849046699979 -0.11609753885371034 0.00013870207894073873 0.07539337410185226 -2.472109627503619e-12
-0.10760762367650632 -0.12079051631142185 0.073371967039861 -0.08302029390984013 0.10615242008779785 -0.020732043738695367 -0.04767867868369647 -0.09078506739083203
-0.10438785008235572 -0.05320562410458007 0.002993544779614087 0.02816678482881257 0.08162267379280554 0.11851221352365163 -0.06931508090511448 0.11247834530036381
-0.08860354732060545 0.11123231163291637 0.058676684534671474 0.020528917664941065 0.044889724666488356 0.08000812749652353 -0.0705830474945946 0.054098718957240145

fc3.bias f8 [1]
00000000: ac22 e075 5342 babf
-0.10257455470867666
