model_path/data23/G23.pth (torch, 652927 bytes, 12 tensors)

gru1.weight_ih_l0 f8 [192, 13]
0	0x3fa45be73877c541	0.03976366581253866
1	0xbf85219a3466730c	-0.010317997669341071
2	0x3f15efaffe64d9af	8.368026428660109e-05
3	0x3fb03de249bd5694	0.06344427395137081
4	0x3f9da2235fbda96c	0.028938820570524923
5	0x3fa3144271e1a916	0.037263943101452465
6	0x3fa1efddb54a4e4d	0.035033157711180075
7	0x3fb31f7dbe149ce3	0.07469926729810399
8	0x3fa8ff5aa0378067	0.04882319646617433
9	0x3f73562bf9b4cd06	0.004720851687398003
10	0x3f9738f7da34ad29	0.022678253834937188
11	0x3f9430d27530b7da	0.019717491533974264
12	0x3fba6ca1ba6d9a15	0.10322008897274089
13	0x3f655d8359bdac3b	0.002608067077678492
14	0xbf90061c52685156	-0.015648310212854476
15	0xbf901c9ca2a89036	-0.01573414557255167
16	0xbfa452a8dbf7c430	-0.03969314274935021
17	0xbf8fc4b8427f4367	-0.015511931924182055
18	0xbf877ebba0281efd	-0.011472192597480108
19	0x3f957d1d53c6e8dd	0.020985086668340414
20	0xbf84bb3b6243fa79	-0.010122741638494791
21	0xbf9c946ddf8b7bc4	-0.02790996243390588
22	0xbf86ea11580cbec8	-0.011188636302534319
23	0x3f8924a31adf2487	0.012276911027486527
24	0x3f9d107b8f2261bd	0.028383188830589868
25	0xbf95f096f3b5e7cb	-0.021425589203751188
26	0xbfa5629f78e262f9	-0.041768058306109475
27	0xbfa48d2c5edc9e36	-0.04013956697445702
28	0xbfad66bbb8d4db43	-0.05742441779368914
29	0x3f91c569d967c22c	0.017354635137907845
30	0x3f72af96020e3284	0.004561983078826718
31	0xbf916eb991cee6bb	-0.01702394440119435
32	0xbf75ee289864ce30	-0.005354078841537865
33	0xbf7b8ae8176fe4ee	-0.006724268539067808
34	0xbf9a3cacaca56148	-0.02562207988498358
35	0xbf88f8dba6bc6545	-0.01219340899074218
36	0xbf8c3d7d22ba1371	-0.013789155599860799
37	0xbfad4cd553d2902a	-0.05722681663726832
38	0xbf7745bc5f45b352	-0.005681739643802102
39	0xbf7b5acd82d0af93	-0.006678393151599143
40	0x3f4fd7b2f9a56cda	0.000971758260941337
41	0x3f7e8bdb658c5cac	0.007457596796277926
42	0x3f819b1a721844bb	0.008596617323777136
43	0xbf43a124daec1d5a	-0.0005990438420164044
44	0x3f4c2ed7c46dc020	0.0008600762892978543
45	0xbf7cd7ce966b0291	-0.007041747076698927
46	0x3f82e4b447c68081	0.00922528118172772
47	0xbf7d2d4e703e06e3	-0.007123285675221888
48	0xbf68c2a7f133ff74	-0.003022506725414981
49	0xbf4debe3dbd0e5cc	-0.0009131300536246389
50	0x3f82f77cb151aa17	0.009261106644960866
51	0x3f8bb5ffa6ce8d09	0.013530728605309255
52	0x3fa489309da5db80	0.04010917591488461
53	0xbfb2fafc5bad2ed5	-0.07414223898120594
54	0xbf8eb6cf64545ad4	-0.014997120141328514
55	0x3f8b4368c4732693	0.013312166686222404
56	0x3f6ef6f4773a5d0c	0.0037798666688321266
57	0x3fa158f05c35bc05	0.033881675010768254
58	0xbfa15c5458207d7f	-0.03390754295127873
59	0xbf872011283fd261	-0.011291631737529064
60	0xbf9851d5696b4731	-0.023749670562046524
61	0x3f9a4928e296dab8	0.025669707136070058
62	0x3f98a7792d1b2b06	0.024076360109385873
63	0x3efe4397e8af8d8e	2.8862034508037692e-05
64	0x3fb0a5ecd33da9af	0.06503181607482732
65	0xbf9b19b3a27d9916	-0.02646523169769307
66	0xbfb75f21ddb9170a	-0.0912953535381257
67	0x3f77725d82c48ca7	0.00572430160198959
68	0x3f634f41bf84e9f8	0.0023571285384182926
69	0x3fa90bc4b3070979	0.048917910436574404
70	0xbf9394c1710e322c	-0.01912214520011639
71	0xbf982533b4c7547b	-0.02357941428075037
72	0x3fa6e2a2db0e1f41	0.04469784664166677
73	0xbfa98ee9cb5dbe45	-0.049918466639493654
74	0xbf934321282a6166	-0.01881076629305891
75	0xbfa52478db7068ea	-0.04129388502788507
76	0xbfcfad91c06248ed	-0.24748441594835616
77	0x3fba300f75b78bdd	0.10229584335279136
78	0x3f58d8b35680073b	0.0015165091845123619
79	0x3f265f362d88f022	0.00017068420744859129
80	0x3f608c095525a1eb	0.0020198995854807575
81	0xbf7675ac52d1b4ce	-0.005483315600128337
82	0xbf65d6267ba4da99	-0.0026655913944993556
83	0xbf6adedcc3e48b5b	-0.0032800971813612806
84	0xbf55b12e697a5fa8	-0.0013239815943162179
85	0xbf576bbfe622a2b4	-0.0014294981015529453
86	0x3f540dd84ab6cc98	0.0012240040040126018
87	0x3f7044c8c0ff254e	0.003971847720046396
88	0x3f7f6ea4a1838658	0.007673876847748305
89	0xbf7bebafe56dbc8b	-0.0068165656037840845
90	0x3f62ff1a1911fb9e	0.0023189077115257214
91	0x3f7155f220eede42	0.004232354941386131
92	0xbfb3c73476242486	-0.07725837597185334
93	0x3f9bd0961412557d	0.02716288087375095
94	0x3fa4580a916e0c3b	0.039734201672239476
95	0xbfa2cfba972b873c	-0.03674109549844082
96	0xbfb2fae4f55bdd17	-0.07414084425169097
97	0x3f91903c1ef0b102	0.017151774776878355
98	0x3fa97e3246adc3fd	0.04979092705514885
99	0x3f577cdb70dbe8f3	0.0014335768677811694
100	0xbf97096e75fd1080	-0.02249691577095847
101	0xbf962b3fcf79eafd	-0.021649357832283823
102	0xbfb2e5006fc9f669	-0.0738067887231978
103	0x3fb739c85240de40	0.09072544105662761
104	0x3fa6224278f01c7a	0.043230130446368656
105	0x3f9db43b0cfe537f	0.02900783793264194
106	0x3fa86aa170947f55	0.04768852710026176
107	0x3fa20588553e22c6	0.03519846001205944
108	0xbf84f24ea517ef32	-0.010227789319280232
109	0x3fa37d474d8025dd	0.03806517430355048
110	0x3fa3570021252642	0.03777313618281798
111	0x3fba42c16d52d976	0.10258110922845795
112	0x3fa621f6ddff0533	0.04322787723459456
113	0x3fa83c72b0e58fe9	0.04733618173011662
114	0xbf996b6a764d97ec	-0.024823821516655117
115	0x3fcae35468902e4f	0.21006255250573466
116	0x3fa0c8cc42e9b6dd	0.032781966369709294
117	0xbf8732a918851a7a	-0.011327096043385543
118	0x3f8bc6a9267716ce	0.013562509046902173
119	0x3fa642218003298d	0.04347328841830054
120	0xbf92a632df47b46d	-0.018212122800765607
121	0xbf89f360c62f9258	-0.012671237991477444
122	0xbf7ccbcfa48033fb	-0.007030306915123847
123	0xbf947c961625a525	-0.02000650892424462
124	0x3fc00035a8f50802	0.12500639676915176
125	0x3fb2ae111e9e10d6	0.07296854970451547
126	0xbf9bac8f4c839aee	-0.027025450749444006
127	0xbfa9153430b9889c	-0.048989897678226785
128	0x3f89883fa43bca6c	0.012466904830465718
129	0x3fb2cf5f9c642872	0.07347676818986473
130	0x3f9ed56013219897	0.03011083714263715
131	0x3f7c6a6f1359a197	0.0069374407663435255
132	0x3fa6e41b2f9b0d69	0.044709062157859254
133	0x3f9f591f441bca77	0.03061341145707749
134	0x3f9f0a9b6543c58d	0.030313900047024545
135	0x3f9620ef5ebf7336	0.021610012205076155
136	0x3fa3f28f536b7bac	0.038959959920013304
137	0x3f896848d7dfb146	0.012405938232369917
138	0x3fa34e916338887e	0.03770880066100889
139	0x3f89cd585793caa0	0.01259869591965429
140	0x3fa9b8fb4642cc88	0.050239422156118485
141	0x3f831b0649cfd9e9	0.00932888901477909
142	0x3f9f73aacdade0e3	0.030714672855055702
143	0xbf9eafb394d2c752	-0.029967122991997393
144	0xbfaa1507bb624642	-0.05094169771576819
145	0x3fa85cf6a265b696	0.04758425457371833
146	0x3f9a59d41047362f	0.02573329305032795
147	0xbfab03d89d42e84e	-0.052763718792861
148	0x3f750eac48e55320	0.00514094637613452
149	0x3f9708b2a7760689	0.022494117232332776
150	0x3fb2e0083735f76a	0.07373095844192581
151	0x3f9f96d33127de94	0.0308487890960963
152	0xbf8abcfe425881d5	-0.013055788421355278
153	0xbfac4892d1f89ccf	-0.055241191989176756
154	0xbfc270d2d9fbd620	-0.1440681042073928
155	0x3fb7729e97faf432	0.09159270487266793
156	0xbfa0275bff02d6db	-0.03155028808525425
157	0xbf9ed6e7b289a0f8	-0.030116672775336334
158	0xbf9fa3302a476377	-0.03089595087098781
159	0x3fb1560749b9bc56	0.06771894025745104
160	0x3f970f4de5f73bf4	0.022519318734165197
161	0xbf9fe49d5fec1ed2	-0.031145533542285282
162	0xbf9e582a6ecd86c3	-0.029633200657719138
163	0x3fab4d36753ac63f	0.05332346135163534
164	0x3f9fee93a311d4a8	0.031183535411817204
165	0xbf8abcc3e7dee47e	-0.013055353654509935
166	0x3f9d117482e3b139	0.02838689850698126
167	0xbfc96645e10201a3	-0.19843362318716826
168	0x3fc00fd69cbdc911	0.12548334744821735
169	0xbfa0d56e69a25efc	-0.032878351588065485
170	0x3f79d2ac6675794d	0.006304429472349615
171	0x3fa34518f55e3796	0.037636547042992394
172	0x3fb76b031cd3887b	0.0914766259552681
173	0xbfbda8b3af4481ff	-0.11585543660158491
174	0xbf8a580174861145	-0.012863170021554135
175	0x3f71cf3cdd71cc40	0.004348027948355926
176	0x3fc5707c598cda98	0.16749529240197059
177	0x3fbb98b2117c37a8	0.10779869963536604
178	0xbf74b2b6aa98bc39	-0.005053247013662215
179	0xbf9266254205a328	-0.017967779307045323
180	0xbfc214eced11deb2	-0.14126359534906424
181	0x3fc0fe2b56353dd9	0.13275663098691728
182	0x3f7ca196753b4d8a	0.006990039564431236
183	0xbf8ebac2e209ccd7	-0.01500465633691876
184	0xbf8431dd72b2ee04	-0.009860734999498362
185	0x3f8c599493243a08	0.013842735996630232
186	0x3f999f49c5e2f527	0.025021698668514916
187	0xbf927fe6d0dd5cce	-0.01806603097733444
188	0xbf9c1439833c5ddf	-0.027420900950429924
189	0xbf88da50b339f0aa	-0.012135153264573557
190	0xbf8908f49049a0a2	-0.01222411218005021
191	0x3f81e0f13ef1f122	0.00872982476561696
192	0x3f835398cf216b48	0.009436792203066383
193	0x3f884651a3b8c4f2	0.01185287266625543
194	0x3f97e0f07994ba25	0.023319013043130127
195	0x3fa574f975270e50	0.04190806918225276
196	0x3fa94ae3dba88f8f	0.04939949089410255
197	0xbf36ea8dd9bb735c	-0.0003496738733995053
198	0x3faa9af1c97c810f	0.05196338257360555
199	0xbf69c50d44b93dfa	-0.0031457194470829704
200	0x3fa89d223f5ec47e	0.048073835597628
201	0x3fa6491f9f6861d0	0.04352663823027891
202	0x3fbd172d8e682a1e	0.11363491751414087
203	0x3fae8900d8971e3a	0.05963900226521131
204	0x3fa691753c8f18e6	0.04407850612874302
205	0x3fab5fc1e87b8595	0.05346494639321545
206	0x3fabebde83e65bdc	0.05453391418557604
207	0x3fb383151c5ef57a	0.07621890967035042
208	0x3fa746e7e5ab3b65	0.04546284369063506
209	0x3f92109e92885e50	0.017641523069043707
210	0xbf9166fdb9a5a4b4	-0.016994442420956005
211	0x3f98b1845f90e6d4	0.024114673931967825
212	0x3fa333bce9ac0813	0.03750410416070351
213	0x3f99c69c90910771	0.025171705554618954
214	0x3f993e773bbb16bb	0.024652350445441878
215	0xbf85823947f2e5bc	-0.01050228834934585
216	0x3f9600641170c541	0.02148586613129067
217	0x3f90f10a922a2e31	0.016544499560536777
218	0x3f8ec240b7f289a4	0.015018945325498141
219	0x3fac0b094f136804	0.05477170076638063
220	0xbf8f5647c4ccc2de	-0.01530128545127368
221	0x3fa0af6d31fe60de	0.032588398316137676
222	0x3f81a6d58525518e	0.008618991971766101
223	0xbfa9818e426b7741	-0.04981655655659135
224	0x3fadc9c946cddc13	0.05818013181026784
225	0x3f9e1151c27f6b4c	0.0293629431688303
226	0x3f9ad3ed69b2b5cc	0.026199063850688195
227	0x3f9da25dc66b2c5e	0.028939690814507528
228	0x3f921a9524793240	0.017679529524956772
229	0x3f97ee98b6ea0e47	0.023371111072732622
230	0x3f7c3690196b6250	0.006887972724790872
231	0x3f9fe4f09c0a604b	0.031146773838003388
232	0x3fb07a610e76027f	0.06436735728312647
233	0x3f9de160d4c07c47	0.029180062280030474
234	0xbfa3cafd5932cc3c	-0.03865806306694039
235	0xbf8b1f253947988a	-0.013242998896157116
236	0x3f9b6edd90d078c0	0.026790105785146734
237	0xbf7a40c676b3f2ea	-0.006409430741084002
238	0xbfa183e3bfc919fe	-0.034209363137552615
239	0xbf94057ac62515c5	-0.019552152961542796
240	0xbf9b04aefba14af9	-0.02638505373790687
241	0x3fb071c5ce146d90	0.06423603326077498
242	0x3f89a770518ccc1e	0.012526395310123613
243	0xbf9f12d186059d7f	-0.03034522419457408
244	0x3f8471520daabbcc	0.009981766740876717
245	0xbfc1c2e139150b1c	-0.13875975882737002
246	0x3f9c9e1578365045	0.027946792089622603
247	0x3f7d48d8ba689734	0.00714955005108724
248	0x3f81a8ca0ccc2139	0.008622721210045913
249	0xbf6c04d653d749f8	-0.0034202753147181096
250	0xbf76ab5c5c8cc6cf	-0.005534516131591351
251	0xbfa52e7b478798a2	-0.04137025116124106
252	0xbf99235c5602dd22	-0.0245489528176367
253	0xbf98d7992d214903	-0.024259942416684954
254	0x3fb60d5b12d8fd2a	0.08614129266878892
255	0xbfa3186d300328f1	-0.037295734511262675

gru1.weight_hh_l0 f8 [192, 64]
0	0x3f9a0b1ee09e8d94	0.025433046779324522
1	0x3f6014e3afaf9247	0.0019630858418955596
2	0xbfa2b2a03f5dc7eb	-0.036519057974956436
3	0xbf84f126498bb8dd	-0.010225581283034685
4	0x3faf8596d302342f	0.0615660793856495
5	0xbf8671dbf6c8b521	-0.010959356755018636
6	0x3f94b827433ee35f	0.020233739356373955
7	0x3f675e59fdde3ba1	0.0028526075029228913
8	0xbf9f0f2db0b9f5d2	-0.03033133879806888
9	0x3fa8a172f60d7e7a	0.048106758628589
10	0x3f757c76c8b62b32	0.005245651245227733
11	0x3fa8446f5842c4fd	0.0473971171608216
12	0x3f85c679d1557c81	0.01063246889196834
13	0x3f9d766b95f7be21	0.028772049930863134
14	0x3f9603a15055e11b	0.021498222854888654
15	0x3fb036c3c39f2cd5	0.06333564306185065
16	0xbf818c6e228594d1	-0.008568630627176084
17	0x3f7001eba8b93cea	0.003908081572787861
18	0xbf948fcb8dafbbbb	-0.020079784891944046
19	0x3fa6b7319197bfc4	0.044366406462244906
20	0x3f75d32e18eea1cd	0.005328350131926074
21	0xbf98873e877072a8	-0.023953415886455304
22	0x3fa0aa5207d43346	0.03254944177215306
23	0xbf9d35f2770ccaa4	-0.02852610446570715
24	0xbf8b25c66f427904	-0.013255644102454507
25	0x3fa9ecf78f3136d6	0.05063603995277581
26	0xbfa6a4b7681eab2e	-0.044225436649261915
27	0xbfa47de6466d7aa7	-0.04002303704941328
28	0x3f9310443940dc11	0.018616739267795227
29	0xbf9f100f8267b2a0	-0.030334703764241966
30	0xbfb2ebc8ec538938	-0.07391029138265004
31	0x3f9078f780ab92ca	0.01608645174828175
32	0x3fae4c470b27ff84	0.0591757012480221
33	0xbfa4d1f96a78bacc	-0.0406644766302314
34	0x3fa1b0c0ce976543	0.03455164453380146
35	0xbf8c48f2b2146649	-0.013811012324867937
36	0x3fa7efa7d45c3fd5	0.04675030200280587
37	0xbfa08100b42fcb79	-0.032234212871023744
38	0x3f9b9bc94194e967	0.026961464526928405
39	0x3f81cce97b54ddf3	0.008691619945792239
40	0x3fa40336110c16ab	0.03908699949356039
41	0xbfaf7cf865c53402	-0.061500322745452266
42	0xbf828fed170efa13	-0.00906357981318443
43	0xbf98d6a9780367f0	-0.024256370496779256
44	0x3fa84570ddb2cca1	0.04740479189185832
45	0xbf90e88796bd2bc8	-0.016512030196547817
46	0xbf9bbed2aeae57b0	-0.02709511939209336
47	0xbf8c4932d5ab745d	-0.013811490197833171
48	0xbfa44b74687cf63c	-0.039638173823260264
49	0x3f7136c3d43db837	0.0042026185582085184
50	0xbf6a3a236cd0b9cc	-0.00320155066449177
51	0xbf83105b0398ceed	-0.009308539435643104
52	0xbf9db0f94cced561	-0.028995414078697993
53	0xbf890e116bbcb6c6	-0.012233863926293675
54	0xbfa43cee445ce870	-0.039527364583094804
55	0x3fb121ac94316b6c	0.06692007654184601
56	0x3f9a4a12b454a69a	0.025673191315184064
57	0xbfa2646cb25bf7ac	-0.03592242886769212
58	0x3fa21221598a535d	0.035294573002068154
59	0xbf9f980a7662d62f	-0.03085342738696378
60	0x3fa6b3245f562cd4	0.044335495603343184
61	0xbfa3d046080711b7	-0.03869837615960441
62	0xbf879e926b1139bb	-0.011532920734819698
63	0x3fa1d1cb2fe2c8e7	0.034803723903125854
64	0xbf9433c423651924	-0.01972872224839607
65	0xbf707426599d215a	-0.004017019085786744
66	0xbf59acaaf54c5b30	-0.001567046119083048
67	0x3f7e91f66266f45e	0.007463419379232309
68	0x3f6dccfc65e03c12	0.003637783970595895
69	0xbf969c1fc419c0b8	-0.02207994112399156
70	0x3f85c0b377c42c6c	0.010621454327085021
71	0x3fa1bb778ddf045f	0.03463338476968469
72	0x3f96352183c844df	0.021687053364137007
73	0xbf7998af06d8daf8	-0.0062491261465342715
74	0xbfa28bb77cfdc5d8	-0.036222204215743126
75	0x3f526fad565b81bb	0.0011252587077522486
76	0x3f85a66f41076af4	0.010571355030085418
77	0x3f777ba408a48366	0.005733147389293735
78	0x3f74f1b4cf049bc9	0.005113321575016047
79	0xbf46b2d39db6d3f5	-0.0006927045137020681
80	0x3f8294f735dd5119	0.00907319195872751
81	0xbf981869c86d2b13	-0.023530629022654525
82	0x3f871e3b8587f61b	0.01128813267950606
83	0xbf6b9abc13ad0d1a	-0.0033696816803129416
84	0x3f41c96a496daeac	0.0005428093889867278
85	0xbf954ca3caac9853	-0.020800170178653165
86	0xbf86971ff02af01c	-0.011030435101353979
87	0x3f81271034bebb9a	0.008375288591052233
88	0x3f78496b61789648	0.005929393249549948
89	0xbf5302736dbc89b7	-0.0011602523072232593
90	0xbf83e2aa0cc77f2f	-0.009709671511643229
91	0xbf602c5fcb0552ea	-0.001974284263420824
92	0xbf8b8e7780d6dc14	-0.013455327624667425
93	0xbf9a1f3ae0c841fe	-0.02550975796663301
94	0xbf88374dc715c75c	-0.011824233663648868
95	0x3f97ae00f448d6db	0.023124709043449748
96	0x3f82cf46c88725fe	0.009184411043764659
97	0x3f817061cdaf942a	0.00851513298943914
98	0xbf655bc5a47b6bec	-0.0026072368817557836
99	0x3f774f0ac730561f	0.005690614797477816
100	0xbf872c8b218b9d19	-0.011315428696845363
101	0x3f646ab7f49c2ed1	0.0024922936326044827
102	0x3f96f89f420cf4e0	0.02243279305115642
103	0x3f926fe6940a6e23	0.018004992280664333
104	0xbf922b406c31c224	-0.0177431169544794
105	0x3f726c3699b13ac9	0.00449773147836536
106	0x3f9c48d339dca339	0.027621555716140753
107	0xbf8f64d076568f9e	-0.015329006778138251
108	0x3f6d7d030067c968	0.003599649298160635
109	0xbf91430430c84997	-0.01685720966094947
110	0x3f60901ca7d7998e	0.0020218429260580656
111	0x3f6e77ba0cb3957b	0.003719199541239502
112	0x3f7ee8f411fa41e9	0.007546380423847123
113	0xbf78ae7448135ec8	-0.006025747513568276
114	0x3f82ae383f8d9672	0.009121360244260777
115	0xbf8f08d351d347a8	-0.015153551992998462
116	0x3f6fb278a3c9a319	0.003869281410790026
117	0x3f6fcf32b6a94646	0.003882979440540865
118	0xbf725686d8e04e9f	-0.004477049586075004
119	0x3f76571ff4f75cff	0.0054541824642548855
120	0xbf80a857eb033e0a	-0.008133589610593201
121	0x3f347b9496d69055	0.0003125417486791228
122	0x3f7b546d7e13732a	0.006672313408867573
123	0x3f7219c65821160c	0.00441911199783852
124	0xbf5dbc4b2429ce13	-0.0018149122048755114
125	0xbf88767fafd9ba8f	-0.011944768480330907
126	0xbf603860ead05d77	-0.001980008403289875
127	0xbf98e89af4b229fd	-0.024324818787627923
128	0x3f830b1d8902d5d5	0.009298544639345355
129	0x3f8d405808b27257	0.014282882466710207
130	0x3f7c3807e0e37a04	0.006889372611310399
131	0xbf4cda176edbaf0f	-0.0008804907244814602
132	0xbf887f5258f6da90	-0.011961596813177239
133	0x3f9906acb6d97b65	0.024439524326563062
134	0xbf8cc43ead6f92e1	-0.014046182315675395
135	0xbf9722e7bc9e0c2d	-0.022594090354243136
136	0x3f9b232378e7062e	0.026501230482386777
137	0x3f63a2f9e34c7b84	0.002397049009587206
138	0x3f9135558e85eee2	0.01680501634972032
139	0xbf49b5fb439d6d3a	-0.0007846333385076794
140	0x3f6d7b6affb57223	0.0035988893338709956
141	0xbf8b4558bd1dffcc	-0.013315861960791063
142	0x3f8c5d6d16418fba	0.013850071183874369
143	0x3f969cb84f786afb	0.02208221421288224
144	0x3f816d9f3482fe48	0.00850986842158287
145	0x3f67878b0b9781fd	0.0028722491958748085
146	0x3f8ff84bf3d804eb	0.015610307101271611
147	0x3f6e217319d2c293	0.003678059393301966
148	0xbf92022694404b23	-0.01758632926800908
149	0x3f955e9d1edd89f0	0.020868735321878107
150	0xbf895abda591524a	-0.012380105605339104
151	0xbf7ea682e1e55f31	-0.007483016261481444
152	0x3f90096305a84369	0.01566080781964577
153	0xbf92ee76728eebc4	-0.018487787954409432
154	0x3f9a97967af6a0f6	0.02596888661869997
155	0x3f7304fbe09d611d	0.00464342488870553
156	0xbf95b921485d12b2	-0.021214027444573964
157	0xbf74b1794f519e5b	-0.005052064768370802
158	0x3f8784c593da8c6a	0.011483710837018008
159	0x3f833bed223b2dd0	0.009391644103195512
160	0x3f7f4093bc5809fc	0.007629944889688375
161	0xbf92aa2c2776ff7c	-0.018227281483404564
162	0x3f6eb46ba0d29142	0.0037481405366454343
163	0x3f67bac600e42928	0.002896677709150048
164	0x3f72389a7559ff57	0.004448512414114556
165	0xbf92c14cf2cd42fc	-0.018315508193441396
166	0x3f79f600c736763a	0.006338122405762864
167	0x3f67b84f5515e4eb	0.0028955029926548323
168	0x3f8b62b80b878115	0.013371885158392641
169	0xbf91f75c56cef41f	-0.017545168684353848
170	0xbf96d53712354299	-0.02229772614129164
171	0xbf591d686138c1c4	-0.0015328902562822136
172	0xbf8030d6e923624b	-0.007905653943837928
173	0x3f99ade262d90135	0.025077378543074864
174	0xbf892e995c678adc	-0.012295911915264517
175	0x3f7f2b0c32e05444	0.007609412814436448
176	0x3f4bb4c7fb61599f	0.0008455254053483691
177	0x3f5814ac0de6231d	0.0014697723596290354
178	0xbf807ac1a91d9d4c	-0.00804663941717245
179	0x3f890ef197a16be9	0.012235534133813135
180	0xbf706a2aad93ee40	-0.004007498465621817
181	0x3f64259f15a4771b	0.002459345542901737
182	0xbfa03bea97ea5352	-0.03170712570605495
183	0xbf665752e487826c	-0.0027271861074356554
184	0x3f93b31d749bb213	0.019237957231711244
185	0x3f7c2196661bc7a4	0.00686796903186063
186	0x3f8044ff7d75618f	0.007944103256406957
187	0xbf70037f204a603d	-0.003909584604706193
188	0x3f87edd31b18e42f	0.011684083237115754
189	0x3f90fa2a2b012a59	0.016579302668370797
190	0xbf789739b6adfa05	-0.006003594821662355
191	0xbf8bb68ad86b58ce	-0.013531765679925558
192	0xbf7339791ab1b492	-0.004693482459612446
193	0x3f50300ac05498d8	0.0009880166047167484
194	0x3f4f5a6e1852d6f3	0.0009568250249205309
195	0x3f497ee104a67ad2	0.0007780646058569102
196	0xbf56963fb41e6fa8	-0.0013785955529561442
197	0x3f3dcee50f1ae018	0.0004548367715915282
198	0xbf770d1a93e541eb	-0.0056277311508243595
199	0x3f51f33190314a74	0.001095579530347249
200	0x3f60ae55926f0940	0.0020362540558106768
201	0xbf6330d4c3f773fb	-0.0023426204277101604
202	0xbf77c71a2f74ad93	-0.005805113112084997
203	0xbf52a0734ebdce05	-0.0011368871737119657
204	0x3f3f390baa9940d0	0.0004764226419853414
205	0xbf331013babc6b44	-0.000290875260121549
206	0xbf601c301dd27156	-0.001966566064380763
207	0xbf7212b7198a5959	-0.004412379487482043
208	0x3f549fee996499a5	0.0012588338918902789
209	0xbf63b3186b5f3679	-0.0024047352735355157
210	0xbf63bbc9986b7823	-0.002408879986758998
211	0xbf6d2d53a182b13f	-0.003561652509310203
212	0x3f71d496962872ef	0.004353130558709436
213	0xbf72fd6739029a14	-0.00463619538655859
214	0xbf6d6ab9a538753b	-0.0035909295927597762
215	0x3f725bb4918e2df6	0.004481988283156371
216	0x3f5d3b4622129c1f	0.0017841515439529566
217	0xbf6963d339160e8e	-0.0030993581246450746
218	0xbf55cb5c566af274	-0.0013302232488704687
219	0x3f3b9b372b3b58fe	0.0004212388696322038
220	0xbf3464cf4b7ec184	-0.00031118451033320554
221	0xbf75a51cd28590e8	-0.0052844167588299365
222	0x3f32a8a44a1a99e6	0.0002847100350699391
223	0x3f6bf16405372617	0.003411002495089087
224	0xbf63d5977ea208d3	-0.0024211844329907555
225	0x3f53f193a3ece098	0.0012172643470887198
226	0x3f54c20e6d71fc0b	0.0012669697660212555
227	0x3f5e2422a26fce0c	0.0018396700122566027
228	0xbf76d5b915ede210	-0.005574915877212053
229	0x3f59aeb8333f7cd9	0.0015675352888065346
230	0x3f2d2e726a4f6502	0.00022263666792702452
231	0x3f68fc9195a1749b	0.0030501216361203515
232	0xbf6a548911c02f84	-0.00321413775782803
233	0x3f717f5e7acff670	0.004271859227626615
234	0x3f72bfd6beff3266	0.0045774830359276205
235	0x3f5a2ed5017020e1	0.0015980796940784847
236	0xbf7e13c33f11bd2e	-0.007343065911398923
237	0xbf82913ec358f106	-0.009066095673113238
238	0x3f5c08d3118ec770	0.0017110882965707085
239	0xbf60db430d122e2a	-0.002057677229975648
240	0x3f5e660d4e90f53f	0.0018553857755841533
241	0xbf763e2cabe90cc5	-0.005430387972015176
242	0x3f644222b0041978	0.0024729421130615346
243	0xbf65793febe51018	-0.0026212929216473772
244	0x3f326d15b6c27adf	0.00028116016506800166
245	0xbedf9fc861c9ff1d	-7.5397852269396846e-06
246	0x3f64ebdef4f2790f	0.0025538782716260154
247	0xbf61cc3c10045141	-0.002172581968020421
248	0xbf61f3f3cf3d37a9	-0.0021915208725777524
249	0x3f58918ac130c5ce	0.0014995436693080347
250	0xbf49777d968da1d0	-0.0007771838400972234
251	0x3f60bee30791040b	0.002044146935560769
252	0xbf729ad3710c3b68	-0.004542184776041271
253	0xbf53270f038acb1c	-0.0011689802760598894
254	0xbf5ddcb282fddbc2	-0.0018226378706154155
255	0xbf53061a9844fe1a	-0.0011611232485647716

gru1.bias_ih_l0 f8 [192]
0	0x3fa98ffbfbc573b0	0.04992663811092457
1	0x3fac52a2dfa00608	0.055317964361176364
2	0xbf7d61e6b1fa54ab	-0.007173443940378703
3	0x3f9c33fe552bb4fd	0.027542089413079108
4	0xbf9d03638d78c0b2	-0.028333240041491244
5	0x3f9f0ba4581281ff	0.030317848086840012
6	0x3f4bc0299b8dd6a0	0.0008468821680327095
7	0xbfafd0857c4dc057	-0.06213776724223468
8	0x3faa27ffee34ea11	0.051086423709836855
9	0x3fa804c8ba27fa74	0.04691149971403244
10	0x3fb0e3a4b76caaae	0.06597356298577026
11	0x3fb1e43c0d2712d0	0.06988883324727202
12	0x3f98caa848b94650	0.024210576475814982
13	0xbfa42ccbe5f392f4	-0.03940427000069305
14	0x3f85c8d68014e39e	0.01063697412847536
15	0x3fba05c7f7e46214	0.10165071298650502
16	0x3fa4528b8c22b6fc	0.0396922691883059
17	0x3fa47ca64955de44	0.0400135006447582
18	0x3fa2acd483649daf	0.03647483924788319
19	0x3f916022552db68b	0.016968285035025715
20	0x3fb03038ab6a83eb	0.06323579964602259
21	0x3f9a65d00c7ceebe	0.025779009592254758
22	0xbf7261cd39f9508b	-0.004487802186833654
23	0x3f9c8e29dd749f3b	0.02788606084973753
24	0x3f9e584b7c34672b	0.029633693176129555
25	0x3fb076bd4f2740c9	0.06431182081655885
26	0x3fa27bc606169b07	0.03610056709594827
27	0x3f8f245cc3ed30b1	0.01520607445640851
28	0xbf53e878e8361443	-0.0012150936825901105
29	0x3f8d087f3dc40674	0.014176363060417453
30	0x3fab1d5851e0f5d2	0.052958259577717506
31	0xbf81111a9dcffece	-0.008333404484801046
32	0x3fa35229e62e822d	0.03773623404345403
33	0x3f8992a2084d473b	0.01248671138606349
34	0xbf054a0d79820270	-4.060605641687399e-05
35	0x3f910966f70106fa	0.016637429071358213
36	0x3fac095b45920862	0.05475888466118374
37	0xbf999f958eb399b1	-0.0250228279445765
38	0xbfa65d0ea19778bc	-0.04367871973566781
39	0xbf7a259e908cd2eb	-0.006383532899054893
40	0xbfab21d112262db8	-0.05299237581774768
41	0x3fb4aba885ae8145	0.08074429763519671
42	0x3fa168a3f871246e	0.03400146873225017
43	0x3f8826375765b1ea	0.011791641573574336
44	0x3fa77ef8a288d9a2	0.04589058860840402
45	0x3fa711bd0986e53a	0.045057208455043754
46	0x3f843bffb6ae57ed	0.009880063784105853
47	0xbfab622244ea326d	-0.05348307696576602
48	0x3fa3ded2a309310e	0.03880937805351624
49	0x3fb6b14d68dd68da	0.08864291963746798
50	0x3f9858e0230baf96	0.023776533259407616
51	0xbfb5739220558687	-0.08379472054869029
52	0x3f9ec516506b77a6	0.030048702867922515
53	0x3fa7ea84afabece0	0.04671110767773157
54	0x3faa7811a8a58f62	0.05169730361629267
55	0xbfb24084f7c23117	-0.07129698799889571
56	0x3f9c0cdadea005bb	0.02739278777881336
57	0x3fa1a28df20dbdee	0.034443317220276146
58	0x3fa20826f81e78d5	0.03521844652935761
59	0xbf980654a52c5260	-0.02346164949547569
60	0x3f82117ef497e007	0.008822433318513857
61	0xbfa7f48326f36080	-0.04678735590431504
62	0xbfa5079b561011a9	-0.04107366014071385
63	0x3f9a66dfa5986551	0.025783056718954814
64	0x3fac7f2122b94af7	0.05565742062448991
65	0xbf61447224d8ebc0	-0.0021078328489045617
66	0x3f8d9b49d43a4234	0.014456345357104806
67	0x3f933f04ebcacd87	0.018795086757291492
68	0x3fb2e27658f0d549	0.07376804038434161
69	0x3f8b0b7c97794695	0.013205502865420807
70	0x3f77b9a9eea72424	0.0057922971704522964
71	0x3f7367b762769d7d	0.0047375834905446475
72	0xbf3202af110d5cec	-0.00027481817328607497
73	0x3fb6fcd424cb64ef	0.08979535959533157
74	0x3f3a37c73fe0ebd6	0.00040005316248298056
75	0x3f9c3ab744adf7f6	0.027567733351581546
76	0xbf97d1f307aed296	-0.023261830657889414
77	0x3f66f2be2e125afe	0.0028012957050792533
78	0xbf810cc4030cdfdd	-0.008325129836165896
79	0x3fc4652f0fd15ee5	0.15933788559299625
80	0xbf972c3915f7bc7d	-0.022629634824565138
81	0x3f954da4c998eacc	0.0208039997143981
82	0x3f9710b60a7fd635	0.0225246852787306
83	0x3fb6f14e7aea368f	0.0896195459447091
84	0x3f8e62fd40ed5c65	0.014837244552536608
85	0x3f62655e64ed055a	0.002245602000954844
86	0xbf92b3031160bb32	-0.018261001525554828
87	0x3f9f0ae1535027a5	0.030314942083385827
88	0x3f90bb4a9a2c6403	0.01633946004867327
89	0x3fb47a9274712750	0.07999530165502944
90	0x3f94684cea7e3f92	0.01992912465317393
91	0x3fba4dcc3c47c983	0.10274960014047534
92	0x3fa286c03ce7684f	0.036184318003237174
93	0x3f9121fb9f18ce3e	0.016731196961883514
94	0xbf8525072fc9374e	-0.010324531694233887
95	0x3f9816b9ed9d39ce	0.023524193885629256
96	0x3fb4f71dbcba254e	0.08189569337459554
97	0x3fb3455255d4adc7	0.07527651401021905
98	0xbf73303b5ca63475	-0.004684669382538966
99	0x3f8f9990b87289e8	0.015429621342552616
100	0x3f8f470a47b583e1	0.015272217095743503
101	0x3ef915d3a421cf59	2.3923168790365146e-05
102	0xbf69357eaf40d486	-0.0030772661503087355
103	0xbf5a81e137a05df2	-0.0016178798091511762
104	0x3fc092a921719725	0.1294757283496263
105	0x3fb51c5af349c6d1	0.08246391715672564
106	0x3f710695c5d56f2b	0.004156670618012541
107	0x3fa4e09dbfe82855	0.04077618568051437
108	0x3f9202b9a5a83152	0.017588520751858745
109	0xbf737bc09a2f8cfa	-0.004756691315353162
110	0xbf96a8c525a2915c	-0.022128181860027282
111	0xbf95a45f500c2c18	-0.021134843121256436
112	0x3fc57d9f7b478c55	0.16789620894914728
113	0xbfa4d4682bb99c55	-0.04068303617241812
114	0x3f9096aab0dad15a	0.016199748081548428
115	0x3f94daa20aba3dfe	0.020365268616442826
116	0x3f8e28fcb033425a	0.01472661411972458
117	0x3f82d6ca51f4d4f0	0.009198742509946872
118	0x3f86fa3ccd32f038	0.011219477665115205
119	0x3fbdebec595ca408	0.11688115293203805
120	0x3fb6b771aefc0def	0.08873663446507128
121	0x3f9b21c21337bc54	0.02649596445365561
122	0x3fa31c84d202e090	0.03732695640195616
123	0x3fad71c806a9484f	0.05750870782198147
124	0x3f9c8d7f7d0cce8f	0.027883522040794303
125	0x3fa7af5064eeacd7	0.04625941497882884
126	0x3f89b9c3e0909e5f	0.01256135014598597
127	0x3f9973184e4f4459	0.024853114871636304
128	0xbfad7af488a162c7	-0.05757869880534865
129	0x3fb29fefc6e5f1e6	0.07275293928063994
130	0xbf97ff4bd2f3792f	-0.02343481516879214
131	0xbfb3b5f98d549977	-0.0769954652829251
132	0x3f62474fe42bd512	0.002231269872363336
133	0x3fbc81f66bfb687a	0.11135807167321046
134	0x3faefc47c83cf766	0.0605184966975532
135	0xbf50af1770e1f96d	-0.0010183075824269042
136	0xbf8d80bf13fa6ad6	-0.014405720517335945
137	0x3fbbb8ad8c63a23e	0.10828671147795263
138	0xbfabb5f7d213cb00	-0.054122681040004395
139	0x3fb187947f1329cd	0.06847503759778491
140	0xbfa08f46e50c31d0	-0.03234311624519004
141	0x3fbba7e078a8844f	0.10803034730680959
142	0xbfbaaca8692f14f6	-0.10419704978911057
143	0xbfaffeb2e5bbff3a	-0.062490072768922336
144	0x3fbe18ece332dbb4	0.11756783053247838
145	0xbfb69a172580374c	-0.08828873315380042
146	0xbfb2ff295356b62a	-0.07420595440518044
147	0x3fbfa90bdd2bc790	0.12367319249804454
148	0x3fbdb26b23f42c72	0.1160037005212631
149	0x3fb1d313bc421996	0.06962703081271679
150	0xbfc23a68ebe73fd1	-0.1424075271484058
151	0xbfa3acc1073e3224	-0.03842738355078648
152	0xbfa27e53e78dceaf	-0.03612005426012154
153	0xbfb02902249ce6f7	-0.06312573808545695
154	0x3fa7af5b5239062f	0.046259740626294
155	0xbfbb05f7905acab1	-0.10555979990275934
156	0xbfa480f13929c376	-0.04004625151436063
157	0xbf526f1d1cb8c1c3	-0.001125124387623897
158	0xbfaafd1685ebcad5	-0.05271215805796251
159	0xbf85c3b32561ea73	-0.010627173975298753
160	0x3fa549044d094993	0.041572698978274
161	0xbf9fe607bc8530c5	-0.031150933152546374
162	0x3fa7adfac0c3430c	0.0462492332750398
163	0x3fb31228213e7aed	0.07449580012915265
164	0x3fb3ab360a2fbe6b	0.07683122395223456
165	0xbfbb1d4c327f8e48	-0.10591579659335892
166	0xbfb937ab0ced3aff	-0.09850567880242166
167	0x3fb3f956400c7eac	0.07802332938853834
168	0x3fae91947ce55fb9	0.059704437490551716
169	0xbf84719c579f42f0	-0.009982320236220116
170	0xbfb2005c5282e4a4	-0.07031800283847872
171	0xbfba3d41a173f7e4	-0.1024971980259291
172	0xbfbfbb07107852eb	-0.12394756462192517
173	0x3f9ab0d2c82b266f	0.026065152613944095
174	0x3fc07eb6055a6ca0	0.12886691342723555
175	0xbfb78131c8e4d2f5	-0.09181510119089949
176	0xbfbf6608d81a26af	-0.12265067363673653
177	0xbfc017eae1153de3	-0.12572990408305804
178	0xbfb06499c2d550da	-0.06403504378005512
179	0xbfb188745887769f	-0.0684883800635938
180	0xbfa823c81c0b263f	-0.04714799253777046
181	0x3f9b9cc943528bc0	0.02696527932551951
182	0xbf9ffe0454acb1a0	-0.031242435138823077
183	0x3fb7232058833a33	0.09037973557426753
184	0xbf8b4694409b35db	-0.013318212720515745
185	0xbfb88dc5aa480ca0	-0.09591327101957114
186	0x3f83a745c65339b3	0.009596390833760937
187	0xbfa32f9cbd2eb77a	-0.037472627729001354
188	0x3fb7b6a9990c2be4	0.09263095842850039
189	0xbfb8471d0f2454ee	-0.09483510608363918
190	0x3fb3a78b97459de6	0.07677528803980457
191	0x3f9b4538e68b85a6	0.026631249495840635

gru1.bias_hh_l0 f8 [192]
0	0x3faa319ac8674bf3	0.05115970321971721
1	0xbf2b8dd13688040c	-0.00021022013540064643
2	0xbf94c0eba9ee7efb	-0.020267183539202965
3	0xbfa0b4e85cee5199	-0.03263021597300337
4	0x3fb5bd5f1847ae2c	0.08492082922719452
5	0xbfb94cd07c292bc8	-0.09882834464330792
6	0x3f92b9a6023b9e07	0.01828631771686953
7	0xbfb17225043a6f9c	-0.06814795830945147
8	0x3fabef60d524c65d	0.054560686129104786
9	0x3fad8a1b57416ff9	0.05769429626590745
10	0x3f80e20d9dc5363e	0.008243662240285162
11	0xbf9cc4ce854444a1	-0.0280945080604097
12	0x3f9fb5feeb64b7cd	0.030967696301722292
13	0x3fb1e7ce32503ad8	0.06994332054476204
14	0x3f9d12297040d1de	0.028389594532386535
15	0x3fb37eafb65b6204	0.07615183069300008
16	0x3fa6ee631c1e2ac2	0.04478749960170127
17	0x3f9f314efca833e1	0.03046153466316415
18	0x3fade3a9e7f78c9c	0.05837756115558898
19	0x3fab9395d9caeaae	0.05386036189653019
20	0x3f659c6dadf1224f	0.002638067453095062
21	0x3fa24a20d3aed00f	0.03572180351275744
22	0xbfa3de7c0dffd794	-0.038806797703656276
23	0x3fa3293911de2d3b	0.03742388098825208
24	0xbf7c8ca4604d3409	-0.006970064253278182
25	0x3fb83382c4a0d998	0.09453599262710666
26	0x3f8ae3f170fa7378	0.013130079517674295
27	0x3fb31aa8ebfddc41	0.07462554704203318
28	0xbf79fcf9dfb664b9	-0.006344772405463655
29	0x3f8f9fa79a75a93f	0.015441235924943284
30	0x3fa16714480c1e2d	0.03398955707058025
31	0xbf834e8a1598d8ef	-0.009427145752038927
32	0x3fa941b7a310518e	0.049329508452646484
33	0xbf9eb228931600b0	-0.02997649572125799
34	0x3f82b2a393b283c2	0.00912978929983577
35	0x3f7aa045e3c1782b	0.006500504499937813
36	0xbf6923f4be3a07c9	-0.003068902982534792
37	0x3faf79b742a2db47	0.061475493320748024
38	0x3f93434e1001e352	0.018811435439121844
39	0x3f7e1ef442744da4	0.0073537389173624935
40	0x3f91e6504b44850b	0.017480139345143402
41	0xbf8c8657896b9b72	-0.013928111916767103
42	0x3fa984fbce2a5927	0.04984270946185836
43	0xbfaee425a0183e63	-0.060334373276529595
44	0x3fa316ebc6af47b2	0.03728424835539047
45	0x3fa2b81295c996c4	0.03656061247310796
46	0x3f950a5d7ea07ba6	0.020547352651302163
47	0x3fad6ddf895a4b3f	0.05747889091175872
48	0x3fa9b1270a61410e	0.05017969133098364
49	0x3fb72bab10b0d329	0.09051007421005565
50	0x3fa48f618aeb32dc	0.04015641041551074
51	0x3f83c9eaa7fd7867	0.009662469150210918
52	0x3fa136312a47455c	0.03361657754033828
53	0x3fb22fbcb268cb97	0.07104091029832059
54	0x3fa0a319d3ddadab	0.03249436103109401
55	0x3fa299ad258d6274	0.03632870753671549
56	0x3f84ce1ecf5c9f0c	0.010158768370800007
57	0x3f7d021d42bd9134	0.007082094478253521
58	0x3f9b4ed31c73519e	0.02666787968776562
59	0xbf98cad1fd20d2bd	-0.024211197924347106
60	0x3fa0021ee258c2df	0.03126617920896079
61	0x3f7826e6e2343edd	0.005896474732494742
62	0xbf963cf3b84b9059	-0.021716888545498445
63	0x3fae41d653a9c725	0.05909604808119998
64	0x3fac72fdc75e206b	0.05556481417357947
65	0xbf6149cfe6270df8	-0.0021103916671749677
66	0x3f8d6ef415d8ef67	0.014371783177118137
67	0x3f93460ddd4842da	0.018821922904012613
68	0x3fb2770df30c6aea	0.07212912734795976
69	0x3f8b11e2efa22448	0.013217709482221576
70	0x3f77bf634d2e00a2	0.005797756096285552
71	0x3f735dbb55bc0e17	0.004728061463314079
72	0xbf3027c86edd5f76	-0.0002465118731058627
73	0x3fb6e357aff37bf6	0.08940647168809321
74	0x3f3d42f9efb04b28	0.00044649698219349993
75	0x3f9c9e1a52c4af02	0.027946864415908663
76	0xbf97b4c79c206547	-0.023150557426651088
77	0x3f675527356e735e	0.0028482213778730356
78	0xbf811a91a04495cb	-0.008351457313049778
79	0x3fbfea10275a464a	0.12466526947744075
80	0xbf972965965bb148	-0.022618853857168802
81	0x3f954d7fe2c1faa3	0.02080344983596184
82	0x3f9708f3cad79dbb	0.022495087867268043
83	0x3fb6c6257af8e222	0.08896097423792829
84	0x3f8e60708970c94a	0.014832381433823944
85	0x3f65dbc6d0d7f2ba	0.0026682742234228314
86	0xbf92eb561769f44b	-0.01847586172015196
87	0x3f9f2f4deec9986a	0.03045388956015708
88	0x3f905b72a553d7cb	0.015973845806875702
89	0x3fb437c9e30733eb	0.07897626679114438
90	0x3f947d116e2cc171	0.020008346890962373
91	0x3fbadca91409729e	0.10492951144392257
92	0x3fa25a5b06736717	0.03584560827012078
93	0x3f91204b12d3f5b8	0.016724751495521523
94	0xbf8474d5f464f712	-0.009988471527886431
95	0x3f981ae91dbe736f	0.023540155830790107
96	0x3fb645d770ee3f0b	0.08700319773765501
97	0x3fb3dc6eae5784ac	0.07758228069680467
98	0xbf7471dad34d7735	-0.004991392885896497
99	0x3f8fdb038ec3aacc	0.015554454607316436
100	0x3f8f64f7ee8b9f76	0.015329300849273624
101	0x3efb1d23603bfd57	2.5857754748945718e-05
102	0xbf6a17c402985606	-0.0031851604769694867
103	0xbf5a74930b5dd8b1	-0.0016147075634456549
104	0x3fc0485abe4cc2eb	0.12720808307633233
105	0x3fb5a0df46738ec6	0.08448596448902909
106	0x3f71058501fbeb58	0.004155654489063597
107	0x3fa4db083fa156d2	0.040733583228456674
108	0x3f9202ba2abac969	0.017588528497705456
109	0xbf72eae23c75a3b6	-0.00461853383544846
110	0xbf969adca8612a9a	-0.022075126435349014
111	0xbf959a0c831913ba	-0.02109546232374602
112	0x3fc31e4b892143e0	0.1493620318965716
113	0xbfa4eacaad1edb61	-0.040853818543317606
114	0x3f90b04d73eaf9fe	0.01629754085547041
115	0x3f951514c851130a	0.020588230825768362
116	0x3f8e03f14d229ed2	0.014655957380753124
117	0x3f82d20489459d06	0.00918963951035191
118	0x3f87ff4419420951	0.011717350025951008
119	0x3fc005a822800616	0.1251726311166272
120	0x3fb54623dd7daf65	0.08310150296682435
121	0x3f9b1d3b45a37fd7	0.02647869694271762
122	0x3fa32b934af342bd	0.037441828631590714
123	0x3fad24a456592333	0.0569201808362493
124	0x3f9c8ce8980a638c	0.027881273536511084
125	0x3fa7b73f264b43ed	0.046319936203538116
126	0x3f8996ee2c516814	0.012494908072927337
127	0x3f997e6d70a7ac0a	0.024896345139421107
128	0xbf917e1c7316c428	-0.017082638287039625
129	0xbfbf2119942fbcdb	-0.12159881465753435
130	0x3fa72cf0b061621f	0.04526474145012948
131	0x3fb5120429187826	0.08230615619001522
132	0x3fb6d1d104992c34	0.08913904535545286
133	0xbfa56e669afd81bd	-0.04185791627856215
134	0x3f8758633aba2cb6	0.01139905474635437
135	0xbf932da2c83ce5e9	-0.018728774520445333
136	0xbfaee482ed809d64	-0.060337153903953916
137	0xbfb00b79cb2ef804	-0.06267510614904387
138	0x3fae3deaba7632da	0.05906613851684535
139	0xbfb4c7635987c748	-0.08116742072868732
140	0xbf8f10fbe7e7f60e	-0.015169113173210593
141	0xbfa5d3316b2c25bb	-0.04262690003640609
142	0x3fb733a0c4c7529c	0.09063153080144065
143	0x3fb7a66ebb5631a4	0.09238330911302356
144	0x3fb105509f562bd8	0.06648734941533918
145	0x3f9a1e8c0e16317a	0.025507152900489306
146	0xbf8d71aedb987f0f	-0.014376989437607372
147	0x3fa0821d52cc08a2	0.03224269519525193
148	0x3faf1fe2dceb47f6	0.06079014727369263
149	0xbfa157d0cc612d13	-0.033873105000191604
150	0x3f9c0402289bf9cc	0.027359040955156108
151	0x3faaa7fd86b663df	0.052062914556877386
152	0x3fb8c017da05fa8a	0.09668110916934772
153	0x3faa9be72fd58227	0.051970696057427816
154	0x3fae57cf15766271	0.059263678903509816
155	0x3f8e3685ecf8ba4a	0.014752432150172318
156	0xbfa9090b60fef3a4	-0.04889712866813703
157	0xbfa65f49b41f9111	-0.04369573901911584
158	0xbfc172ceb786d0f2	-0.13631614648114226
159	0xbf92c57127dba62a	-0.018331306512584224
160	0xbfa2a4e10ec0abbe	-0.036414177943093304
161	0xbfa81eab2acb740d	-0.04710898301502917
162	0xbfb86150304ae20e	-0.09523488215462114
163	0xbfa935de7c027e94	-0.04923911346236057
164	0xbfb40fde6ef1f907	-0.07836713989852138
165	0xbfba498151a12f0e	-0.10268409960661648
166	0x3faadb38a7fbe27a	0.052453775888300094
167	0xbfb02ac7280f7c4d	-0.06315273979224507
168	0x3fb6d42f44717d3b	0.08917518063525602
169	0xbfc03cf3111c6eef	-0.12686003051282266
170	0x3f94c49e5be6d44e	0.02028129039691278
171	0x3fb2c384fb8a26f5	0.07329589024643808
172	0x3fb381057241f413	0.07618745841496403
173	0xbfa0c2b5dfaf14ba	-0.032735522799649044
174	0xbf9f098b1ae34916	-0.03030984260187449
175	0xbf90262f32b590d9	-0.015770661802336192
176	0xbf7230cecd2dadb7	-0.004441078012728131
177	0xbf80414a75a4f53c	-0.007937032427998696
178	0x3fbe6eb3111f2a98	0.1188766400147564
179	0x3fb4b922cffacbea	0.08094995095852622
180	0xbfa1e200987b36c1	-0.034927385915222604
181	0x3f77972807879340	0.0057593883179592464
182	0xbfa8dbbeb311ad9d	-0.04855152068997912
183	0x3fba413b2b955c4c	0.10255784811066454
184	0x3f9d8809cc19c297	0.028839257318795743
185	0xbfbbcb5192560bbb	-0.1085711462274465
186	0xbfbae41fef5f213c	-0.10504340738328194
187	0xbfbd10813f885d0c	-0.11353309441652842
188	0xbfbba06f196a40a2	-0.10791677828297222
189	0xbfb0c700d9495837	-0.06553654961439369
190	0xbfb71bf376d53433	-0.09027024890129169
191	0xbf74d8214b95cbea	-0.005088930186832189
