model_path/data23/G34.pth (torch, 652927 bytes, 12 tensors)

gru1.weight_ih_l0 f8 [192, 13]
0.05952266490420347 -0.07229430195494849 -0.015826678958869057 -0.04536271765369466 0.042348062921470926 0.073751367318604 -0.03417581842492209 0.011776002852419384
-0.038996888755822114 -0.042169808579591433 -0.02251779044598707 0.07869012446914704 -0.063995507318696 0.07213036720965796 0.001208642038517553 0.07129834090944283
-0.06748023807495479 0.002057404891460161 -0.07490192751729359 0.016976919892132132 -0.033628002382712865 -0.024155593594542 -0.06951795992825993 -0.07381385192523539
0.00104676838206433 -0.028098470802602 0.022473769797783937 0.03582362497809126 0.026602906231256683 0.00034900018416885223 -0.006845250818190476 -0.023375563954907308
0.008510336320668407 0.03927766414899081 -0.04005338188858031 0.0353368671870082 0.011486299683772357 -0.002239145929651581 0.001965276362551779 -0.019681365328115562
-0.006105045209006438 0.02366137582610184 0.06758679215119161 0.024184213712864396 -0.029183622698741946 0.006745511756358421 0.09908357120051854 0.08372334338619802
0.06179671921992731 0.0714665364068744 -0.09953102415880866 0.02331928390487827 0.013692009578192617 -0.016784866094908975 7.771208316355043e-05 -0.009411582919302226
-0.014359185845872983 0.017701488904979946 -0.029152539998708937 -0.01805549566991467 -0.007944279235209717 0.03173975007662644 -0.03553151300018298 0.029030118254046205
-0.01708019803935649 -0.029192951093349632 -0.03373727505172488 0.0767450107279464 -0.03078164038359391 0.06581209022661097 -0.019963941804451987 0.10612883716160192
0.08874406788362572 -0.09054723115313304 -0.05512023109919312 -0.027846269677743656 -0.08984568229009299 -0.06979719535169623 -0.05392098191281133 -0.021954303793476675
-0.048805729812863 0.030173997255038047 -0.03597031330023063 0.04073756470512424 -0.0028379399904216646 -0.006250530041586744 -0.05831775244397835 -0.09280781348937313
-0.07410364784809209 0.02392520006734896 0.04955015155506276 -0.010280808217349094 0.021662875141551557 0.06527292567050126 0.009379327797060336 0.012223465540762389
-0.0023801469676847263 0.040606131286684985 0.05550664081810393 0.020820809350403063 0.03828870579904503 0.006552804013399223 -0.021126018403617847 0.03404669203903726
0.01480422648332846 0.05761923388470198 0.00034608185107790204 -0.06550673381689491 0.007069171739556153 -0.03511654610565067 0.004069009060733538 0.005365190916812953
0.0014413226730128276 -0.008502502112102617 0.003508261119517402 0.03297784938752196 -0.00886741465054835 0.006472154496248789 0.04041065897845701 -0.0232045203721709
0.006812906005047327 -0.02484011486539254 0.09205789128917152 -0.02747575358986074 -0.08391212131621155 -0.044997396752723455 0.06217805873045175 0.10912348175291946
0.0132480003938821 0.0062323110260450185 0.06811563430286662 0.016802012397977968 -0.032307202581604626 -0.009445240667867632 0.0598693733220922 -0.03838026939932136
0.05849918948875821 0.010615921262008781 -0.03609095634978112 0.026317198931767823 0.0040669468162279595 -0.046568591571702914 -0.03266710194811483 -0.035381029938839334
0.04958795410805208 0.09633377030711433 0.06718123135070145 0.07698698749937027 0.09160285816038792 -0.020473884616983844 0.11498590941530946 0.022212686517840505
0.05332760032782271 -0.04665784971126298 0.01340349144953057 -0.0527932102706081 -0.020168994755114158 0.012240636682780163 -0.03688724134933231 -0.003020918191510088
0.06668605425228025 0.038051851413475855 -0.07777292086740624 0.06720139265669088 -0.003964674687067585 0.023263827185997364 0.004543230483103095 -0.14177128851621215
0.07816635571307326 0.10292825807981437 0.022683367981456152 0.013379393720767616 0.08093194101767433 -0.04913167888406236 0.06652587350118457 -0.05883477442377041
-0.03383620726724188 0.040735131612550615 -0.047664316180571015 0.05516549322722702 -0.016791622585107864 -0.04452677650169124 0.022593104482707814 -0.014356733131765852
0.0019907770052683266 -0.013955139852005449 0.003830921441493616 -0.005103233305588887 0.006301740661729776 -0.01513042931984022 -0.0180021418929236 0.007626833181660127
0.01838500312342627 -0.004348298136587377 0.00039499918474926763 -0.01597428189402573 -0.02632921426438774 0.02194638980984683 0.033825840385614876 -0.028115513993374096
-0.013477817442222094 0.037527027089542316 0.07340049053508932 0.06704248431819573 0.03183556151097432 -0.012387684759654143 0.052287523504080856 0.012385304448610893
0.07465142210095291 0.05872821322308675 0.0778801924795028 0.061061692868999935 0.026582207817690728 0.07962978443230978 0.0744570135273218 0.09873251173396408
0.05207626761260857 0.035441100943014114 0.047471047395452645 0.007089812229573176 0.06508375584520476 0.038428003759465146 0.016803147528061665 0.008066603020209404
0.01828328481171215 0.017432005986133467 -0.0017667552185371594 0.02318394235018153 0.02157833631436155 0.02884861694976422 0.014464775928379369 0.0356729782384238
0.046270868156195126 0.03886922646076928 0.010601711014690747 0.005645264911317095 0.09351041593144609 -0.01751637440137329 0.010463044714130782 -0.05889449936703053
0.1010371925675712 0.076577117659015 0.056108781634161366 -0.06965187455660198 -0.0403283538333391 -0.1151594978609731 0.11685351063800288 -0.08853910515781543
0.00989784881931695 -0.005681675760833174 -0.02495542199690806 -0.019598585541798143 -0.08306951431705482 -0.00926674680624514 0.003753865192213029 0.03097953472842259
00000000: b5c5 4436 c179 ae3f 426a 951e e181 b2bf
00000010: ca6a 2172 de34 90bf 8983 8f39 c839 a7bf
00000020: d9e4 9732 a5ae a53f 192f ab9e 5ee1 b23f
00000030: 1bed e52c 7e7f a1bf ebaa 0759 041e 883f
00000040: 253a b473 66f7 a3bf a4b2 74f9 4797 a5bf
00000050: 92be 2c56 e70e 97bf c9f7 1c37 0925 b43f
00000060: 9254 0673 0262 b0bf 8ac5 36c0 2277 b23f
00000070: e0cf ca81 69cd 533f d511 77aa 9b40 b23f
00000080: 6c81 a887 6246 b1bf 6f84 26d7 b0da 603f
00000090: 7519 18d1 c52c b3bf 42e2 e4ce 6562 913f
000000a0: fa57 ed84 b037 a1bf 1f1f 0472 3ebc 98bf
000000b0: 4863 60d4 edcb b1bf 71bb 02f0 76e5 b2bf
000000c0: 89c0 eafd 7626 513f c8bd a874 d8c5 9cbf
000000d0: 837f 3229 5d03 973f 06ff 6863 7957 a23f
000000e0: f69a f7d0 ca3d 9b3f 3df1 9660 40df 363f
000000f0: 364c 5a06 c409 7cbf f0f7 d88a c3ef 97bf
00000100: ebdf 6601 de6d 813f 5064 f7b5 331c a43f
00000110: 4f7e 9c7a e081 a4bf 5b95 d281 ac17 a23f
00000120: 846b f30b 2186 873f 0c0e 3e51 d457 62bf
00000130: 7968 8db6 7b19 603f f614 b311 5a27 94bf
00000140: 6d69 3698 9a01 79bf 61e8 670d b03a 983f
00000150: 9b50 ee35 5e4d b13f 22a8 e71b bfc3 983f
00000160: d893 47c4 4fe2 9dbf 16a7 3686 2ea1 7b3f
00000170: 958a e079 8a5d b93f 5868 c19d e46e b53f
00000180: fa6f 19d0 d1a3 af3f 393c a084 a14b b23f
00000190: 6810 b37d dd7a b9bf 254b f3a6 02e1 973f
000001a0: c4be d66a 8e0a 8c3f ef0f c84b 0d30 91bf
000001b0: 3f63 3a6c 2b5f 143f 0468 bc46 6146 83bf
000001c0: a278 d74c 5968 8dbf aae4 bfcf 5620 923f
000001d0: 4324 8fd7 29da 9dbf 5452 a9cd 237d 92bf
000001e0: d34c 0b1c 1745 80bf f0e8 1f49 3140 a03f
000001f0: c059 a0bc 2f31 a2bf fb24 0042 12ba 9d3f
00000200: 0bf5 f3af 787d 91bf a1ef e0c8 c1e4 9dbf
00000210: 83b2 011a 0346 a1bf c22b 359f 8fa5 b33f
00000220: 891f 0feb 3885 9fbf ea66 34a7 0fd9 b03f
00000230: 0ff4 9874 6d71 94bf e786 c56c 422b bb3f
00000240: 6d30 4665 eeb7 b63f 82ca 8b74 1a2e b7bf
00000250: b886 d60b b838 acbf 2b76 5386 bb83 9cbf
00000260: ec6c 1f6b 2000 b7bf ce57 639f 3ade b1bf
00000270: 8c78 c4eb 879b abbf 0e9e 3263 307b 96bf
00000280: 5dac ce8a 10fd a8bf ee94 99ad eee5 9e3f
00000290: d5b2 806e b36a a2bf 601f 41d8 8ddb a43f
000002a0: adc5 4c6e 973f 67bf 27ce c7e1 279a 79bf
000002b0: 37d5 0b0f d3db adbf 3508 c0bb 40c2 b7bf
000002c0: 6098 05e8 74f8 b2bf 56ab 5bff d87f 983f
000002d0: 88b5 e130 a35e a93f 7548 8fb8 1a0e 85bf
000002e0: 4bc8 14f1 ca2e 963f b9ac 11f9 b9b5 b03f
000002f0: 55b9 2c11 7835 833f cc4c eec5 9d08 893f
00000300: e61f 59ac 877f 63bf fe6a c9ab 53ca a43f
00000310: 1a95 0cce 5d6b ac3f d8e6 f1dc 0c52 953f
00000320: b816 6dc6 939a a33f a250 f4ee 1cd7 7a3f
00000330: e58c 8d18 0fa2 95bf c875 b069 916e a13f
00000340: 3e31 b5a4 ad51 8e3f a98c 4faa 4480 ad3f
00000350: 1922 6c3b 4aae 363f a34d 699f 0cc5 b0bf
00000360: 2233 e656 90f4 7c3f 66fd 24c2 cbfa a1bf
00000370: bcd6 7c4d aaaa 703f 6362 6478 cff9 753f
00000380: dfb4 966f 589d 573f 1a93 0b84 c269 81bf
00000390: f1e1 c558 5bbd 6c3f 8840 3901 79e2 a03f
000003a0: 9db6 643f 1429 82bf 5436 56be 8b82 7a3f
000003b0: e6ce 71b5 b4b0 a43f fdaa 7800 edc2 97bf
000003c0: 5be9 b787 d9e7 7b3f 8a29 e7e3 af6f 99bf
000003d0: a8fb 6c20 1b91 b73f 19d7 679c 9a22 9cbf
000003e0: 6386 cac8 437b b5bf f789 ea16 e609 a7bf
000003f0: 6a57 8d71 cdd5 af3f b3bc 5a39 84ef bb3f
00000400: ced5 6e83 c421 8b3f 61d9 9040 0d87 793f
00000410: f156 adb5 0670 b13f 0274 06f7 8b34 913f
00000420: 37c7 06d5 918a a0bf a9b4 2bbe 0658 83bf
00000430: f19a e6d0 32a7 ae3f 5e75 c323 94a6 a3bf
00000440: f0b8 6413 9bf3 ad3f a310 19d5 ccbd 853f
00000450: e347 688a 837a a2bf 32e4 ef52 e5f2 9a3f
00000460: ddd3 1fb9 80a8 703f 427a a4a3 d6d7 a7bf
00000470: 7e64 0b0d beb9 a0bf a6e3 f85c 761d a2bf
00000480: 13da 56a2 9763 a93f b12c f878 54a9 b83f
00000490: e267 8e07 ca32 b13f d000 8751 6bb5 b33f
000004a0: b7dc 04f0 4873 b73f be78 6823 1bf7 94bf
000004b0: d587 7070 b76f bd3f 0909 9a28 ecbe 963f
000004c0: 23aa c356 c14d ab3f 121e 39a5 89e3 a7bf
000004d0: c170 6c2b 4a73 8b3f 5c50 202f b607 abbf
000004e0: 6734 7753 2ea7 94bf 2fc9 e071 9e11 893f
000004f0: 5157 786e e2e2 a2bf 2c03 c41a 53bf 68bf
00000500: 20e2 1c56 5612 b13f eb0a bf42 887b a33f
00000510: ddd0 a317 ede8 b3bf b7c5 b447 1c34 b13f
00000520: d07a ec41 433d 70bf 564d c603 79d2 973f
00000530: 6169 7d25 ec9b 723f 412e d8c3 8f25 c2bf
00000540: 2666 6fd5 b502 b43f 247c 499e 8159 ba3f
00000550: 71ee 920e 4f3a 973f 189e c4d3 a766 8b3f
00000560: 116a dfa7 f4b7 b43f c45d 0294 c927 a9bf
00000570: f981 06f3 d607 b13f f306 0970 971f aebf
00000580: ad57 44b7 fa52 a1bf 62f8 2534 3cdb a43f
00000590: 240f 5d0e 7567 a8bf 27ab 8eca a63e ac3f
000005a0: 7235 66b7 d231 91bf 41fc bdb1 36cc a6bf
000005b0: 662e 7993 a522 973f 2c07 3a1a 1067 8dbf
000005c0: 6040 3344 f64e 603f 7329 342a 8394 8cbf
000005d0: 9698 c049 0662 6f3f d1fa 6bc2 20e7 74bf
000005e0: b9cf cca0 dacf 793f 0542 d3d8 b3fc 8ebf
000005f0: 6192 c04a 276f 92bf 7b7d 6571 503d 7f3f
00000600: fd9e 9bac 84d3 923f bc6e a364 85cf 71bf
00000610: 3907 9894 fce2 393f 6269 3fe9 8f5b 90bf
00000620: a599 c7a8 0bf6 9abf 7586 fe49 1d79 963f
00000630: a18e 6edc 9e51 a13f 6374 7234 50ca 9cbf
00000640: 7f1f 1609 429a 8bbf 29a2 2114 be36 a33f
00000650: feca 5be2 5fca b23f aad8 963d b229 b13f
00000660: 4e30 142f c04c a03f c9b4 53e7 b65e 89bf
00000670: 13b2 e026 6ec5 aa3f 1559 766c 775d 893f
00000680: 1203 8608 5b1c b33f 9195 4ad6 9f11 ae3f
00000690: 75a5 b4cf f4ef b33f f94d d26b 7a43 af3f
000006a0: 4309 eec4 5d38 9b3f f49e ec17 9e62 b43f
000006b0: e7c3 0e66 9d0f b33f 1c06 f3ac 8846 b93f
000006c0: c679 9694 bda9 aa3f d00d f802 5625 a23f
000006d0: f602 2408 204e a83f 8aa0 92fa 340a 7d3f
000006e0: 0823 db3a 54a9 b03f e880 cbd6 d5ac a33f
000006f0: 7f5b 6924 d834 913f 65fc 4a21 3985 803f
00000700: dfab 5179 dab8 923f bcdb 741e b2d9 913f
00000710: 52cb 8df8 4ef2 5cbf 26da be08 88bd 973f
00000720: 7bce 16a3 a118 963f 1416 56e9 7d8a 9d3f
00000730: 866b 735c b59f 8d3f 2818 c585 ba43 a23f
00000740: b70d fab2 d0b0 a73f 7e8c f0d0 aae6 a33f
00000750: 77c9 b790 59b6 853f 68e7 bd42 7d1f 773f
00000760: 8bcb 4272 4cf0 b73f b626 cbfc cfef 91bf
00000770: 1d04 e916 a66d 853f 5331 6479 6b27 aebf
00000780: 2be3 c1cd 92dd b93f 69a8 f7d7 8e9a b33f
00000790: b535 464c 4aba ac3f 1361 538b b4d4 b1bf
000007a0: 70a4 a101 eba5 a4bf 3efc 22c5 177b bdbf
000007b0: 41ee 9c96 1cea bd3f 6ce6 11b1 7faa b6bf
000007c0: a976 d6c7 5245 843f 43a0 4439 ab45 77bf
000007d0: 28a1 5605 ea8d 99bf baad cccf a611 94bf
000007e0: 834e 492f 0b44 b5bf 2cfb c8b3 71fa 82bf
000007f0: 5823 7e07 6dc0 6e3f d4f6 0362 19b9 9f3f

gru1.weight_hh_l0 f8 [192, 64]
-0.030790765078141602 -0.05649772763118906 -0.03016155203303673 -0.007243905786185473 -0.0026172017512802207 0.0024442711666217993 -0.02007157782820814 -0.010447143825146108
-0.03021662310044282 -0.08315075799924718 0.005532460591655179 -0.05201407950568692 -0.021929495903915276 0.060754371093097705 0.029900132865378088 2.569835996085806e-05
0.021346285369157086 0.031321389375081214 -0.033457414750023354 0.0314488929562878 -0.008848348314684156 -0.04700843772845434 -0.00683197670920139 0.03283887954564656
-0.05121896051420319 -0.0340649307613587 -0.0006882540793510505 -0.03326252491482699 -0.08189472570610618 -0.011700396856493994 0.06765041381627152 0.06400868540562736
-0.046914219821742556 0.04994581208980255 0.009998368604386564 -0.04118915042101032 0.021626552721683925 -0.013720213900230586 0.01501896592624546 -0.007506416097358493
-0.03440386860271195 0.005524913502085299 0.01117259170971742 0.018543046967629154 -0.031936718156725975 0.057036894086187784 -0.038450364563783375 0.06179779781165285
0.05507954531353053 -0.018533130215819597 0.01081614983800409 -0.05473691765231515 -0.016699946951898657 -0.00841347929820084 0.03885977300351367 -0.0003890918631066829
-0.047074175682060265 0.009494446211014047 -0.05675158984636127 -0.0361852905364259 -0.019965676225123376 0.024809294343505983 0.07931060914964551 0.0024073235251987775
0.011689475188090926 -0.06030749692154829 0.005913796199865506 -0.006521477731650257 -0.01991761270172237 -0.01990443920634677 0.00880386576029604 -0.005083376356716453
0.015040115120132586 -0.037789445698939224 -0.04843834208618937 -0.02261515319878973 0.007858041688542849 0.09782356254876612 0.08519135702369796 -0.004594663770174639
-0.022376438870278886 0.021656533662833932 0.06300299545897352 -0.05005207652082538 0.04368621375340178 -0.06822463467920015 0.03193994985201963 0.08010365360632293
-0.00418067450463977 0.012399804165366414 0.05605035041174645 -0.017032865691159062 -0.09255974785950265 -0.02554220294306897 0.07637433047498274 -0.03332521722623124
-0.05052281484724928 0.00632048638534295 -0.020340812785993485 -0.004067239391134332 -0.038056428732670636 0.06950967001352414 0.006300340113471103 -0.03257618127747974
-0.03134947623994782 -0.05521397908773569 0.03529684830175795 -0.018782617728452314 -0.05805536556087387 0.05865300128208499 -0.03283034297136513 -0.08345165580267978
-0.03494566713372762 0.01502020384977868 0.0020941259708223054 0.07496488276627776 0.029949099635283506 0.01954753470751204 0.0371176882443172 -0.0036228085152302985
-0.03276349676169496 -0.0005338294144431675 0.0037290244632578223 -0.029669353329562838 -0.02419679778534511 0.023946231983491117 0.07888833759529161 0.008416821098229683
0.008658396336253881 0.01929924720709835 -0.005004655379512282 -0.024997522605509994 0.014164920871361859 -0.010786621393734314 0.0019371474923323845 -0.0005857816311755758
-0.022781599121972855 -0.012492619742055972 -0.018950612076811396 -0.023792278139321603 -0.01026135355801699 -0.025149730455738067 -0.01608648753457806 0.004981929597240758
-0.006176893828252793 -0.003531919971572207 0.007521986553532098 -0.046368498683026324 -0.0014448476696745564 0.025542085870715703 0.006053438038417852 -0.018397105876681252
0.0014635698019364962 -0.02396476930692529 -0.002861828086328339 0.004769168131583782 0.007589128830707291 0.011531968433838987 -0.019940766072156266 -0.02662496654021086
-0.02781476694241413 -0.022843761739774128 0.008367220421105288 0.007824644982573821 0.01622346094123154 -0.01673157122394337 -0.0033374524445734313 -0.00432250286054386
-0.009892636951428167 -0.00788474504602842 -0.006271984351674439 0.006881474634829189 -0.006405927007611683 0.010382751417163945 -0.002333548571388055 -0.020813318772409647
0.004384265554602207 0.0014096850401489097 -0.00534841945314827 -0.018891615973667376 0.009416483434862169 -0.005249685765018976 -0.0051701855695547565 0.005746812501300846
-0.019137663749598886 0.002038482251464736 -0.021662890834508137 0.0007301159371716185 0.004292189052116439 0.0026668716101470617 5.987735154254281e-05 -0.01266989977561851
0.007406099822653882 -0.07348358878826655 -0.03797877958491941 0.005257128067771416 0.0362045325755264 -0.0328311095690269 -0.017715802185551056 0.01566698613151938
0.010803032690359786 -0.031106620707680523 0.040958334951740526 -0.03125417729555875 -0.0655884838000484 -0.007549492283643119 0.059569332471642186 -0.009198438226653043
-0.010177029353968978 0.0030819447271087257 -0.01411157002776216 -0.04956623647495003 -0.0002117938256440642 -0.013545669034578689 0.018813201797031116 -0.018398448938261425
0.0012811061376755942 -0.01028258356131423 0.029359657698309605 -0.024250733653273775 0.0030457854642016963 0.020034954903451193 -0.03814586027664494 -0.033341708583895804
-0.052421537407210186 0.0003716048978644252 -0.012891983503795066 0.007574095961440779 0.04454475274088856 -0.00644415643079175 -0.015925589848285095 0.0016428579513715028
0.014920004967308886 0.003940667840328374 -0.028893395377017447 -0.044752638141911404 -0.012926877826950872 0.016741772265828094 0.012620296940910521 -0.07805494742869387
0.056772951035239175 0.019696392347234904 0.01859380452851858 0.03252548728881204 -0.03366415582128432 0.001570288988643089 -0.02356257332032746 -0.02476500637708732
0.04645907433615956 -0.024426483612988003 0.030581156354413476 -0.038316125835660214 0.011247656228692556 0.04593013144987012 0.01987171947889422 0.03961886357435009
00000000: c024 1e44 9d87 9fbf dad3 f228 45ed acbf
00000010: 0361 507e abe2 9ebf e0cb 2627 c9ab 7dbf
00000020: 0696 b87d ab70 65bf c46c 2417 0206 643f
00000030: 06b4 67c9 a48d 94bf ff5e 86e8 4f65 85bf
00000040: 403f 0c40 1bf1 9ebf 7e8f 3e3a 5e49 b5bf
00000050: 38cc eb94 34a9 763f df22 d1e4 96a1 aabf
00000060: ea7b e68e af74 96bf 7528 de69 321b af3f
00000070: 451f 36f3 239e 9e3f d4c0 77d9 59f2 fa3e
00000080: 08da 34f6 ccdb 953f bf00 106e 5b09 a03f
00000090: 2af3 518c 5421 a1bf 0b3e 7cbd 111a a03f
000000a0: f6db 1435 151f 82bf 040a 5c6d 7d11 a8bf
000000b0: 4a63 87c8 d8fb 7bbf ce25 5ff3 41d0 a03f
000000c0: b4ee af20 5f39 aabf 19ff 1e67 f570 a1bf
000000d0: eb2c 8e61 7e8d 46bf 1515 6221 c907 a1bf
000000e0: cc63 9f80 0df7 b4bf a378 caae 60f6 87bf
000000f0: 44d9 e69a 8951 b13f ab24 7a8a df62 b03f
00000100: 2a17 b4ff 2305 a8bf f3e7 fe5a 7f92 a93f
00000110: 1982 5a51 067a 843f 2c3b 048c be16 a5bf
00000120: 07cf a862 4525 963f fc04 f7ef 5719 8cbf
00000130: 9da0 c87b 43c2 8e3f 9a87 5f3a 0cbf 7ebf
00000140: a151 0245 629d a1bf 93fd dfac 4aa1 763f
00000150: 08d3 09e0 a7e1 863f 1138 2dd1 f2fc 923f
00000160: 75a6 0c70 025a a0bf b8fb 8795 f033 ad3f
00000170: 5136 a424 c4af a3bf a1b9 2101 f6a3 af3f
00000180: 0eaf 99db 6233 ac3f 8185 ad50 59fa 92bf
00000190: 5639 950e c726 863f 01ad 662e 7a06 acbf
000001a0: 766b 0378 ca19 91bf 5865 7313 163b 81bf
000001b0: c732 5c9c 6de5 a33f 6342 c2d3 e07f 39bf
000001c0: 7cca 143a 1b1a a8bf 0a6e c2ff d271 833f
000001d0: 7bb2 c55c 8b0e adbf 9a81 e6de e086 a2bf
000001e0: 67bc b7d9 e171 94bf a068 5e8f 9b67 993f
000001f0: 6908 8638 b34d b43f e3ca f8f9 85b8 633f
00000200: 7a3d 1fcd a6f0 873f 879d f6cd 9fe0 aebf
00000210: 59cb 6094 1039 783f 16b5 43d9 43b6 7abf
00000220: ae54 ac5c 4865 94bf 80f4 be4d d461 94bf
00000230: 8f98 26dc c207 823f 3524 4973 4ed2 74bf
00000240: 3d67 8d14 5acd 8e3f 0963 d262 2359 a3bf
00000250: e2e9 430e e9cc a8bf 0705 883d 6d28 97bf
00000260: b3cf 8080 e017 803f 58d7 ec09 f70a b93f
00000270: 9092 51cc 19cf b53f 3973 10aa dad1 72bf
00000280: ab5c 9864 d9e9 96bf e06e 4e5f 212d 963f
00000290: 23dc 0bdd f620 b03f 97f6 81ff 6ca0 a9bf
000002a0: 03bf b616 0a5e a63f e08c ba6e 2b77 b1bf
000002b0: 7ec1 19e0 6e5a a03f 347e 874c ac81 b43f
000002c0: 00c5 5c44 c11f 71bf a7b9 ef8a 1165 893f
000002d0: e144 e5ab a1b2 ac3f ea1a 6744 1071 91bf
000002e0: b389 fbe1 feb1 b7bf c0ac 3b39 bc27 9abf
000002f0: b6d9 a4a3 448d b33f fbcd 3cbc 0010 a1bf
00000300: 8d0c f15a 20de a9bf ce26 1ea5 82e3 793f
00000310: 5275 c2d6 38d4 94bf 2e03 b842 cfa8 70bf
00000320: 6a66 9ed9 217c a3bf 17be 76bf 62cb b13f
00000330: d947 dbab 62ce 793f 7041 6e42 d3ad a0bf
00000340: 2705 65de 090d a0bf 1a7e edb4 0145 acbf
00000350: c141 37b2 6d12 a23f 1405 8223 c03b 93bf
00000360: 30ef e1d0 6eb9 adbf e639 a324 c407 ae3f
00000370: b3c7 c182 23cf a0bf f934 7874 165d b5bf
00000380: a3d8 f302 66e4 a1bf 142e 83a2 e9c2 8e3f
00000390: 6d4c de51 b327 613f 1763 d407 e630 b33f
000003a0: 2aaa e90d faaa 9e3f c40e 25d9 4404 943f
000003b0: 2695 39f2 1601 a33f aa73 f682 94ad 6dbf
000003c0: 7c2b 3086 60c6 a0bf 46ed 36f0 157e 41bf
000003d0: c99e b3c3 548c 6e3f b2cb f998 a461 9ebf
000003e0: dfb9 9f9c 0bc7 98bf 8314 ed6c 5c85 983f
000003f0: 13f1 01ae 0632 b43f aa4f d39a d63c 813f
00000400: 86d5 cc48 7ebb 813f ce1c 5e8e 2ec3 933f
00000410: 4391 ecf2 c27f 74bf 1768 4958 f398 99bf
00000420: eab6 247f 7f02 8d3f 3da0 f6d0 4b17 86bf
00000430: 4557 2248 fcbc 5f3f 7056 6879 e431 43bf
00000440: 3ec3 b73c 0f54 97bf 4a32 de09 bb95 89bf
00000450: a8b4 6f0c ca67 93bf fedb 05c2 005d 98bf
00000460: 1d15 8e8f e703 85bf 9810 3ed7 d9c0 99bf
00000470: 785e 79e7 f978 90bf 86d7 0e8b ee67 743f
00000480: 653a bb4f f14c 79bf 02c6 a318 f9ee 6cbf
00000490: 0a55 f9e3 5fcf 7e3f d601 d1a2 9cbd a7bf
000004a0: d905 4b5f 21ac 57bf 1d05 f25d b427 9a3f
000004b0: 0631 7466 7dcb 783f 5059 53e0 b0d6 92bf
000004c0: a99f d21b a8fa 573f 29bc b771 388a 98bf
000004d0: 74a5 3341 b071 67bf f7eb 77d2 d588 733f
000004e0: 0bd8 2042 c715 7f3f cb36 419a 129e 873f
000004f0: 4c63 8c28 5a6b 94bf 636f 3042 9343 9bbf
00000500: 5e41 7469 797b 9cbf ca1a 5ce6 5a64 97bf
00000510: 4a5c 8950 d522 813f f178 6c12 5e06 803f
00000520: 8a9d ae08 e29c 903f 92c0 debc 1422 91bf
00000530: 50a7 3e23 2557 6bbf 3b35 c406 79b4 71bf
00000540: bfb1 6b41 9742 84bf 7a42 e190 e025 80bf
00000550: 9652 befa a6b0 79bf 41d8 13c8 bf2f 7c3f
00000560: 92da f8ef 193d 7abf 04d6 3b4e 8d43 853f
00000570: 6514 8759 ce1d 63bf dc7d cb2d 1650 95bf
00000580: cdaf c852 3cf5 713f 9251 49c9 a518 573f
00000590: a95b 2f6a 39e8 75bf ba1a 1ae3 5258 93bf
000005a0: db20 2b03 f348 833f a8ef ccca b180 75bf
000005b0: 1ec3 f71e 552d 75bf 9942 fd3b f889 773f
000005c0: d99a b4df d298 93bf e903 50d3 01b3 603f
000005d0: a522 affe cb2e 96bf e4ba 4509 a8ec 473f
000005e0: 51a3 b6b9 af94 713f 868e 24cb d5d8 653f
000005f0: c876 1722 9a64 0f3f 8764 7029 adf2 89bf
00000600: b8a4 77c8 db55 7e3f c068 a30a d2cf b2bf
00000610: a8b8 8460 f471 a3bf 538e f391 7f88 753f
00000620: f6f8 c186 6689 a23f afdd c73b 3dcf a0bf
00000630: 4a92 095c 1724 92bf 5a3e 3fa4 010b 903f
00000640: cf5b d280 e61f 863f 57a6 83fa 69da 9fbf
00000650: d390 3baa 7df8 a43f 3a14 b22a 8c00 a0bf
00000660: dd59 ea28 68ca b0bf 96bb 5a67 37ec 7ebf
00000670: 9ed9 9e1d df7f ae3f 96ac dc7a a1d6 82bf
00000680: a540 f7c1 b1d7 84bf a5ce f379 4e3f 693f
00000690: 2999 1dde 86e6 8cbf db9a 4ae9 be60 a9bf
000006a0: 573f f91b 9fc2 2bbf 5332 0cec d4bd 8bbf
000006b0: d220 ce99 c443 933f 50a5 f201 0bd7 92bf
000006c0: 7287 b23d 59fd 543f 61f2 e900 090f 85bf
000006d0: 1d42 8b46 7510 9e3f 3b7e c72f 2fd5 98bf
000006e0: 773a b39e 79f3 683f df3f 5910 0b84 943f
000006f0: 2561 bbac da87 a3bf 1ad3 eb17 2a12 a1bf
00000700: 8a3e 8ae9 fed6 aabf 6df4 23e2 7e5a 383f
00000710: 0527 3cbc 1c67 8abf 12ed 37e7 0306 7f3f
00000720: 1307 76e0 91ce a63f e9ce ed11 3065 7abf
00000730: 0786 453e cc4e 90bf 6d4d 144b a5ea 5a3f
00000740: 2041 202b 618e 8e3f c34d faf7 1624 703f
00000750: 0cd7 dbf0 3a96 9dbf db5d 755a d1e9 a6bf
00000760: f093 0c2c 6879 8abf 476c 6f51 c124 913f
00000770: d122 0495 abd8 893f 164b 7fb6 68fb b3bf
00000780: 52ce fc1f 5811 ad3f 8d17 ec83 4a2b 943f
00000790: 08cd 6e19 410a 933f 3742 6240 2ea7 a03f
000007a0: cc87 99a0 6d3c a1bf 09d4 7ef6 44ba 593f
000007b0: 2f19 4887 c920 98bf 9a37 e671 ff5b 99bf
000007c0: 4ca2 c0d9 7bc9 a73f 13a4 1891 4103 99bf
000007d0: da0d aaa9 aa50 9f3f 0c46 bfd6 2b9e a3bf
000007e0: 9e65 45dd 0209 873f 1fd3 f478 2784 a73f
000007f0: c2c9 1b85 4059 943f b389 b676 ec48 a43f

gru1.bias_ih_l0 f8 [192]
-0.006498567608466239 -0.0054252579480887275 0.05131864420740372 -0.018187013933990012 -0.010025569373677531 -0.049756710125007514 0.060255613206264255 0.08338147501503539
0.005294997561820662 0.11703864987513798 0.006694731461211171 0.1119218074599378 -0.006087462921139147 -0.03490208938147565 0.04630610264654978 0.017544869571659533
0.038971134450752745 0.05339651115294332 -0.04999069126385885 0.10398307097294786 -0.01153158913913119 0.021213675826980014 -0.019169646266799706 -0.06628911719997121
-0.1078960008507636 -0.024152169694406242 -0.08422395625077729 0.1492305227977138 -0.05354154446847623 0.07602446147031254 0.10885053059613661 0.06744355273619752
-0.025931578469432923 0.07442996011804208 0.11874954200694747 0.09191337862159221 0.07223290300078697 -0.006637339168058843 -0.019518621037373923 -0.02212481460029644
0.026801343778552818 0.01611842546536277 0.009341992839045583 0.007654712013913545 -0.012744153910400858 0.015541358141809864 -0.07939457618586337 -0.007183685664476728
-0.023754366807555848 0.08099159855384386 0.012632512746391898 -0.041362275994969035 0.06328866620743111 -0.06452901464498019 -0.029839698026348067 0.10028547844487642
0.11867394751280672 0.06787575376024417 -0.046147460079831885 0.025814893496927505 0.028606849680836516 0.06570788151488999 0.08197778148020918 0.053189406936784096
-0.012030293341344698 0.08642121635975081 -0.0010888767395710432 0.044135249760465296 -0.01697350315073372 -0.02384871950387185 0.0010955688104736256 0.0030695934236361073
0.016413207737057383 -0.004357156416067314 0.04642214546046852 0.013277674803094974 0.004799464659230446 0.019298340370303493 -0.0003183348820227063 0.0033560336455383953
-0.04751858899244626 -0.031516380288016434 -0.002117510052404894 0.011969948730067063 -0.008010675493846724 0.09473113168568038 0.0950240377833767 0.009338081041353629
-0.017779922313829875 0.003224965588947223 0.002196776338636399 0.16432680459755578 0.01623775981199231 0.00928595603938107 0.0325513816227266 0.015902662757007784
0.01858481693664666 0.04825883099338683 0.129990926647409 0.10724256864403918 0.01747692985774779 -0.004578045294146917 -0.004856738426385419 0.07340883895498959
0.0014946062079677891 0.00021488923244593187 0.010456280699229048 0.02472242439453192 -0.05880316485620531 0.03646170128669764 0.026656567416658745 0.03842618348406434
0.0018370521514011662 -0.018871102303184728 0.013855021202328488 0.02811551076195349 -0.032621979048654486 -0.005027318191759619 0.012534368748206652 -0.05003692655537739
0.004760944290685286 -0.04721743102719294 0.09678454024768532 -0.02357030727518931 0.01856279923508786 0.05143368557576324 0.020430742462719687 0.14112973858438976
0.08291663812967355 -0.06051398576415387 0.006520763244946721 -0.0787909991951361 0.026642418779861014 0.07894064124440509 -0.08132091259765838 0.0964820053324667
-0.04866336975185026 -0.08434036810282741 -0.10315558342667186 6.984129792245032e-05 -0.007556551717846659 0.11361508160818642 0.11697474745215368 0.11002044230206141
0.024079138711873355 0.0588294728941236 0.044206651346511854 -0.0763299128107291 0.028542792666190874 -0.003885052896076333 -0.10747109649670543 0.09576224573949906
-0.0794423868947252 -0.07732818483347786 0.06332303032994777 0.10559000316947106 -0.11509632990935867 -0.015404319779866837 0.10202000818377403 0.03254657308088553
-0.04210971091379645 0.02007224990288687 -0.059683083799861196 -0.04027789942007565 -0.004794000117053514 -0.10236146455305078 0.08675612481679626 0.06995984516325808
0.023288250572783657 0.060172751776479655 -0.11920333048499072 -0.03308104749755558 -0.06712351829950748 0.08578956719673392 -0.0661993524048776 -0.05869427144082742
0.12800395259492334 -0.058982544477304194 0.06579870040767888 0.11035037127372806 -0.0477902730682191 0.0027833464123088445 -0.014859390901652163 -0.037018423556559196
0.08235864806726954 -0.08643212017027031 -0.027773581519203214 -0.0682649934204786 -0.05869341781345047 0.061069551443127014 0.05881411403614713 -0.06128787437081858
00000000: 885a 96f5 3d9e 7abf 37b9 5997 cb38 76bf
00000010: cf7a 17f5 6f46 aa3f dcc8 3bd8 9d9f 92bf
00000020: 9877 ab24 4988 84bf b4a6 7c25 b679 a9bf
00000030: 0e1f 3ee0 d2d9 ae3f 3b25 4804 7d58 b53f
00000040: 3847 c415 35b0 753f 16eb 94b5 3ef6 bd3f
00000050: 2a08 e74a ef6b 7b3f 84e8 bf56 e8a6 bc3f
00000060: f929 97e2 2aef 78bf 2f38 e9c8 afde a1bf
00000070: b1bd f1f8 6eb5 a73f 7569 1744 48f7 913f
00000080: f272 e847 06f4 a33f 02aa 3e9a c956 ab3f
00000090: 8758 2a40 6198 a9bf fd9c 2a71 a29e ba3f
000000a0: 71ae c9b1 df9d 87bf 6c8a 9eaf 09b9 953f
000000b0: d8cb 2a2f 35a1 93bf d85f 74d6 52f8 b0bf
000000c0: 9bf1 0583 129f bbbf 3c13 dcab 58bb 98bf
000000d0: d906 a381 b38f b5bf c196 7d5b fc19 c33f
000000e0: cd59 f01c cc69 abbf 6304 b6cf 5676 b33f
000000f0: 1a0a 10dd a0dd bb3f 19f9 530d fb43 b13f
00000100: b9e8 d6c5 ce8d 9abf f3b0 8c84 d70d b33f
00000110: 9bb6 55b7 5e66 be3f 609e 3e9b a287 b73f
00000120: 9661 1504 db7d b23f 6761 8c2a c12f 7bbf
00000130: c8fb 127c b0fc 93bf 17a8 8d2c e3a7 96bf
00000140: c229 12bc cf71 9b3f b96d f238 5981 903f
00000150: c40b c90d e521 833f 8031 291c 8c5a 7f3f
00000160: c738 1562 9b19 8abf 2acf a2c7 25d4 8f3f
00000170: 4cb4 32f4 3353 b4bf 2b14 e6ef a36c 7dbf
00000180: a674 4d92 1053 98bf 001e 0a8b ddbb b43f
00000190: cc7d e528 13df 893f 457f 5fad 6f2d a5bf
000001a0: 2781 919f af33 b03f 6115 8b37 f984 b0bf
000001b0: 522d 953c 4c8e 9ebf 9638 2f22 4fac b93f
000001c0: e268 7473 6a61 be3f f372 972e 4e60 b13f
000001d0: 3735 accf a3a0 a7bf f0ae 462d 386f 9a3f
000001e0: c87a 482f 1d4b 9d3f 3426 3252 3bd2 b03f
000001f0: 20c5 74f2 7efc b43f d101 9356 a43b ab3f
00000200: dfea b2a3 56a3 88bf 6c17 f269 b31f b63f
00000210: 34e2 177f 14d7 51bf e9db a43c e598 a63f
00000220: 154c b983 8061 91bf 304d 4879 cc6b 98bf
00000230: 083f 890d 26f3 513f ffa4 ba6b 6725 693f
00000240: 8bfd cfb9 9fce 903f b913 f844 cfd8 71bf
00000250: 2030 20b9 a4c4 a73f 93a6 5e58 5331 8b3f
00000260: 1ac8 fe7b 9aa8 733f f4b5 07b3 f1c2 933f
00000270: db87 4fe8 c5dc 34bf 2143 0fd8 1c7e 6b3f
00000280: 1768 5943 5b54 a8bf 352b 403d ea22 a0bf
00000290: eca7 918d bd58 61bf fcba a452 b383 883f
000002a0: 0999 1eaa e667 80bf f9c8 80a8 4c40 b83f
000002b0: 740c 9dce 7e53 b83f d9a9 7005 d81f 833f
000002c0: 260a 7463 e634 92bf c532 8737 3e6b 6a3f
000002d0: 6b86 fe50 f9fe 613f c424 cd25 a908 c53f
000002e0: 0c47 699d a1a0 903f b287 02ec 8304 833f
000002f0: 4ab9 041f 93aa a03f bbb8 d7a1 c948 903f
00000300: b2b9 c7f3 e507 933f 1536 b8a9 61b5 a83f
00000310: 051a 5ded 8aa3 c03f dbaf 10bd 3f74 bb3f
00000320: 50ad b1e8 78e5 913f 4f65 16ad 6dc0 72bf
00000330: 5809 4ecb a8e4 73bf fe8b 8cf2 ebca b23f
00000340: 76d5 2632 d57c 583f c82d 8473 7c2a 2c3f
00000350: a0bc 203d 1a6a 853f 4e67 02d1 d550 993f
00000360: 83da eacb 721b aebf 3a70 2aad 1bab a23f
00000370: 35d8 1cf5 db4b 9b3f cf90 bfc2 98ac a33f
00000380: d7f9 52ba 2719 5e3f 5035 ed3c f252 93bf
00000390: 7358 9877 0560 8c3f 3a84 eefc 4fca 9c3f
000003a0: 0f1f 4afa d3b3 a0bf 89e9 8573 8697 74bf
000003b0: efe1 cb7e 9eab 893f 509f 4ba6 709e a9bf
000003c0: f2d5 6c40 3680 733f 4738 2014 e22c a8bf
000003d0: c648 1f23 dfc6 b83f ab4b 9d8b d022 98bf
000003e0: c133 8c5e 2002 933f 53da eb1a 8455 aa3f
000003f0: bd6d d7ea cbeb 943f 0a43 db0d 8a10 c23f
00000400: c1ab 0f59 063a b53f 5c84 9d6b b0fb aebf
00000410: 47b1 1c0e 84b5 7a3f 4024 c39c a52b b4bf
00000420: b123 6275 2648 9b3f 2c51 7830 7435 b43f
00000430: 2f7b 1684 72d1 b4bf 7431 8e71 0bb3 b83f
00000440: 30d8 31bb 67ea a8bf 80f7 bb92 5497 b5bf
00000450: 98a4 3781 6768 babf 9fa7 a85c f84e 123f
00000460: 189c fa67 9ef3 7ebf 8eeb d6c3 e015 bd3f
00000470: d3cd c39a 0ef2 bd3f cf2c 94b9 4c2a bc3f
00000480: d524 22a5 33a8 983f 380b 3e8c e51e ae3f
00000490: 070f 9913 41a2 a63f 6086 3a6f 5b8a b3bf
000004a0: a3b4 2664 523a 9d3f 1458 38e4 8bd3 6fbf
000004b0: d3f6 b7cc 3983 bbbf 9d85 a4e1 df83 b83f
000004c0: b307 a115 5656 b4bf 7c38 eba8 c7cb b3bf
000004d0: 36ca 5928 f035 b03f f6bc 654a f207 bb3f
000004e0: b6ae d9fc f376 bdbf 208c 5fcd 4c8c 8fbf
000004f0: bbdc afb6 fb1d ba3f d663 f5c5 f1a9 a03f
00000500: a002 706e 678f a5bf 3266 8fe3 d18d 943f
00000510: 1ff4 16fa c78e aebf e087 8509 4e9f a4bf
00000520: 5228 849b dfa2 73bf 9c42 a066 5c34 babf
00000530: 7eda d03e a635 b63f 2b69 026f e3e8 b13f
00000540: ce58 5d0a e0d8 973f 6409 fb81 f6ce ae3f
00000550: 65df 0106 1c84 bebf 2025 3dc2 ffef a0bf
00000560: 298b e3c3 012f b1bf f0ad 7219 4ef6 b53f
00000570: 6f67 98d5 70f2 b0bf a40f 9af0 2c0d aebf
00000580: fbb3 13fb 6e62 c03f dc38 21c7 f532 aebf
00000590: d8ca 5e02 2fd8 b03f d9dc b803 ec3f bc3f
000005a0: b931 ca77 f777 a8bf 3dca 0eba 19cd 663f
000005b0: 9c48 b0af 996e 8ebf 66bf 0c2d 14f4 a2bf
000005c0: cfdf fdd3 7415 b53f 758b 7459 6a20 b6bf
000005d0: ec64 4581 ad70 9cbf 4dde 338a d079 b1bf
000005e0: 8c9b ff4b 100d aebf c590 751c 8244 af3f
000005f0: c22c a830 e21c ae3f 8bc7 20d0 1f61 afbf

gru1.bias_hh_l0 f8 [192]
-0.08828489636295882 -0.047338769286693255 0.030324754922525395 0.006360758209654432 0.04078728024626707 0.019071753966498153 -0.05960596870317204 0.07394753396301622
-0.03918533292828913 -0.08485709463528684 0.08606610054216421 0.00754168880765218 0.09818230072318437 -0.0010220908755245387 0.003861468636766434 0.03262401712117878
0.09018891739242389 0.055931760571092316 -0.08166430458874088 -0.07465280928059445 0.005117219408991575 0.09600097780273036 -0.03437930440956592 0.053006207944991814
-0.040624946318610064 0.012084418723155627 0.052389029473135576 0.1192302140441792 -0.05706233060453148 0.007301099261641874 0.10192989914450555 -0.0725066817106063
0.06156220647137919 -0.03302371953886482 0.10018493784708637 -0.022518428195429614 0.026181092076285165 -0.04311752834467352 0.024521662674596087 -0.05276006698253593
0.07226489503951095 0.049041622426617124 -0.09075077966683194 -0.024266334729589306 -0.08716168552921023 0.03170630976920812 0.0028696182066593637 0.010261562195363604
0.038531024325375814 -0.001158908802712027 0.08413819198967837 -0.015507582731544645 0.04094524378168083 0.05967540474466344 -0.0454201874148333 0.11556019892709625
0.038023403688487716 0.06647377878759667 0.11756076909736803 -0.05733841747849472 0.11662987042813901 0.11400397494113429 0.08669631977616317 0.003871430736867637
-0.01459913685859141 0.08675885953229855 -0.00045846019801891994 0.02878120837529987 -0.010488093189063321 -0.014337780376686534 -0.000634648438526465 0.0014224295696043563
0.013813404797544608 -0.001247208632883141 0.04797033266930129 0.003145075596670525 0.005407391186523738 0.009691853430288652 0.003861260691517327 0.00477316920838286
-0.0501672559411679 -0.031675869235686285 -0.00022692171008381796 0.01184991493317523 -0.006210813008632247 0.1043122430380558 0.12275382548578333 0.00622559758066251
-0.017721733160999602 0.007639061096534292 0.00625380699403286 0.16547329826286863 0.016483913029415962 0.009416034740552102 0.039016460127563386 0.018075013638324318
0.017521413404746226 0.04337278204202988 0.17242360511727606 0.1834489167036756 0.018618241311506984 -0.004213168035138575 -0.004157003181747562 0.07398295778945013
0.009125571566839219 0.011574377771645796 0.011285249183169681 0.05807217735240328 -0.06146831622986476 0.023783509171902664 0.029682471794028827 0.013280354108678437
0.0034269977466362795 -0.015877602143133322 0.024515069800192916 0.027646462744619515 -0.03184977029917184 -0.012618374228089927 0.025875555804842992 -0.051867125408544774
-0.005174814763227195 -0.04544576575335183 0.09518428122682707 -0.02451101082799582 -0.000729990909928834 0.042389118029455344 0.016897960030399825 0.0923623796005833
0.10103399739839661 0.00830389138257145 -0.02748999066416549 -0.033190487501269655 -0.08506763256797567 -0.1221931781090998 0.025820288454403855 0.040242569018859954
0.0005814304504989573 -0.08119994004450769 0.08253312342516692 -0.09994591234844256 0.04865818547274466 0.058716931356969405 0.0692546058236796 -0.006580257640451297
-0.07650993814947195 0.013812141830180131 0.08326780623676693 -0.10191880663977325 -0.021814511407344882 0.04786788202282494 0.06101344516472865 -0.02067800052253347
-0.10715612722739314 -0.06417928672142424 -0.04117895042675302 -0.12953520646265235 -0.040448274568527294 -0.03329900028188871 0.05040266057274822 0.03809473610634936
-0.07458242797389493 0.08775431812865618 -0.08821073914618921 -0.05368570326815358 0.13264703578480558 0.010194063869917233 -0.03167515397170483 0.10772767673934602
0.06744132018841441 0.05674474071797529 0.018984829422428445 0.09998708105703656 -0.037772903239317104 -0.06854992303298325 0.03883962932437987 0.02564215298875505
0.0294332262054798 0.08630909593911917 -0.06702124383777343 0.05956590173596135 0.012930583868303558 0.0615791253153392 -0.10696220140804766 0.02543448195185854
0.09942726076876421 -0.09551510251684547 0.06177030764683607 -0.1252220091845384 0.052327142330693514 0.12964264145089252 0.09737981574424939 0.0643027012911389
00000000: 8312 9cc6 d699 b6bf 34a6 d683 c93c a8bf
00000010: bf18 9bda 730d 9f3f 86c9 cf07 bd0d 7a3f
00000020: 0c42 8005 12e2 a43f b7fd 40be 8b87 933f
00000030: e1fa 736c ac84 aebf 6fb2 fdbf 39ee b23f
00000040: f8da d196 1910 a4bf 4cc9 4ace 31b9 b5bf
00000050: a672 1f8f 6d08 b63f 994e 91ac 08e4 7e3f
00000060: f2f0 a6aa 7922 b93f 631c 92b8 f5be 50bf
00000070: 5758 4d30 16a2 6f3f aeff 325d 18b4 a03f
00000080: cb7f a9f2 9e16 b73f 65cc eb74 16a3 ac3f
00000090: c28f 75ad f3e7 b4bf 5e28 6a4e 721c b3bf
000000a0: 8713 2120 cbf5 743f bbf7 0b24 8593 b83f
000000b0: 3e56 3208 2a9a a1bf 85a9 3733 a123 ab3f
000000c0: d62c aeff cacc a4bf 5d30 a839 b7bf 883f
000000d0: 6a39 8320 bcd2 aa3f dfcb 030e df85 be3f
000000e0: 815c 8f17 4637 adbf 598d dbe8 c1e7 7d3f
000000f0: 376b 4fef 1318 ba3f db43 b042 cc8f b2bf
00000100: 1ba8 edde 1485 af3f 6cca d226 7ce8 a0bf
00000110: 28e3 9a57 b8a5 b93f 8574 a022 120f 97bf
00000120: a1ff f658 37cf 9a3f 0fdc 3f2c 8013 a6bf
00000130: fc79 ecec 341c 993f e713 7314 5e03 abbf
00000140: 58f4 d7c0 f37f b23f ae21 eec8 fb1b a93f
00000150: 656b c16e 713b b7bf 88c0 3a28 46d9 98bf
00000160: f9eb cf6c 3a50 b6bf 6739 1237 cf3b a03f
00000170: 67fd 2f8b 0682 673f 5997 4790 0304 853f
00000180: c1bd b7a2 56ba a33f 1749 07da d0fc 52bf
00000190: 6cb3 f09e 148a b53f cd40 6085 70c2 8fbf
000001a0: 7d29 f065 c6f6 a43f 3afe 814f c68d ae3f
000001b0: abbf 0c97 5041 a7bf 3173 1c6b 5a95 bd3f
000001c0: e739 a6b6 cd77 a33f 122c eff1 6c04 b13f
000001d0: 79d8 906a 7618 be3f 58c2 bf07 765b adbf
000001e0: 41bf 3987 74db bd3f fc75 fc4f 5d2f bd3f
000001f0: 1d47 1fe2 ba31 b63f 8d17 ea8c fab6 6f3f
00000200: 931d dcfa 26e6 8dbf cf58 5420 d435 b63f
00000210: 6323 988e af0b 3ebf 4658 d832 d278 9d3f
00000220: 4e96 f409 c87a 85bf be52 854e 205d 8dbf
00000230: 70d8 da24 d1cb 44bf d13b de1e 1a4e 573f
00000240: dc9d d0ce 334a 8c3f 1e87 8712 2c6f 54bf
00000250: 015c fc43 918f a83f d5c2 989a b3c3 693f
00000260: d042 d884 0f26 763f b86c 2a8c 52d9 833f
00000270: 8e53 868c a6a1 6f3f 6059 5fda 078d 733f
00000280: 82db 31c7 85af a9bf 2a19 e1cc d137 a0bf
00000290: 44f8 a9a5 3abe 2dbf 0576 c9a8 c444 883f
000002a0: 04f0 0e6c 8270 79bf 0bbd 6b08 35b4 ba3f
000002b0: cb9a eb71 cb6c bf3f 57ae 1c20 0380 793f
000002c0: 4b73 6b61 a525 92bf 4ae4 4ed9 224a 7f3f
000002d0: 64e5 3c88 979d 793f 313c 33a2 3a2e c53f
000002e0: 595d 7cad 28e1 903f 0c3d 26ca b648 833f
000002f0: 49d4 8128 f7f9 a33f 8230 cea1 4182 923f
00000300: e15a 3626 22f1 913f 7069 d010 f534 a63f
00000310: 50c0 8408 fa11 c63f 154d dd0c 417b c73f
00000320: 35f7 2a06 a910 933f 5f8b c6ae d341 71bf
00000330: 4988 700b ef06 71bf ecc2 2a10 8cf0 b23f
00000340: f3bb 7e7b 6db0 823f ae92 01b0 4eb4 873f
00000350: 16f5 5981 b81c 873f 9979 12ed a2bb ad3f
00000360: d818 e56f c678 afbf e74b 4f48 b45a 983f
00000370: dfab 7af6 1465 9e3f 39cc 9bf4 ba32 8b3f
00000380: 5b3d d967 ef12 6c3f 0e4e c6d7 3742 90bf
00000390: a135 347c 7a1a 993f 3057 5ab5 5a4f 9c3f
000003a0: 46de a3f3 9c4e a0bf a24f 1b85 a9d7 89bf
000003b0: d85d ca27 1f7f 9a3f a105 bcee 538e aabf
000003c0: 5615 bcc2 2f32 75bf 45fd 4ddb aa44 a7bf
000003d0: ae65 f63e ff5d b83f 0bb3 9717 6a19 99bf
000003e0: c59a d18a 9beb 47bf 621c 49c7 06b4 a53f
000003f0: 8c79 cce6 b24d 913f f4e6 c397 0fa5 b73f
00000400: 2a3a 9c32 5ddd b93f ed68 576f a101 813f
00000410: 87d0 7a0b 5626 9cbf 6466 b6f4 57fe a0bf
00000420: 98dd d30b fec6 b5bf e8db c557 0d48 bfbf
00000430: fb96 f039 a270 9a3f 25a1 af8b ac9a a43f
00000440: b687 8862 640d 433f 77a6 edee 84c9 b4bf
00000450: 8ea4 f209 e420 b53f 23cb e728 0e96 b9bf
00000460: 2b87 93c6 b9e9 a83f 4da0 cc47 2510 ae3f
00000470: e02d 1c7b abba b13f 5202 d775 e6f3 7abf
00000480: 59c4 2bc2 2796 b3bf d731 964b 8a49 8c3f
00000490: 63b9 98f8 0951 b53f 077c 5dd5 5917 babf
000004a0: f682 4a14 8b56 96bf 2836 a297 2382 a83f
000004b0: c495 327f 273d af3f 2abc f61f 9d2c 95bf
000004c0: 93f6 017e 956e bbbf 6793 8cc1 0d6e b0bf
000004d0: 21a7 bb4a 6815 a5bf 8b06 b811 9c94 c0bf
000004e0: e124 e7e0 a2b5 a4bf 8181 660a 910c a1bf
000004f0: cf2a 95a5 60ce a93f 8bfa 733b 2781 a33f
00000500: 4110 0181 d517 b3bf ff02 7226 1177 b63f
00000510: 5cf3 c99f fa94 b6bf 6f55 9947 b17c abbf
00000520: dab4 4dfc 93fa c03f 251f 7a17 a0e0 843f
00000530: 1ff8 cecc b937 a0bf 8034 7880 0a94 bb3f
00000540: d7b9 9b98 d543 b13f 9e18 358b a50d ad3f
00000550: 4b37 f555 c270 933f d797 29db c098 b93f
00000560: 4af9 2c50 f856 a3bf 39ea 91dd 7c8c b1bf
00000570: ac54 79b3 c9e2 a33f a063 f1c1 ef41 9a3f
00000580: 968b df5f be23 9e3f 58e5 6758 5a18 b63f
00000590: 79a4 6be2 4d28 b1bf e44d d3ff 6b7f ae3f
000005a0: 6d0f a996 597b 8a3f 56fb b092 4c87 af3f
000005b0: b6aa f4f4 df61 bbbf ee1b b230 7f0b 9a3f
000005c0: 3a2c 55a1 1074 b93f 007d 9581 ad73 b8bf
000005d0: 7afe 6996 5ba0 af3f c0ef 1759 4607 c0bf
000005e0: 47c6 018a 9fca aa3f f36c 994c 2198 c03f
000005f0: 927c e933 e2ed b83f 9703 174f 2476 b03f
