model_path/data23/P23.pth (torch, 108013 bytes, 14 tensors)

fc1.weight f8 [64, 128]
00000000: d5b9 f6b6 8ebf b5bf de6d a4f2 b9a7 a6bf
00000010: 7f4c af66 86d5 933f 4269 1d94 17dd 9dbf
00000020: f5e1 4a09 2bef afbf f67a 2fbf bdfd b53f
00000030: 3ec8 7145 38dc b0bf 4987 64de 3262 6bbf
00000040: e6fe e84c 5073 8cbf 2ec7 1d70 6984 abbf
00000050: 5bbe 5f36 c68a ac3f f319 26c9 6427 b13f
00000060: af78 7597 a2b5 7d3f cca9 8ed8 59f2 a2bf
00000070: 256a 82d9 5571 74bf 534d e050 0f51 723f
00000080: 4f31 d978 e0a3 71bf b962 af9a 4078 b03f
00000090: d898 7bc5 2d7b 9bbf 2f36 bd5f 62df b03f
000000a0: 25e1 5fa8 f202 9cbf eecb d91a 70cd aebf
000000b0: 42a0 d452 11d3 a2bf c3b9 1f16 dc22 b03f
000000c0: 7c02 c705 96a5 a83f d15f 3cba e457 9f3f
000000d0: 3948 3ecb a609 b33f fcea 742a 917f a73f
000000e0: 1014 ee5f 5e75 b13f ee64 cad4 3b01 903f
000000f0: 68d8 de7e b91e a7bf 0b65 cf6c 5537 a13f
00000100: e26b d830 3c11 b23f 271b 69c8 e2fa a73f
00000110: e2b0 178e a6be a63f 5914 06d1 d457 b13f
00000120: a87f 5362 5841 9dbf 0e50 bf28 0191 b4bf
00000130: 08fb 5023 940a 9e3f e1d2 e4ee d0bf a53f
00000140: fee2 7d71 716b ac3f 9191 2cd4 acdd 9bbf
00000150: db2a 09a3 05e8 a93f 4b61 868b d5d5 af3f
00000160: 048b b702 225a af3f 0a06 c3b5 1f27 a73f
00000170: 15ad 5c29 419a 84bf 228c 47d3 e4de a6bf
00000180: 894f ddf4 a9c7 a73f ac8d d541 288d 7abf
00000190: be96 99fb 27cc 733f dda5 6b59 5f7c b5bf
000001a0: 7f90 26fa 9ce6 a5bf 678b de35 4452 b03f
000001b0: 9fe0 7423 6bfa 8bbf a0db ff93 c3cb aabf
000001c0: b163 4819 e049 a6bf 78f9 9b2c 710f 993f
000001d0: 1591 f672 831e 8d3f c108 a7a0 3957 a1bf
000001e0: 8e94 ce44 102b 98bf 342e 5899 6fae b13f
000001f0: 8989 22fe 5312 b2bf 8ba0 1c41 68ae 7a3f
00000200: a0f2 f7ec 4995 b4bf 17c7 4782 eb8a a8bf
00000210: 9859 d31d 7d8e 83bf 180a 5eaf 5c87 b3bf
00000220: 67e3 779c a557 a6bf 9245 0d72 fc5d b13f
00000230: 6f65 56d8 1803 5c3f 87a5 0304 59c6 643f
00000240: eedd f7b0 a305 a03f 34ad 3baf c0c1 a33f
00000250: ca23 3b2c e226 b3bf 91df 5b2e 8604 8c3f
00000260: 112b 7789 b63f b2bf d941 887f eda9 923f
00000270: 70f0 c453 7b1e 86bf ef10 55d7 6f4e b03f
00000280: f1ab 1bec b68b 9d3f c61d 365d 6835 82bf
00000290: 2222 ec13 985f adbf 5ce2 4889 5ffa a53f
000002a0: d31d b2b0 5f95 afbf 44ea 2cb7 8a76 973f
000002b0: 3b28 6beb e210 b63f efd8 a81a 8c9b adbf
000002c0: ce86 6d08 acc3 b6bf eeea 32e8 0df5 93bf
000002d0: dec2 b5b5 bd3a a13f 94d7 3aa9 c312 a7bf
000002e0: 03e0 4b1c 8d7e 793f 92a5 c6fc 5aa2 78bf
000002f0: 271a 2f9a 0afc a4bf 0914 4083 d2cb 813f
00000300: 6544 9746 2430 a93f d9fa 77c3 7b7f acbf
00000310: 1819 338c 233a b1bf 5c10 6455 a0d3 a9bf
00000320: 7ed3 ceea 4cf6 b1bf 3593 8347 c2b0 b13f
00000330: f1f2 a6eb 347a 88bf 3be3 1e12 8437 aebf
00000340: fedd a3bf 76ee 9d3f 37ce fa8a b995 a73f
00000350: d27b 1078 56f0 9d3f c270 2c38 ac46 ab3f
00000360: e771 e76c 6815 a8bf 18f7 dfcd 6fbf a83f
00000370: edbd 6ec5 0e6f 7ebf f309 ef5d a3ec abbf
00000380: 8121 aeca 2115 963f df60 1c5b ee91 a13f
00000390: 51c5 d46f 3589 b03f 69c3 a2c5 41fe a63f
000003a0: d647 262b be8d b3bf f06b a054 0cb2 b13f
000003b0: 6bcc 2fba cb5a b4bf ba53 3062 d3c0 8bbf
000003c0: e651 c69b 3710 913f 05b9 b809 0ce1 923f
000003d0: d2c5 9044 0ffc 713f 56d1 34e0 505b 983f
000003e0: fa3f 1484 0a83 ac3f 5762 a781 817d 883f
000003f0: 9b81 5420 8fc2 a33f 0a4c 654c 416d b23f
00000400: bc10 5183 ce46 60bf b26a 4c37 5268 90bf
00000410: 07bc 4a87 d625 99bf f593 955f d658 a93f
00000420: 8742 9952 9e8e 993f 3ba3 2b2e 0f76 933f
00000430: 02f2 859e f59f 6fbf c5a6 1976 65d4 a83f
00000440: 6321 dfc9 2869 aabf 9f74 d5f1 a5a6 a0bf
00000450: f22a c05c 2ebc 7c3f 0b65 9c3c 80cd 78bf
00000460: 0bfd 9037 c926 b2bf 2342 1292 3cac ab3f
00000470: 7188 12c9 ab32 a83f e483 6a80 2881 b33f
00000480: 0c0f a1d2 77db 9a3f ff60 fe97 e464 a0bf
00000490: 5224 a41a dfb2 7f3f 6033 6178 4f34 55bf
000004a0: 22b2 b80e 2b97 ae3f d1bd 797b e2e3 913f
000004b0: 78a1 a237 501b a13f 1ef5 6113 950e a4bf
000004c0: 6145 5960 0804 a2bf b01f 4ca1 f9c4 b23f
000004d0: 4f1c 5897 9527 ab3f 63ba 35dd 1726 a83f
000004e0: 8918 5153 9773 90bf 497c 9882 3856 b63f
000004f0: f841 b8a8 702e 6e3f 4844 bf7b 3c26 af3f
00000500: c04e 2b37 1ce8 943f 8da1 8178 af4f 9cbf
00000510: 8e57 2366 cf66 953f ec04 314f dd57 a3bf
00000520: a564 14bc 92ed a33f 9a88 99b0 0fdc a33f
00000530: fef5 4bfc ffff aebf e087 6eb0 f268 66bf
00000540: 0a80 26b5 b649 b2bf 0653 a884 3398 b03f
00000550: 887f 54e1 6edf b03f 98dc a719 ec4d 8ebf
00000560: 684c c0b9 5050 b03f 64eb 3710 be3a 943f
00000570: 7d80 9163 2043 a4bf 8c7f 4615 bc97 973f
00000580: 9f04 233a 8e24 adbf 664d ad3b 3c07 acbf
00000590: 01d9 4652 ef46 b53f 8af9 3be3 534a b0bf
000005a0: ed4d 8b7b b586 b23f f99f 9e23 116c 9f3f
000005b0: 3a97 195e e626 a43f 17f9 c7c4 21bf a8bf
000005c0: 5acb c948 9dbd 8dbf b2df 292f 315c 8cbf
000005d0: 8632 6aa5 2805 70bf 59ec 80e7 2a59 8c3f
000005e0: 1a00 e152 55e8 8c3f c9fd 8c31 9da0 a13f
000005f0: b962 6e7a f733 b0bf 35d0 08e0 bf56 a63f
00000600: 6d04 a7c2 4b86 a93f 0482 956f 1f6b a2bf
00000610: f0f1 bb72 7c85 a0bf e031 0b84 b856 a2bf
00000620: ab5c d955 4d3a 88bf 373c 56c6 36b5 7b3f
00000630: fa8d 2dc5 26c3 b23f 9c78 1c14 0055 663f
00000640: 9644 72cf 955d b13f aee4 4b8d af2d b3bf
00000650: bfff 6283 1955 b0bf 2147 8231 fd1d 943f
00000660: 9d33 0444 c7c1 793f 21db 98d6 b507 8abf
00000670: 7d5c a4f5 9922 813f e732 bd06 4741 993f
00000680: 2baa 9cb8 456d ac3f 1d47 1075 cee6 b1bf
00000690: d38f 538e 4b9d b2bf f22d b779 09e5 4ebf
000006a0: 1530 e000 efd8 aabf 7486 c8df 297a 9fbf
000006b0: f576 546c bc88 95bf 8c4f cd45 6a38 a33f
000006c0: d0d9 f364 9697 b4bf 63c2 3990 5407 a13f
000006d0: 3fd8 1d44 9c3f aebf 0bec 2e34 dfd2 99bf
000006e0: 1f47 6f1e 7612 b3bf 5de8 1a02 5b2d 953f
000006f0: 50bc 86cc db3c b3bf ca54 a837 5b6c b03f
00000700: 1f30 9092 4a79 aebf fabd c51a eeb9 abbf
00000710: 9769 9941 f8cd 873f 9dd5 a802 9660 b4bf
00000720: 877e 29eb df53 99bf 74be 7657 74e8 a33f
00000730: 94aa e55c 1be3 b6bf c145 abbe 56ef a93f
00000740: 0953 d026 e8ee ab3f 644f 39e7 89a4 a43f
00000750: 9166 8401 8fba b03f 077c 1056 43d1 a2bf
00000760: 009f ec13 cd05 af3f 2aec 14cc 903a 823f
00000770: c203 92b2 94e2 943f 2fc0 e181 1b8d b2bf
00000780: ee36 f1db 4930 b03f 9eb1 2aa1 7f54 a13f
00000790: 0b97 0df9 e0cc a23f 1415 fe4d d856 b1bf
000007a0: e637 5523 3c96 96bf f954 b454 dc9a b43f
000007b0: d8f7 abd1 e90b b5bf 47ec 283f a5f9 a9bf
000007c0: 1ddb 2ee1 3759 a1bf 6681 1ba8 b352 a83f
000007d0: ca5a e1ca 6229 983f 97cf d35e edb4 a4bf
000007e0: 3aa8 508f 0c31 a9bf 44b2 0eab e989 9cbf
000007f0: 5de3 5357 0f86 613f 2a45 c232 8445 b3bf
-0.08495418517006866 -0.044248400563642085 0.01936922075021785 -0.029163711943831723 -0.062371582874622 0.08590303342451108 -0.06586028762265614 -0.0033427232293811488
-0.01389181837760085 -0.05374459737403324 0.05574626363511178 0.0670073500715274 0.007253298877314559 -0.03700524109384026 -0.004990897512608093 0.004471835925886697
-0.004306675762176872 0.06433490540019705 -0.026837077310937513 0.06590857350712363 -0.027354995276227662 -0.060161116864854466 -0.036766568528321844 0.06303191700110404
0.04813832111859015 0.030608724467214025 0.07436602079386113 0.04589513438482659 0.06819715349236355 0.0156297062518193 -0.0451562850352481 0.03362528756378865
0.07057548706545405 0.04683598228853319 0.04442329868820295 0.06774644950026366 -0.02856958484778685 -0.08033759350593092 0.029337229400193926 0.04247906604942898
0.055507226089451564 -0.02721281094558631 0.05059831252272825 0.062178300172663535 0.06123453410307003 0.04522036641857248 -0.010059842180985027 -0.04466929511161079
0.046445189610181244 -0.006482274298238815 0.004833370383129752 -0.08392902310483615 -0.04277506402584751 0.06375528636139692 -0.013661229152248487 -0.052335845772112366
-0.043532374464298036 0.024472969386800852 0.014218356080910636 -0.0338685997590047 -0.02360177440609284 0.06906793111573323 -0.07059216455903629 0.006513983958747481
-0.08040296588292017 -0.04793487515770616 -0.009549119446472784 -0.07628421098164784 -0.04363744292272181 0.06784036430805987 0.001709722769510282 0.002535985811949973
0.03129302535301891 0.03858759059024877 -0.0748120649324299 0.013680504121552224 -0.07128468376246767 0.018226347836447807 -0.01080032681840512 0.06369685179840066
0.028853281174558935 -0.008890929550729686 -0.0573699497527438 0.042925820835482326 -0.06168650657587773 0.02291313879980296 0.08619516608737936 -0.0578273565810593
-0.08892321782834786 -0.01948949556092832 0.03365128367557245 -0.04506503525537578 0.006224204266565894 -0.0060142091937590725 -0.04098542339447802 0.008689541464272936
0.04919541703896683 -0.05566012154667072 -0.06729337857095563 -0.05044270555848193 -0.07016449673285582 0.06910337682672892 -0.011951840821774225 -0.05901730271529578
0.029229979941161936 0.046064184394165535 0.029237128332279934 0.05327356515610539 -0.0470383294047883 0.048335546380242345 -0.00743013162620752 -0.054539780823251414
0.021564987178437803 0.03431649076645881 0.06459363918545093 0.04490857636972729 -0.07638157418685351 0.069123049412539 -0.07951043410848661 -0.013551379617675486
0.01666342628739583 0.018436611264569986 0.004390773429848465 0.023785842594592786 0.0556872640828487 0.011958133477422068 0.03859374303488324 0.07197960009698093
-0.001986888261429424 -0.01602295362963941 -0.024558403022350486 0.04950590054321672 0.024958108703062833 0.019005047982236106 -0.003860454297124117 0.04849545542385906
-0.05158355201962441 -0.032521425028542376 0.0070154009845377775 -0.0060553559540264075 -0.07090432745552648 0.05404843600365818 0.047261589331598304 0.07618954787405091
0.02622782919958326 -0.03201975207702112 0.007738944530737051 -0.0012942100597854375 0.059747071787885866 0.017470873628949782 0.03341150931493336 -0.03917375432591029
-0.03518701721317075 0.07331810176776687 0.053036379551536166 0.04716562819782124 -0.01606594511056206 0.08725312412615084 0.0036842537281318553 0.06083859453759338
0.02041668020940679 -0.027647725801587298 0.020900002106678132 -0.03777972785656822 0.038921914538329085 0.038788309390626455 -0.060546874568881734 -0.002735589983289252
-0.07143728182427381 0.06482240666111858 0.06590931893560825 -0.014797062428426863 0.06372551474514554 0.019755334606070277 -0.039574634699193624 0.02303975944380414
-0.056919521900917085 -0.05474270084837478 0.08311362990102468 -0.0636341504832442 0.07236799493994513 0.030685680197763052 0.03935928248101424 -0.04833322074044782
-0.014521817001172433 -0.013847717525308532 -0.003911169790296603 0.013841948690347093 0.01411501559425692 0.03442851285808108 -0.0632929490951807 0.04363059625430347
0.04985272170188968 -0.0359735320769268 -0.032268418317446534 -0.035817876928920134 -0.011829952413945874 0.006764615978126768 0.07329027475275743 0.002726078179775616
0.06783424677475333 -0.07491585921879348 -0.06379851777728528 0.019645649096282306 0.00628831709060487 -0.01271001874111516 0.00836677819147113 0.02466307619697519
0.05552118185581308 -0.0699280772971886 -0.07271263336912108 -0.000942830683408001 -0.05243632207574948 -0.030739454539917735 -0.021029419052061866 0.03753978826594481
-0.08043804134999921 0.03325905094687156 -0.05907905894757492 -0.025218474922194683 -0.07450044863733439 0.020680830005155183 -0.07514737838094843 0.0641533862002063
-0.059519129172344025 -0.05415290905773058 0.011623324872904557 -0.07959878506593161 -0.024734019020228117 0.03888286178277847 -0.08940287607189595 0.050654135489490944
0.054557089555748624 0.04031783053929308 0.06534665858307621 -0.03675280023184518 0.06059113376823966 0.00890076754386911 0.020395587348051476 -0.07246562882369355
0.06323682422336294 0.03384779779784995 0.036719351198185 -0.06773139862169258 -0.022057475716159923 0.08048798625926058 -0.0822130333799288 -0.0507327689742501
-0.033883806455767586 0.047505964537552 0.02359537471087484 -0.04044286520539158 -0.04920233964396954 -0.02786984545280037 0.002139120066769014 -0.07527948607664273

fc1.bias f8 [64]
00000000: 74f3 ad6c 9aec 95bf 05c2 b39e 7202 b0bf
00000010: 5f89 820d b272 81bf 317f 8569 981a 94bf
00000020: c754 e707 9ebe b3bf b46c ca09 11c8 b03f
00000030: 84ee 4022 d1e1 75bf adbc 5e79 b695 61bf
00000040: 0ac4 2e88 09d2 ac3f 0309 b76c 1f72 ad3f
00000050: 7015 202b fc38 9e3f 126c 6302 f1bb acbf
00000060: 8fd2 db43 eca6 80bf 5b4f 6a3d f367 6f3f
00000070: aeec 9f88 ada7 853f e259 bd4a 7802 5d3f
00000080: 3150 66eb f7f1 a63f 5bb8 9571 37ba 3fbf
00000090: 3d2d 7b6f 03d9 953f 84af 410b e072 813f
000000a0: a013 b03e c53d 9b3f 0ca7 f1a2 6ce0 8a3f
000000b0: d50e c786 e1ef 763f f761 cb1e 7d28 5ebf
000000c0: 3500 5a43 ab8c 83bf a526 93d4 b994 963f
000000d0: 6017 6977 507b b73f 958c 197e 4a4b 993f
000000e0: de07 ec3b 84d4 3cbe d444 26ef e66d 62be
000000f0: 8b43 a129 5c4a 4cbf 7d15 e118 3ee1 aa3f
00000100: 8ebf 60a7 3c89 b83f da56 cd3a f7e5 6b3f
00000110: 9041 6c92 c3e7 7dbf 436b 4992 968c ab3f
00000120: 473d d470 50dd 91bf 3d04 7aa7 1c02 b53f
00000130: ef0c 76e1 1940 d23e d9df 19cd 5a1e a4bf
00000140: bff5 5a5d b682 30bf 9c67 01b0 d715 973f
00000150: 3244 ae3f 84ae ac3f 1383 035e acbf ac3f
00000160: adc3 24e9 74f7 b63f f95e 36d8 f2da 26bf
00000170: fbaf 6e8f fc3a 2bbe 06ed 716e 8ad9 6fbf
00000180: baa9 d247 bd38 aa3f 05cf 2a41 cc04 1dbf
00000190: d6c5 7ba1 dd17 b1bf a3fd eb7d 870d 76bf
000001a0: ef8f 876c d817 b73f c042 3321 9f78 41bd
000001b0: fa57 a779 b86a ac3f 0aeb 2bd0 e42f 6bbf
000001c0: f2ab f28a e9a8 b63f 0ff8 94db db81 913f
000001d0: 67a2 6586 8f33 b1bf cc05 1c33 696d 81bf
000001e0: 77dc 4437 95b5 8abf 35b4 a0f9 4eb4 b73f
000001f0: 159c 0ac1 9f47 883f 68e8 ba4d 061c b23f
-0.021410382159490607 -0.06253734945835994 -0.008519545590676967 -0.019632703247565778 -0.07712733929595848 0.0655527733710411 -0.0053423089303198425 -0.002146583933572885
0.05628995692621437 0.05751131250464605 0.029514255649720267 -0.05612137941508179 -0.008130880185015314 0.003833746984421111 0.010573726398425212 0.0017706083990184297
0.04481482265978832 -0.0004841218338559377 0.02133565299918171 0.00851988825180406 0.026602823210868487 0.013123367998747713 0.005599862063210022 -0.0018407079580154953
-0.009545648568064372 0.02205171928361573 0.09172537722869611 0.0247012748208247 -6.712540688874544e-09 -3.4327255610198974e-08 -0.0008633565914896042 0.052499714409843336
0.09584406935095854 0.00340555464792201 -0.007301105454431314 0.05380697761275723 -0.0174458092561143 0.08206347550186961 4.351233222069124e-06 -0.039294087921859684
-0.0002519316889041077 0.02254426013710252 0.05601895596840513 0.05614985129955676 0.0897133893202084 -0.00017437185679790976 -3.1700376728642007e-09 -0.0038879111994539776
0.05121413709396756 -0.00011069771452803738 -0.06677041237323719 -0.005383996262707499 0.09020760202071164 -1.2414018702848243e-13 0.05550171360998486 -0.0033187359816769834
0.08851489679607008 0.017096934582916442 -0.06719300299813256 -0.008509466049420399 -0.01304165434758729 0.09259503931453213 0.01185536201349006 0.0707401218195699

bn1_fc.weight f8 [64]
00000000: 0000 0000 0000 f03f 0000 0000 0000 f03f
00000010: 0000 0000 0000 f03f 0000 0000 0000 f03f
00000020: 0000 0000 0000 f03f 0000 0000 0000 f03f
00000030: 0000 0000 0000 f03f 0000 0000 0000 f03f
00000040: 0000 0000 0000 f03f 0000 0000 0000 f03f
00000050: 0000 0000 0000 f03f 0000 0000 0000 f03f
00000060: 0000 0000 0000 f03f 0000 0000 0000 f03f
00000070: 0000 0000 0000 f03f 0000 0000 0000 f03f
00000080: 0000 0000 0000 f03f 0000 0000 0000 f03f
00000090: 0000 0000 0000 f03f 0000 0000 0000 f03f
000000a0: 0000 0000 0000 f03f 0000 0000 0000 f03f
000000b0: 0000 0000 0000 f03f 0000 0000 0000 f03f
000000c0: 0000 0000 0000 f03f 0000 0000 0000 f03f
000000d0: 0000 0000 0000 f03f 0000 0000 0000 f03f
000000e0: 0000 0000 0000 f03f 0000 0000 0000 f03f
000000f0: 0000 0000 0000 f03f 0000 0000 0000 f03f
00000100: 0000 0000 0000 f03f 0000 0000 0000 f03f
00000110: 0000 0000 0000 f03f 0000 0000 0000 f03f
00000120: 0000 0000 0000 f03f 0000 0000 0000 f03f
00000130: 0000 0000 0000 f03f 0000 0000 0000 f03f
00000140: 0000 0000 0000 f03f 0000 0000 0000 f03f
00000150: 0000 0000 0000 f03f 0000 0000 0000 f03f
00000160: 0000 0000 0000 f03f 0000 0000 0000 f03f
00000170: 0000 0000 0000 f03f 0000 0000 0000 f03f
00000180: 0000 0000 0000 f03f 0000 0000 0000 f03f
00000190: 0000 0000 0000 f03f 0000 0000 0000 f03f
000001a0: 0000 0000 0000 f03f 0000 0000 0000 f03f
000001b0: 0000 0000 0000 f03f 0000 0000 0000 f03f
000001c0: 0000 0000 0000 f03f 0000 0000 0000 f03f
000001d0: 0000 0000 0000 f03f 0000 0000 0000 f03f
000001e0: 0000 0000 0000 f03f 0000 0000 0000 f03f
000001f0: 0000 0000 0000 f03f 0000 0000 0000 f03f
1.0 1.0 1.0 1.0 1.0 1.0 1.0 1.0
1.0 1.0 1.0 1.0 1.0 1.0 1.0 1.0
1.0 1.0 1.0 1.0 1.0 1.0 1.0 1.0
1.0 1.0 1.0 1.0 1.0 1.0 1.0 1.0
1.0 1.0 1.0 1.0 1.0 1.0 1.0 1.0
1.0 1.0 1.0 1.0 1.0 1.0 1.0 1.0
1.0 1.0 1.0 1.0 1.0 1.0 1.0 1.0
1.0 1.0 1.0 1.0 1.0 1.0 1.0 1.0

bn1_fc.bias f8 [64]
00000000: 0000 0000 0000 0000 0000 0000 0000 0000
00000010: 0000 0000 0000 0000 0000 0000 0000 0000
00000020: 0000 0000 0000 0000 0000 0000 0000 0000
00000030: 0000 0000 0000 0000 0000 0000 0000 0000
00000040: 0000 0000 0000 0000 0000 0000 0000 0000
00000050: 0000 0000 0000 0000 0000 0000 0000 0000
00000060: 0000 0000 0000 0000 0000 0000 0000 0000
00000070: 0000 0000 0000 0000 0000 0000 0000 0000
00000080: 0000 0000 0000 0000 0000 0000 0000 0000
00000090: 0000 0000 0000 0000 0000 0000 0000 0000
000000a0: 0000 0000 0000 0000 0000 0000 0000 0000
000000b0: 0000 0000 0000 0000 0000 0000 0000 0000
000000c0: 0000 0000 0000 0000 0000 0000 0000 0000
000000d0: 0000 0000 0000 0000 0000 0000 0000 0000
000000e0: 0000 0000 0000 0000 0000 0000 0000 0000
000000f0: 0000 0000 0000 0000 0000 0000 0000 0000
00000100: 0000 0000 0000 0000 0000 0000 0000 0000
00000110: 0000 0000 0000 0000 0000 0000 0000 0000
00000120: 0000 0000 0000 0000 0000 0000 0000 0000
00000130: 0000 0000 0000 0000 0000 0000 0000 0000
00000140: 0000 0000 0000 0000 0000 0000 0000 0000
00000150: 0000 0000 0000 0000 0000 0000 0000 0000
00000160: 0000 0000 0000 0000 0000 0000 0000 0000
00000170: 0000 0000 0000 0000 0000 0000 0000 0000
00000180: 0000 0000 0000 0000 0000 0000 0000 0000
00000190: 0000 0000 0000 0000 0000 0000 0000 0000
000001a0: 0000 0000 0000 0000 0000 0000 0000 0000
000001b0: 0000 0000 0000 0000 0000 0000 0000 0000
000001c0: 0000 0000 0000 0000 0000 0000 0000 0000
000001d0: 0000 0000 0000 0000 0000 0000 0000 0000
000001e0: 0000 0000 0000 0000 0000 0000 0000 0000
000001f0: 0000 0000 0000 0000 0000 0000 0000 0000
0.0 0.0 0.0 0.0 0.0 0.0 0.0 0.0
0.0 0.0 0.0 0.0 0.0 0.0 0.0 0.0
0.0 0.0 0.0 0.0 0.0 0.0 0.0 0.0
0.0 0.0 0.0 0.0 0.0 0.0 0.0 0.0
0.0 0.0 0.0 0.0 0.0 0.0 0.0 0.0
0.0 0.0 0.0 0.0 0.0 0.0 0.0 0.0
0.0 0.0 0.0 0.0 0.0 0.0 0.0 0.0
0.0 0.0 0.0 0.0 0.0 0.0 0.0 0.0

bn1_fc.running_mean f8 [64]
00000000: 0000 0000 0000 0000 0000 0000 0000 0000
00000010: 0000 0000 0000 0000 0000 0000 0000 0000
00000020: 0000 0000 0000 0000 0000 0000 0000 0000
00000030: 0000 0000 0000 0000 0000 0000 0000 0000
00000040: 0000 0000 0000 0000 0000 0000 0000 0000
00000050: 0000 0000 0000 0000 0000 0000 0000 0000
00000060: 0000 0000 0000 0000 0000 0000 0000 0000
00000070: 0000 0000 0000 0000 0000 0000 0000 0000
00000080: 0000 0000 0000 0000 0000 0000 0000 0000
00000090: 0000 0000 0000 0000 0000 0000 0000 0000
000000a0: 0000 0000 0000 0000 0000 0000 0000 0000
000000b0: 0000 0000 0000 0000 0000 0000 0000 0000
000000c0: 0000 0000 0000 0000 0000 0000 0000 0000
000000d0: 0000 0000 0000 0000 0000 0000 0000 0000
000000e0: 0000 0000 0000 0000 0000 0000 0000 0000
000000f0: 0000 0000 0000 0000 0000 0000 0000 0000
00000100: 0000 0000 0000 0000 0000 0000 0000 0000
00000110: 0000 0000 0000 0000 0000 0000 0000 0000
00000120: 0000 0000 0000 0000 0000 0000 0000 0000
00000130: 0000 0000 0000 0000 0000 0000 0000 0000
00000140: 0000 0000 0000 0000 0000 0000 0000 0000
00000150: 0000 0000 0000 0000 0000 0000 0000 0000
00000160: 0000 0000 0000 0000 0000 0000 0000 0000
00000170: 0000 0000 0000 0000 0000 0000 0000 0000
00000180: 0000 0000 0000 0000 0000 0000 0000 0000
00000190: 0000 0000 0000 0000 0000 0000 0000 0000
000001a0: 0000 0000 0000 0000 0000 0000 0000 0000
000001b0: 0000 0000 0000 0000 0000 0000 0000 0000
000001c0: 0000 0000 0000 0000 0000 0000 0000 0000
000001d0: 0000 0000 0000 0000 0000 0000 0000 0000
000001e0: 0000 0000 0000 0000 0000 0000 0000 0000
000001f0: 0000 0000 0000 0000 0000 0000 0000 0000
0.0 0.0 0.0 0.0 0.0 0.0 0.0 0.0
0.0 0.0 0.0 0.0 0.0 0.0 0.0 0.0
0.0 0.0 0.0 0.0 0.0 0.0 0.0 0.0
0.0 0.0 0.0 0.0 0.0 0.0 0.0 0.0
0.0 0.0 0.0 0.0 0.0 0.0 0.0 0.0
0.0 0.0 0.0 0.0 0.0 0.0 0.0 0.0
0.0 0.0 0.0 0.0 0.0 0.0 0.0 0.0
0.0 0.0 0.0 0.0 0.0 0.0 0.0 0.0

bn1_fc.running_var f8 [64]
00000000: 0000 0000 0000 f03f 0000 0000 0000 f03f
00000010: 0000 0000 0000 f03f 0000 0000 0000 f03f
00000020: 0000 0000 0000 f03f 0000 0000 0000 f03f
00000030: 0000 0000 0000 f03f 0000 0000 0000 f03f
00000040: 0000 0000 0000 f03f 0000 0000 0000 f03f
00000050: 0000 0000 0000 f03f 0000 0000 0000 f03f
00000060: 0000 0000 0000 f03f 0000 0000 0000 f03f
00000070: 0000 0000 0000 f03f 0000 0000 0000 f03f
00000080: 0000 0000 0000 f03f 0000 0000 0000 f03f
00000090: 0000 0000 0000 f03f 0000 0000 0000 f03f
000000a0: 0000 0000 0000 f03f 0000 0000 0000 f03f
000000b0: 0000 0000 0000 f03f 0000 0000 0000 f03f
000000c0: 0000 0000 0000 f03f 0000 0000 0000 f03f
000000d0: 0000 0000 0000 f03f 0000 0000 0000 f03f
000000e0: 0000 0000 0000 f03f 0000 0000 0000 f03f
000000f0: 0000 0000 0000 f03f 0000 0000 0000 f03f
00000100: 0000 0000 0000 f03f 0000 0000 0000 f03f
00000110: 0000 0000 0000 f03f 0000 0000 0000 f03f
00000120: 0000 0000 0000 f03f 0000 0000 0000 f03f
00000130: 0000 0000 0000 f03f 0000 0000 0000 f03f
00000140: 0000 0000 0000 f03f 0000 0000 0000 f03f
00000150: 0000 0000 0000 f03f 0000 0000 0000 f03f
00000160: 0000 0000 0000 f03f 0000 0000 0000 f03f
00000170: 0000 0000 0000 f03f 0000 0000 0000 f03f
00000180: 0000 0000 0000 f03f 0000 0000 0000 f03f
00000190: 0000 0000 0000 f03f 0000 0000 0000 f03f
000001a0: 0000 0000 0000 f03f 0000 0000 0000 f03f
000001b0: 0000 0000 0000 f03f 0000 0000 0000 f03f
000001c0: 0000 0000 0000 f03f 0000 0000 0000 f03f
000001d0: 0000 0000 0000 f03f 0000 0000 0000 f03f
000001e0: 0000 0000 0000 f03f 0000 0000 0000 f03f
000001f0: 0000 0000 0000 f03f 0000 0000 0000 f03f
1.0 1.0 1.0 1.0 1.0 1.0 1.0 1.0
1.0 1.0 1.0 1.0 1.0 1.0 1.0 1.0
1.0 1.0 1.0 1.0 1.0 1.0 1.0 1.0
1.0 1.0 1.0 1.0 1.0 1.0 1.0 1.0
1.0 1.0 1.0 1.0 1.0 1.0 1.0 1.0
1.0 1.0 1.0 1.0 1.0 1.0 1.0 1.0
1.0 1.0 1.0 1.0 1.0 1.0 1.0 1.0
1.0 1.0 1.0 1.0 1.0 1.0 1.0 1.0

fc2.weight f8 [64, 64]
00000000: 5ed8 8d0d 7543 f23e de1e 25c5 ba59 22bf
00000010: c77f 6c19 d24b 833c 2ba3 5a9c c786 3d3c
00000020: b9f1 e045 0864 553d 026d 54c3 4caf 6cbd
00000030: d501 41ac d735 383c dd16 937e 6c2e 913b
00000040: eb68 4d25 a4cf 873e c452 ac0d 7e16 703c
00000050: c2fe 3af8 136a 0b3f 77da 51e2 fc0e 28be
00000060: f566 99ba a02a ed3b 0c6d fce6 67c0 c1bd
00000070: 4f20 3226 b82a 37bd 3f7c 335e 92dc 913e
00000080: ad99 f21c 45fd 163f 841e 6b39 b503 d03b
00000090: 1685 6559 0cb5 c13e bc76 efa4 f4bd c43b
000000a0: 9bac fff7 8e12 d93e e4b6 688d 3461 2e3f
000000b0: 533d e316 f401 7dbd 6189 a3df 5a68 cabb
000000c0: d536 d024 e859 18bf b5a6 0371 dbd8 e1be
000000d0: 26ae a195 5c62 36bf 4c6f d25d 2568 073c
000000e0: 2984 251b 245f a53b 8f6f 5a81 db2b afbc
000000f0: ee29 fc8c 0418 cf3c 9835 3b8d e597 00bf
00000100: 4de0 7c81 14d2 173f 9150 c203 c7f3 4b3c
00000110: 7d00 d123 589f ac3b b7e2 6b07 200c 37bf
00000120: 3b62 5f05 82e3 8cbd c0ca c7f7 da13 913e
00000130: 1933 e709 c223 d83b 89c1 1aef 20b3 38bf
00000140: 528a 4abd 6079 8ebb 309c 592f 6c47 773b
00000150: 3e46 5128 f5bb 133f 2509 0edb 3455 ff3e
00000160: 767d d116 bc75 8d3d c182 61d0 0899 873b
00000170: fc85 19d2 f659 643c d587 d74a 9024 023c
00000180: 783b 19a6 9c1f f7be bcf7 5b42 3d92 a5bc
00000190: 8a4b 9efb 690a aa3e 9892 09a1 4e6c 2b3f
000001a0: db66 c3cd 72c0 2cbf fee7 eb3c c929 abbb
000001b0: 633c e377 62e2 d43c d39a afd8 53ff 3e3b
000001c0: afc7 10ea 0a9c 14bf dac4 b483 e066 2ebf
000001d0: c296 5904 b5fe 16bf 668e 831f 87f5 573b
000001e0: 6fcc 5d45 bb00 39bf 0e02 0018 3a69 213f
000001f0: f2c5 42c9 af24 4abf 88ee 0f31 906e c93e
00000200: eba1 f9b4 daa9 6cbf 4659 f7dd 1f7b 55bf
00000210: 01d9 f2a0 ab90 9a3b e6e4 9ef2 174f 4cbc
00000220: f395 2148 eaff b7bc 2598 de50 773e dfbc
00000230: 7046 3bab 2528 ba3b e7c9 40a9 3116 7e3c
00000240: a602 be97 0e79 833c a6ad 5604 76c3 813b
00000250: 30f9 9eb3 ae08 29bf f458 e073 821c 52bf
00000260: b9bb bd2e 1a73 e5bb da3f d27d ad99 adbc
00000270: 78bd 4bcf b9d1 03bc ddce 3357 b657 eb3b
00000280: 41c8 8808 cdd8 45bf 6555 ce7d 9e8c cdbc
00000290: 473d b675 bb0f 1fbc c018 83a5 2dff b7bb
000002a0: 4751 cad1 c67d 6cbe 81b4 89fb d03b d6be
000002b0: ac05 2912 652e bb3c c01c 5cc5 a900 a13b
000002c0: 66f0 0aa1 9c14 83bf b02a 18f3 0bdb ebbe
000002d0: a0a0 4d38 2598 88bf bea4 1ef4 3728 7dbb
000002e0: 0320 a355 e41a 87bb af1a 543d 5923 c4bb
000002f0: a26b 8e6c d1c2 103c e755 1d56 1d62 c5bb
00000300: 3a0d c7c5 03e3 1fbf 0432 1de4 9dab e5bb
00000310: c58a 3f4c 27a5 1e3c c629 e58f f256 83bf
00000320: 6f64 caff 8ce1 293c d88f 32b3 8df0 753b
00000330: 826b a3e2 2738 cf3c e992 5c12 c092 83bf
00000340: e9fc 4397 a5ef aa3b 4b49 d1ca 65eb 4ebc
00000350: 8522 05f4 b748 39bf 662a fed2 04bf 89bf
00000360: e7b3 3aa9 6f2b 573c 0c23 897e fc55 a63c
00000370: 3ca7 9d65 b8d0 71bb 99e9 45db 4210 87bc
00000380: 5b2c 6823 dc0d 73bf 77f0 dadd f575 513b
00000390: 4556 b0c3 4d3e 983c f57d 5e18 73e3 2c3e
000003a0: c218 9155 aace 84bf 6db2 799a 63df a6bb
000003b0: fcf2 7da8 b931 523c e0f8 8e60 64cf 26bc
000003c0: 87d2 3c6e 53e5 78bf 47ce 0cd1 d3ad 7bbf
000003d0: 7c3e 7b6b b45c 63bf fba3 0d0f e830 37bc
000003e0: c7d4 291e a22a 5bbf b16d 8f26 9fac 17bf
000003f0: e4f4 ff67 0fb5 8bbf e188 8a89 abd0 6fbf
00000400: 4aa7 4cdd a7f4 70bf 6ada f066 436f a33f
00000410: dffa 18a1 09c6 9a3f 7905 aca0 98cb 153c
00000420: ee3a e644 d89b 5fbf 442f 32b2 4fb6 73bf
00000430: 77cb 8bdf 192e 833f b599 a3bc 775e 24bc
00000440: 35b9 7f67 88aa a3bf 3f1a 2a25 a572 b4bf
00000450: ff61 cf60 042f ac3f af14 3afd 77ff b5bf
00000460: 10e5 6cea dbed 123f 6e1b d9ef c805 a33f
00000470: 76c1 f0e3 41ea aabf b755 65ee b3bf b03f
00000480: a4f5 9d84 b424 bdbf be97 5883 378d 7dbf
00000490: c1d5 9960 c936 4b3f 124a c69f 98b8 b43f
000004a0: 933c 8a6c 1dba b93f 9dcf f2eb 8670 a13f
000004b0: 626a e5a5 7189 a43f 88c6 96ff 253a 71bf
000004c0: b2a1 490d 7f8f 83bf dbf0 b428 71d5 b2bf
000004d0: b4a1 6caa d841 9b3f 14a2 8654 ad57 37bf
000004e0: d67b 43e7 4bf2 0abf fa7d db99 7063 ec3b
000004f0: c3cd e115 989d 65bf 9cbe 1e57 4ffb 9e3f
00000500: 9126 4e5d c33b aebf e757 719f 2ec3 973f
00000510: 3d98 df13 c950 e63d 3d72 e1ee dbb4 8bbf
00000520: 96e1 2472 e46d 8abf 0d59 82a6 fd11 a4bf
00000530: a757 8f21 4fd4 59bf 1313 94c5 9b57 b8bf
00000540: 309b 71d2 7803 6a3c 5bcc ced2 1d63 a63f
00000550: 6dda 98a0 d6e0 963f 9510 389d b306 ba3f
00000560: 8bee 5da1 3ae4 b9bf eab6 0720 8aee 6bbf
00000570: acdb 15e3 e00c 033f ca3d b3cd eef9 e6bd
00000580: 4bb3 b260 0123 ba3f 0c95 7bf3 da48 75bf
00000590: 8453 c29f 8839 6e3f ff60 1fa0 1955 503f
000005a0: 6957 5ba3 3611 7bbf 1003 26d8 03c1 a8bc
000005b0: d3f0 ac25 2c32 a4bf 7184 ad55 6a97 ad3f
000005c0: b37f aacc 8819 a73f 6bc4 1365 06bf 98bf
000005d0: f13a a510 9654 b63f 8562 86c0 c987 7cbd
000005e0: 800a 9df4 fbd4 a2bf 5418 9807 a8ce be3f
000005f0: fef4 1f72 6a48 bfbf 1639 6522 7905 b1bf
00000600: 98e2 69ea 851a 3fbf c35a 32ee 7bf6 36bf
00000610: 5943 c405 e5d0 c93b 3974 42ee c534 413b
00000620: 0ae7 8c3b 0cd4 953b 36f9 710d eb1e 8d3b
00000630: f304 4efe 05e4 b63c 63ae f3fe aab8 0a3c
00000640: bb33 e817 ba9b a63b 5f36 029e fe44 88bb
00000650: 58b4 7727 90ec f6be 742a 6887 828e 00bf
00000660: 6711 b51d f19b 91bc 303a 83cc d004 e8be
00000670: b2ef f6d0 17f3 993b 5c52 c70d 5d10 a03c
00000680: 6088 5cb6 f2b1 37bf 1c20 2675 5c59 a6bb
00000690: 4f22 90eb 9592 013c a3d5 fd59 940f 8e3c
000006a0: 022f ef1d 946d 2abf 7e0a be22 de2d 14bf
000006b0: d641 2140 fbaa 30bc 2d72 8a50 437d 983c
000006c0: e34b d1bd 1a9c 0fbf 467e 0a23 24de 13bf
000006d0: 3f2c 902d 7baf 5bbf 05f6 36a7 22e1 933b
000006e0: 8972 9827 b088 f63b 5234 4ad0 18bb cbbb
000006f0: 5683 65e8 acd0 18bc 7abe 386a c4b8 36bc
00000700: cc97 0702 2beb 34bf 719c dfdf fb84 7abb
00000710: 9b6f 835a 6cd5 21bc ec0f 2623 5f81 50bf
00000720: 0217 6aaa 2360 013c 15c3 46dd d7a7 983c
00000730: da80 23f0 6827 833c bc0f bd1b 7be6 39bf
00000740: 83a3 37b5 977b 5e3c f934 9882 6964 463c
00000750: f126 3210 62a3 3bbf 0883 a64b 4371 4ebf
00000760: a623 0b99 42bf 83be 0f90 a29f 2738 bbbb
00000770: 8001 6403 806d 9e3c bc11 0169 52a4 3d3c
00000780: bab6 273a a213 48bf 2962 e191 7476 68bc
00000790: 0084 4f99 087a 913b d8e5 f2da 9db4 b43b
000007a0: a22a d826 533f 54bf 4f6c ff01 e360 d9bb
000007b0: ec77 af45 48ca cbbb ab54 56b4 a16e c23b
000007c0: c017 840c bfe7 43bf cdfc c9ec b676 40bf
000007d0: 612a 16c1 df65 523c 09d8 e139 6a57 483b
000007e0: f514 2d3a 484f 47bf 065d be27 1938 35bf
000007f0: 042f 0bdb 3568 50bf 8f6a 28d2 f998 18bf
1.741743548985157e-05 -0.0001400032511560322 3.3473527094390135e-17 1.6006338679860888e-18 3.039808580553952e-13 -8.152700576298286e-13 1.3124441939479034e-18 9.09572724606196e-22
1.774065078407637e-07 1.3953995010172404e-17 5.228875582252497e-05 -2.8007833990910375e-09 4.9409998371336923e-20 -3.2289945780783884e-11 -8.230526444860302e-14 2.661587059203848e-07
8.769735653633175e-05 1.3564795592479438e-20 2.1108650784396018e-06 8.784584720685712e-21 5.977748401146634e-06 0.0002317787791112281 -1.6488929053788164e-12 -1.1184069138522513e-20
-9.289245026896803e-05 -8.510159688463048e-06 -0.0003415561710713187 1.5861078297810916e-19 2.26281089809443e-21 -2.1629446938273347e-16 8.630268566044978e-16 -3.164929662844844e-05
9.086847455541773e-05 3.030589610978294e-18 3.0305185717891477e-21 -0.0003516748615051512 -3.2842652572991938e-12 2.5447547338725005e-07 2.0447103911072396e-20 -0.00037688783695968196
-8.066435675557969e-22 3.080949271666208e-22 7.528003523418148e-05 2.9881322635380174e-05 3.349203014115761e-12 6.246283199954658e-22 8.826022566890778e-18 1.2294057594971559e-19
-2.205227281698192e-05 -1.4968059598338877e-16 7.7607273073415e-07 0.0002092214567880515 -0.000219358457690436 -2.876018517023285e-21 1.1593123687252588e-15 2.5640426105600677e-23
-7.861916175569307e-05 -0.00023194780974614728 -8.771877136267827e-05 7.927398911054847e-23 -0.00038151332898123715 0.00013283571388457465 -0.0007978304224904294 3.031717263455629e-06
-0.003498961603146213 -0.0013110934449876584 1.4063456819044029e-21 -3.069263502583532e-18 -3.3306230837186254e-16 -1.7343908596032963e-15 5.5389230963489084e-21 2.6096048298789916e-17
3.378006020319455e-17 4.701964473253605e-22 -0.00019099361980851872 -0.001105430026205276 -3.63370667521267e-20 -2.053933656490156e-16 -1.343004041972046e-19 4.632021025299274e-20
-0.0006667138232556783 -8.201576469994212e-16 -4.209612010067141e-19 -5.0815179948116545e-21 -5.3069209670109384e-08 -5.300917046297265e-06 3.772153384114259e-16 1.8002192926565463e-21
-0.0093166577001897 -1.328260950385815e-05 -0.01200894430230931 -3.8589105549402145e-22 -6.115854914081472e-22 -8.528808812591186e-21 2.2715401686067008e-19 -9.056162928175999e-21
-0.00012163839841776862 -3.6711048251165697e-20 4.1531896855441103e-19 -0.009443182960826923 7.015074753398404e-19 2.9036901109125546e-22 8.665112683346002e-16 -0.009557247696258613
2.8519726882736606e-21 -3.3523012899201625e-18 -0.00038580409092906664 -0.012571370781889257 5.024121865594765e-18 1.5498632937426444e-16 -2.3578371324245046e-22 -4.0008829842475524e-17
-0.00465188972021754 5.777288430315298e-23 8.411110034412042e-17 3.3630611099365982e-09 -0.010159807907382027 -2.4217321612519412e-21 3.945246726724481e-18 -6.182696874065062e-19
-0.00607807722171983 -0.006757571610069463 -0.002363541014211821 -1.257188848267276e-18 -0.001658113783063174 -9.031030062039179e-05 -0.01352893863804145 -0.003883681329470354
-0.004139571877013479 0.0379582465324589 0.026146078546157688 2.9538136344878533e-19 -0.0019292461398411859 -0.004812537491613093 0.009365274557671317 -5.521032453822821e-19
-0.03841043723501728 -0.07987434537253878 0.055046212022435974 -0.08592939312264279 7.220892676408999e-05 0.037153510359124606 -0.052568492007028775 0.06542515344820897
-0.11384132611961789 -0.007214753005916506 0.000830505684645537 0.0809417142939213 0.10049613857175847 0.034061638166718235 0.04011111402606528 -0.0042058452904015844
-0.009551041214948739 -0.0735693668729626 0.02661837139308583 -0.00035617810911017897 -5.139631403649313e-05 4.809188275915309e-20 -0.0026386232776134124 0.030255546276463194
-0.05904970659237308 0.023205498201001176 1.623671283679833e-10 -0.013528555133398895 -0.01290491555538224 -0.0391997590788141 -0.0015764973415932444 -0.09508679937068747
1.1281584324764888e-17 0.04372494886720154 0.02234206538397603 0.10166475857119146 -0.10113874854681108 -0.0034096429592328408 3.6335576065242e-05 -1.6717458567641687e-10
0.1020966397361011 -0.005196433332206551 0.003689543575158218 0.0009968519448105282 -0.0066082128812093655 -1.7176513621028905e-16 -0.0394452854147588 0.057795832594600756
0.04511668680538552 -0.024166202468169844 0.08722818285353263 -1.6217667417767114e-12 -0.03678119050029682 0.1203408258953414 -0.12219872747660429 -0.06648976411563398
-0.0004746033613752059 -0.0003503849567975498 1.0933498998886238e-20 2.84651794240082e-23 1.155581197167314e-21 7.708204727031991e-22 3.176725056854065e-16 1.810709730378676e-19
2.3937477525037192e-21 -6.424085847241091e-22 -2.1862101190640463e-05 -3.1579359461704574e-05 -6.109400446949511e-17 -1.1453061589253554e-05 1.3737594409254786e-21 1.1146583578821727e-16
-0.00036155868143528634 -2.3662995155379254e-21 1.190765700304889e-19 5.214727506526304e-17 -0.00020162995403293782 -7.69774275664412e-05 -9.035684677953798e-19 8.496435634731001e-17
-6.029087646965811e-05 -7.578940927510059e-05 -0.0016897871885273167 1.0524085269383971e-21 7.634795135427898e-20 -1.1744470691368042e-20 -3.363078365547232e-19 -1.231748375928496e-18
-0.0003191928863358589 -3.5098224052698464e-22 -4.833829895123826e-19 -0.0010074071002188446 1.1774126741336117e-19 8.554142664606892e-17 3.322679800993931e-17 -0.00039520745825804746
6.609900046694495e-18 2.4277709787070135e-18 -0.0004217256939190581 -0.000929029330382831 -1.4712743425505113e-07 -5.763922538943045e-21 1.0556741098336751e-16 1.6068896690384314e-18
-0.0007347623944135775 -1.0609012025941369e-17 9.252084612520768e-22 4.384567304413714e-21 -0.0012358009365721974 -2.149639504367344e-20 -1.1769592803606442e-20 7.806321250516278e-21
-0.0006074602943335547 -0.000502433127237989 3.989418489312506e-18 4.0269575248956325e-23 -0.0007113554641839092 -0.00032377828733261315 -0.0010014081891993052 -9.383225236840098e-05

fc2.bias f8 [64]
00000000: cb1b d702 ea18 2fbf 0fa9 cab1 e742 74bf
00000010: f90f 24c6 4641 b73f c332 fdaa cf3c 3fbf
00000020: 951b 4384 b2cd 7fbf 3836 c0b7 d1c2 71bf
00000030: 6584 09a2 6d4b b23f 1fb6 30be ee23 b23f
00000040: d2d0 ff45 8eef a8bf 1b81 25ed 1a22 c33f
00000050: 6e8a 4fe5 f0a4 b9bf f1c4 cae9 16ca 84be
00000060: 88ee 1a12 10c7 4ebe a213 2f42 6a67 adbf
00000070: 6254 4f45 1969 b13f 5093 758e 7abd f5bd
00000080: fb0c 2b92 52f6 c13f 9bcd 963c e44b b33f
00000090: 0515 4c35 d373 7dbf d442 eb21 c4ec 4ebf
000000a0: 16c0 f9ce 426d 503f c2e6 dabc 6e23 93bf
000000b0: 4324 7957 3589 b23f 9fb0 d44d 0d98 b33f
000000c0: 0735 0e9f e2ad b63f b322 9d51 85c6 9b3f
000000d0: 6072 7bf2 cb5f b23f d2f7 3c54 b555 97bf
000000e0: 46fc ebfb fd6c ad3f b471 2544 3c46 7fbf
000000f0: ebef 3a90 a0cf 6dbf 3b7c 8479 916b 62bf
00000100: 00f0 2074 b2d8 ae3f 3b97 4465 bc08 a53f
00000110: 256e c0f5 8ce6 babf 65e4 13b0 81bd ab3f
00000120: cda8 a699 60d6 b53f 8fee 3940 75bd 7bbf
00000130: 7da1 f362 4ea5 adbf d8ca b5f3 b602 a33f
00000140: 66a5 565f 114d b83f 8a33 1f38 49b7 ba3f
00000150: 1168 a04c e9a0 313e c06e 9f16 5055 c03f
00000160: a0cc 06b8 ba89 a2bf 41dc cf93 90af f2be
00000170: 3fa9 d33f 427c b13f af16 9f41 9be8 883f
00000180: 40dc 5526 f14e 73bf 58d0 9b06 3c6a b33f
00000190: d0d7 4c24 d3ff b23f f1ae 930f ef22 b93f
000001a0: a957 7027 a5f5 49bf 684f 60c3 bc95 65bf
000001b0: d24a d8f1 d395 b03f 67d3 c265 36b1 bd3f
000001c0: 8d33 7b19 684a a43f b1b9 ff71 cfee 4f3e
000001d0: 25c3 d23d dacc 803f 4264 1b7e 2b4f aa3f
000001e0: c99f 82d6 21a6 0bbe 8beb fbce 5490 8c3d
000001f0: 6dce b464 4f55 72bf f327 fabb 5e00 b03f
-0.00023725372868296646 -0.004946618134150662 0.09083978974746278 -0.0004766470910809001 -0.007764527636203851 -0.004336184701981653 0.0714634438131881 0.07086078780476911
-0.04870266537173652 0.14947830752772337 -0.10017304991155537 -1.548931906257012e-07 -1.4331931699895833e-08 -0.05742961938771109 0.06800992910514617 -3.1636083896592533e-10
0.1403296674453499 0.07537676314568957 -0.007190537483215968 -0.0009437520673945773 0.001002612345384795 -0.018689852024840865 0.07240613351417928 0.076538878919282
0.0885907781905254 0.027124484163581552 0.07177424116111686 -0.022787888781060257 0.05747216892449862 -0.007635341086225034 -0.0036390434268849157 -0.002248558168630702
0.06024701755129058 0.04108227478199785 -0.10508042335316554 0.054180195564136814 0.08530238867993774 -0.006772478114381321 -0.057901811198294496 0.03713008618332986
0.09492596223448899 0.10435922260439959 4.1044689400941404e-09 0.12760354141834362 -0.03620704170625655 -1.7820167375473065e-05 0.06830228861114039 0.012162411632640284
-0.004713956824494991 0.07583975945800725 0.0742160762427766 0.09818929796500321 -0.0007922226349161748 -0.0026348768979093558 0.0647861924592619 0.1159852980079684
0.03963017760324936 1.4869893372152698e-08 0.008203225146958435 0.05138526834861824 -8.046904644534909e-10 3.2473274217742062e-12 -0.004475889330297284 0.06250564660345485

bn2_fc.weight f8 [64]
00000000: 0000 0000 0000 f03f 0000 0000 0000 f03f
00000010: 0000 0000 0000 f03f 0000 0000 0000 f03f
00000020: 0000 0000 0000 f03f 0000 0000 0000 f03f
00000030: 0000 0000 0000 f03f 0000 0000 0000 f03f
00000040: 0000 0000 0000 f03f 0000 0000 0000 f03f
00000050: 0000 0000 0000 f03f 0000 0000 0000 f03f
00000060: 0000 0000 0000 f03f 0000 0000 0000 f03f
00000070: 0000 0000 0000 f03f 0000 0000 0000 f03f
00000080: 0000 0000 0000 f03f 0000 0000 0000 f03f
00000090: 0000 0000 0000 f03f 0000 0000 0000 f03f
000000a0: 0000 0000 0000 f03f 0000 0000 0000 f03f
000000b0: 0000 0000 0000 f03f 0000 0000 0000 f03f
000000c0: 0000 0000 0000 f03f 0000 0000 0000 f03f
000000d0: 0000 0000 0000 f03f 0000 0000 0000 f03f
000000e0: 0000 0000 0000 f03f 0000 0000 0000 f03f
000000f0: 0000 0000 0000 f03f 0000 0000 0000 f03f
00000100: 0000 0000 0000 f03f 0000 0000 0000 f03f
00000110: 0000 0000 0000 f03f 0000 0000 0000 f03f
00000120: 0000 0000 0000 f03f 0000 0000 0000 f03f
00000130: 0000 0000 0000 f03f 0000 0000 0000 f03f
00000140: 0000 0000 0000 f03f 0000 0000 0000 f03f
00000150: 0000 0000 0000 f03f 0000 0000 0000 f03f
00000160: 0000 0000 0000 f03f 0000 0000 0000 f03f
00000170: 0000 0000 0000 f03f 0000 0000 0000 f03f
00000180: 0000 0000 0000 f03f 0000 0000 0000 f03f
00000190: 0000 0000 0000 f03f 0000 0000 0000 f03f
000001a0: 0000 0000 0000 f03f 0000 0000 0000 f03f
000001b0: 0000 0000 0000 f03f 0000 0000 0000 f03f
000001c0: 0000 0000 0000 f03f 0000 0000 0000 f03f
000001d0: 0000 0000 0000 f03f 0000 0000 0000 f03f
000001e0: 0000 0000 0000 f03f 0000 0000 0000 f03f
000001f0: 0000 0000 0000 f03f 0000 0000 0000 f03f
1.0 1.0 1.0 1.0 1.0 1.0 1.0 1.0
1.0 1.0 1.0 1.0 1.0 1.0 1.0 1.0
1.0 1.0 1.0 1.0 1.0 1.0 1.0 1.0
1.0 1.0 1.0 1.0 1.0 1.0 1.0 1.0
1.0 1.0 1.0 1.0 1.0 1.0 1.0 1.0
1.0 1.0 1.0 1.0 1.0 1.0 1.0 1.0
1.0 1.0 1.0 1.0 1.0 1.0 1.0 1.0
1.0 1.0 1.0 1.0 1.0 1.0 1.0 1.0

bn2_fc.bias f8 [64]
00000000: 0000 0000 0000 0000 0000 0000 0000 0000
00000010: 0000 0000 0000 0000 0000 0000 0000 0000
00000020: 0000 0000 0000 0000 0000 0000 0000 0000
00000030: 0000 0000 0000 0000 0000 0000 0000 0000
00000040: 0000 0000 0000 0000 0000 0000 0000 0000
00000050: 0000 0000 0000 0000 0000 0000 0000 0000
00000060: 0000 0000 0000 0000 0000 0000 0000 0000
00000070: 0000 0000 0000 0000 0000 0000 0000 0000
00000080: 0000 0000 0000 0000 0000 0000 0000 0000
00000090: 0000 0000 0000 0000 0000 0000 0000 0000
000000a0: 0000 0000 0000 0000 0000 0000 0000 0000
000000b0: 0000 0000 0000 0000 0000 0000 0000 0000
000000c0: 0000 0000 0000 0000 0000 0000 0000 0000
000000d0: 0000 0000 0000 0000 0000 0000 0000 0000
000000e0: 0000 0000 0000 0000 0000 0000 0000 0000
000000f0: 0000 0000 0000 0000 0000 0000 0000 0000
00000100: 0000 0000 0000 0000 0000 0000 0000 0000
00000110: 0000 0000 0000 0000 0000 0000 0000 0000
00000120: 0000 0000 0000 0000 0000 0000 0000 0000
00000130: 0000 0000 0000 0000 0000 0000 0000 0000
00000140: 0000 0000 0000 0000 0000 0000 0000 0000
00000150: 0000 0000 0000 0000 0000 0000 0000 0000
00000160: 0000 0000 0000 0000 0000 0000 0000 0000
00000170: 0000 0000 0000 0000 0000 0000 0000 0000
00000180: 0000 0000 0000 0000 0000 0000 0000 0000
00000190: 0000 0000 0000 0000 0000 0000 0000 0000
000001a0: 0000 0000 0000 0000 0000 0000 0000 0000
000001b0: 0000 0000 0000 0000 0000 0000 0000 0000
000001c0: 0000 0000 0000 0000 0000 0000 0000 0000
000001d0: 0000 0000 0000 0000 0000 0000 0000 0000
000001e0: 0000 0000 0000 0000 0000 0000 0000 0000
000001f0: 0000 0000 0000 0000 0000 0000 0000 0000
0.0 0.0 0.0 0.0 0.0 0.0 0.0 0.0
0.0 0.0 0.0 0.0 0.0 0.0 0.0 0.0
0.0 0.0 0.0 0.0 0.0 0.0 0.0 0.0
0.0 0.0 0.0 0.0 0.0 0.0 0.0 0.0
0.0 0.0 0.0 0.0 0.0 0.0 0.0 0.0
0.0 0.0 0.0 0.0 0.0 0.0 0.0 0.0
0.0 0.0 0.0 0.0 0.0 0.0 0.0 0.0
0.0 0.0 0.0 0.0 0.0 0.0 0.0 0.0

bn2_fc.running_mean f8 [64]
00000000: 0000 0000 0000 0000 0000 0000 0000 0000
00000010: 0000 0000 0000 0000 0000 0000 0000 0000
00000020: 0000 0000 0000 0000 0000 0000 0000 0000
00000030: 0000 0000 0000 0000 0000 0000 0000 0000
00000040: 0000 0000 0000 0000 0000 0000 0000 0000
00000050: 0000 0000 0000 0000 0000 0000 0000 0000
00000060: 0000 0000 0000 0000 0000 0000 0000 0000
00000070: 0000 0000 0000 0000 0000 0000 0000 0000
00000080: 0000 0000 0000 0000 0000 0000 0000 0000
00000090: 0000 0000 0000 0000 0000 0000 0000 0000
000000a0: 0000 0000 0000 0000 0000 0000 0000 0000
000000b0: 0000 0000 0000 0000 0000 0000 0000 0000
000000c0: 0000 0000 0000 0000 0000 0000 0000 0000
000000d0: 0000 0000 0000 0000 0000 0000 0000 0000
000000e0: 0000 0000 0000 0000 0000 0000 0000 0000
000000f0: 0000 0000 0000 0000 0000 0000 0000 0000
00000100: 0000 0000 0000 0000 0000 0000 0000 0000
00000110: 0000 0000 0000 0000 0000 0000 0000 0000
00000120: 0000 0000 0000 0000 0000 0000 0000 0000
00000130: 0000 0000 0000 0000 0000 0000 0000 0000
00000140: 0000 0000 0000 0000 0000 0000 0000 0000
00000150: 0000 0000 0000 0000 0000 0000 0000 0000
00000160: 0000 0000 0000 0000 0000 0000 0000 0000
00000170: 0000 0000 0000 0000 0000 0000 0000 0000
00000180: 0000 0000 0000 0000 0000 0000 0000 0000
00000190: 0000 0000 0000 0000 0000 0000 0000 0000
000001a0: 0000 0000 0000 0000 0000 0000 0000 0000
000001b0: 0000 0000 0000 0000 0000 0000 0000 0000
000001c0: 0000 0000 0000 0000 0000 0000 0000 0000
000001d0: 0000 0000 0000 0000 0000 0000 0000 0000
000001e0: 0000 0000 0000 0000 0000 0000 0000 0000
000001f0: 0000 0000 0000 0000 0000 0000 0000 0000
0.0 0.0 0.0 0.0 0.0 0.0 0.0 0.0
0.0 0.0 0.0 0.0 0.0 0.0 0.0 0.0
0.0 0.0 0.0 0.0 0.0 0.0 0.0 0.0
0.0 0.0 0.0 0.0 0.0 0.0 0.0 0.0
0.0 0.0 0.0 0.0 0.0 0.0 0.0 0.0
0.0 0.0 0.0 0.0 0.0 0.0 0.0 0.0
0.0 0.0 0.0 0.0 0.0 0.0 0.0 0.0
0.0 0.0 0.0 0.0 0.0 0.0 0.0 0.0

bn2_fc.running_var f8 [64]
00000000: 0000 0000 0000 f03f 0000 0000 0000 f03f
00000010: 0000 0000 0000 f03f 0000 0000 0000 f03f
00000020: 0000 0000 0000 f03f 0000 0000 0000 f03f
00000030: 0000 0000 0000 f03f 0000 0000 0000 f03f
00000040: 0000 0000 0000 f03f 0000 0000 0000 f03f
00000050: 0000 0000 0000 f03f 0000 0000 0000 f03f
00000060: 0000 0000 0000 f03f 0000 0000 0000 f03f
00000070: 0000 0000 0000 f03f 0000 0000 0000 f03f
00000080: 0000 0000 0000 f03f 0000 0000 0000 f03f
00000090: 0000 0000 0000 f03f 0000 0000 0000 f03f
000000a0: 0000 0000 0000 f03f 0000 0000 0000 f03f
000000b0: 0000 0000 0000 f03f 0000 0000 0000 f03f
000000c0: 0000 0000 0000 f03f 0000 0000 0000 f03f
000000d0: 0000 0000 0000 f03f 0000 0000 0000 f03f
000000e0: 0000 0000 0000 f03f 0000 0000 0000 f03f
000000f0: 0000 0000 0000 f03f 0000 0000 0000 f03f
00000100: 0000 0000 0000 f03f 0000 0000 0000 f03f
00000110: 0000 0000 0000 f03f 0000 0000 0000 f03f
00000120: 0000 0000 0000 f03f 0000 0000 0000 f03f
00000130: 0000 0000 0000 f03f 0000 0000 0000 f03f
00000140: 0000 0000 0000 f03f 0000 0000 0000 f03f
00000150: 0000 0000 0000 f03f 0000 0000 0000 f03f
00000160: 0000 0000 0000 f03f 0000 0000 0000 f03f
00000170: 0000 0000 0000 f03f 0000 0000 0000 f03f
00000180: 0000 0000 0000 f03f 0000 0000 0000 f03f
00000190: 0000 0000 0000 f03f 0000 0000 0000 f03f
000001a0: 0000 0000 0000 f03f 0000 0000 0000 f03f
000001b0: 0000 0000 0000 f03f 0000 0000 0000 f03f
000001c0: 0000 0000 0000 f03f 0000 0000 0000 f03f
000001d0: 0000 0000 0000 f03f 0000 0000 0000 f03f
000001e0: 0000 0000 0000 f03f 0000 0000 0000 f03f
000001f0: 0000 0000 0000 f03f 0000 0000 0000 f03f
1.0 1.0 1.0 1.0 1.0 1.0 1.0 1.0
1.0 1.0 1.0 1.0 1.0 1.0 1.0 1.0
1.0 1.0 1.0 1.0 1.0 1.0 1.0 1.0
1.0 1.0 1.0 1.0 1.0 1.0 1.0 1.0
1.0 1.0 1.0 1.0 1.0 1.0 1.0 1.0
1.0 1.0 1.0 1.0 1.0 1.0 1.0 1.0
1.0 1.0 1.0 1.0 1.0 1.0 1.0 1.0
1.0 1.0 1.0 1.0 1.0 1.0 1.0 1.0

fc3.weight f8 [1, 64]
00000000: 0b76 725e 2356 63bf b218 e065 18ff 703f
00000010: 3366 ec73 fcc6 b23f 5bc3 cdc4 dffd 6bbf
00000020: e907 6ec0 6914 933f 3431 b767 a9c9 753f
00000030: d97b 33dd 02dd b9bf f11c 55b9 7d98 b6bf
00000040: c56f 1537 69e6 b3bf 4bf9 c439 ae31 a93f
00000050: cb3f 2e11 493f aabf 3133 b1a8 daa8 43be
00000060: fd26 b446 5201 52bf 85dc 6c4a ff13 b33f
00000070: 80fc 326e 647c b0bf 1678 4fc7 bd3c dd3c
00000080: 6a6e a729 e798 a93f 874c 9cf0 5d0c a93f
00000090: 4f11 6ec5 079f 93bf e057 6396 5d26 8dbf
000000a0: 037e 045d 0632 45bf bc4b 867c 3848 9dbf
000000b0: 25ba f9dc e6ae a43f 0b08 01fe 021c bbbf
000000c0: ba99 5c50 c299 a5bf 8a00 0bd9 36f4 b9bf
000000d0: 4582 504f 0369 b43f eada 2358 90d6 613f
000000e0: 6537 f7ea 6ac1 bcbf 4a78 43c2 f7f6 68bf
000000f0: 1ed2 697f 89a1 65be 5951 7c70 d216 a73f
00000100: 3fb4 d2cd 39a0 913f 4013 a542 9803 a0bf
00000110: e0f3 4c8e b8fc adbf c9e9 c769 13c3 a7bf
00000120: 89ec 67a6 18da 9c3f d9b8 0973 2a26 96bf
00000130: 007c dd11 2ab7 b23f 32cd 450b f639 bd3f
00000140: e655 5d90 b9ea b6bf 8a27 e337 d383 ae3f
00000150: ec72 c56d 2262 073e d6ae bbd4 f407 b63f
00000160: ea1f 9c28 3b13 923f ba5c 8565 1be8 c1bc
00000170: 31a0 cb6f 17bc ba3f 1ac3 0f07 b3c7 a83f
00000180: 3a23 ba71 f696 933f 8ceb 626a f5a4 913f
00000190: 9e0e 3b25 1e46 b3bf 4246 ceaf db3d a1bf
000001a0: 2fe8 90c2 ea63 71bf 8b2b 720e f78b 92bf
000001b0: 1ca8 15b0 10b9 b3bf d759 1f2c 51da ba3f
000001c0: cc46 3d95 16cf 8d3f 8d1f 8c6f a7b3 823f
000001d0: d7a5 1cd0 8013 bf3f 7f3d 5e94 0608 963f
000001e0: 428c 16ce 611b 7f3f 1d05 28af 6f58 49be
000001f0: 0881 2b83 c7df 603e 946a d90a 44f0 aabf
-0.002360409812878888 0.004149527840132604 0.07334878759538625 -0.0034169550403295008 0.01863255726812688 0.005319272745918636 -0.10102861309449852 -0.08826432966917587
-0.07773454279725829 0.04920715766137337 -0.05126407942509522 -9.154708343955469e-09 -0.0010989478567488547 0.07452388350508173 -0.06439807596597014 1.6229945604662156e-15
0.049994682154388695 0.04892247736111082 -0.01916134016529841 -0.014233332778910979 -0.0006468325682681967 -0.028595812416437147 0.04039689490752022 -0.10589617444296111
-0.04218871336916004 -0.1013826637163239 0.07972737013234006 0.0021775073265602922 -0.1123263190886213 -0.0030474509277232152 -4.029088522965045e-08 0.045095993262438135
0.0172127754091671 -0.03127742589507543 -0.05856873261516404 -0.04641018549223792 0.028175721317876188 -0.021629966040955437 0.07310736595307787 0.11416566634379846
-0.08951911711240931 0.05959949547975814 6.805447000575532e-10 0.0860589045875558 0.017651485780362387 -4.9700987876446e-16 0.10443254927997782 0.04839858494950118
0.01913056439528591 0.017230829828558877 -0.0752886620421642 -0.03367506524149323 -0.004245678931562621 -0.01811204934760328 -0.07704262064876882 0.10489375426491364
0.014555145673202395 0.009131725398688473 0.12139134484154766 0.021514990621253723 0.007594472933678155 -1.1802396814206918e-08 3.1430531418623354e-08 -0.05261433250844508

fc3.bias f8 [1]
00000000: b067 af2a caa2 a9bf
-0.050070111952393304
