model_path/data23/P34.pth (torch, 108013 bytes, 14 tensors)

fc1.weight f8 [64, 128]
0	0xbfb2e7f963082f58	-0.07385214488766445
1	0x3f89ccd4c3f81ea5	0.012597715597635182
2	0xbfa86ff4096d4ae3	-0.04772913565706973
3	0xbfb04086a1974d1c	-0.06348458714574118
4	0xbfb38b6640913478	-0.07634581638667892
5	0x3fb9a268514dfe95	0.10013439164139933
6	0x3f9ff37addfaf566	0.031202239798166963
7	0xbf65001ed1adf4d7	-0.0025635339674737567
8	0xbf70696971ef7039	-0.004006778616680911
9	0xbfa0155bc9f15393	-0.03141295280571579
10	0x3f92f62bd73f9819	0.018517193806381813
11	0x3f779048c09be76f	0.005752834500293832
12	0x3fb91d5bbe6f92c1	0.09810422324478464
13	0x3fa00aea204e2dd9	0.031333271449593254
14	0x3f739ba0f5ce57a8	0.0047870910174391615
15	0x3fb9134203eaf1de	0.09795010181091565
16	0xbf82735c0cfb6ae6	-0.009009093424017189
17	0x3f997b878b337864	0.024885290023000897
18	0x3fb7b7ba3d77a833	0.09264720917386242
19	0xbfb05ec1763e5850	-0.06394585739903502
20	0xbf63586cbf882a62	-0.002361500166675954
21	0x3faf3c322c887151	0.061006133972315475
22	0xbfb0705e72ed94c3	-0.06421461397038102
23	0xbf9c28e2511e066c	-0.027499710274702258
24	0xbfaf3a3971dbc0fa	-0.06099109187005243
25	0xbfb2495e2dcb6da7	-0.07143200510056734
26	0x3f998ddcc489cde2	0.024955224509950365
27	0xbfb265601129e20b	-0.07185936373742423
28	0x3f85a1050bb6f919	0.010561026973729558
29	0xbfb6be06aadc8fa8	-0.08883706733155228
30	0xbfaceeca5fab89ce	-0.056509327105021975
31	0xbfaa8a0a01b6c31a	-0.05183440466806229
32	0x3fa0693f9ffcfcad	0.03205298259717302
33	0xbf9aee9d9ff423f6	-0.026300871742055386
34	0x3fa6326b19e07ae9	0.04335341158752277
35	0xbf9c1127071a8c8b	-0.027409181412292354
36	0x3f7b0322ddfd040d	0.006594787788174916
37	0x3fb78cc555954471	0.09199174251013333
38	0x3fb1883af11a7cdf	0.06848495851817259
39	0xbf98d8b95b706f9e	-0.024264236646657993
40	0x3fb049a57ccacad2	0.06362375542338874
41	0xbfb23391efae64e8	-0.07109939672081433
42	0xbfb37953a5c33495	-0.07607004925667334
43	0xbfa860d58f26f662	-0.047613786434777663
44	0xbf83308f67ce0436	-0.009369964938516256
45	0xbf8eb5c662826cb2	-0.014995145684500197
46	0xbfb384f64515f1f5	-0.07624758898413815
47	0x3fb32491ced509e0	0.07477675723661248
48	0x3fb7c7ca5d05e788	0.09289231082030203
49	0x3f892ea9742e9520	0.012296031816570407
50	0xbfb397d9719a29f1	-0.07653578780642768
51	0x3fb9b3d93cc5d58d	0.10040052159987152
52	0xbf8c7514f34fae6b	-0.01389519088294052
53	0xbfb357122e8836e8	-0.07554734836613941
54	0xbfa965410d70491f	-0.049600632563072226
55	0xbfb176a443a3df68	-0.06821657801981262
56	0xbfad75c06c94be57	-0.057538998846550164
57	0x3fafafdcf40a4e8e	0.06188860396391958
58	0xbfa4ebf9897abcb9	-0.04086284449783179
59	0x3f93db1b9efe8088	0.019390517787201605
60	0xbfb5e1468d489cb3	-0.08546868275935786
61	0xbfb35217ba50826b	-0.07547138498967747
62	0x3f9cf62683fd73ea	0.028282739454301188
63	0x3f9bb9f414a94000	0.027076543580108137
64	0x3faecf74196e02fc	0.06017649469777628
65	0xbfa1abe44642a9c8	-0.03451455457373559
66	0x3fb1b793142b89ab	0.06920737497742972
67	0xbfb2d59a7f7f4aa3	-0.07357183087087064
68	0x3faf853cf66a3506	0.06156340129846609
69	0x3fa7c603d6d6da70	0.04643260953473749
70	0x3fa2752811c18259	0.03605008332011001
71	0xbf9f4e77dea2897a	-0.03057277008395818
72	0xbfb15347d2ef0d20	-0.06767701053381758
73	0x3f6918c3e26b4dc9	0.0030635667675171546
74	0xbfa3023c48a7727b	-0.0371264303864551
75	0xbf7399ad08907861	-0.004785228645259294
76	0x3faa5fcd4f1a407b	0.05151216116530662
77	0x3fb1f304730a9914	0.07011440094592941
78	0x3fb37d4637f36ee9	0.07613028398503342
79	0xbfaebd5bf79f636f	-0.06003844640480948
80	0xbf72ed022b3b1d1c	-0.004620560142661458
81	0x3f9e68bcf36eb584	0.029696419103563368
82	0xbfa90f85e09973fb	-0.04894655577366077
83	0x3fb6222ab269c50b	0.08645884376325712
84	0xbfb11dd41cfe0ec2	-0.06686139781782699
85	0xbfb9267a24e2b882	-0.09824336433914208
86	0xbfae5bcc118c9d54	-0.05929410661911541
87	0xbf83ba24b926f406	-0.009632384205241717
88	0xbfa026ef6d011187	-0.03154705243699412
89	0xbfb034924bb0c54a	-0.06330217693245746
90	0x3fb1031f7eab0120	0.06645390360336423
91	0xbf2d6ed1af27f8aa	-0.0002245551073229481
92	0xbfb673494468a34a	-0.08769662780890744
93	0xbf779a0b94422e5b	-0.005762143355365258
94	0x3fad782c3a9d1f85	0.05755747046947505
95	0xbf8aaf63c00bf548	-0.013029841707516213
96	0x3fb8af18c1e2e9e9	0.09642176374010315
97	0xbfabd87beef426a4	-0.054386017722277274
98	0xbfa50a12dc690bf7	-0.041092481046256006
99	0xbfb0dfa33ccfdf30	-0.06591243967693283
100	0x3f93c4cd9148d7f4	0.01930543135878078
101	0x3fb1d335aaf4894d	0.06962905334197451
102	0xbfa13921421e7a0b	-0.0336389916621905
103	0x3fb385aac8d01a18	0.07625834849032065
104	0x3faf25f3902623b7	0.060836421343146645
105	0x3fb787c64e6cc01a	0.09191550650280114
106	0x3fa897361f1c1734	0.048028651521276805
107	0xbf83945a9577b676	-0.009560306249990474
108	0x3faf0cc2c4da61b8	0.0606442323016298
109	0x3fb7437d24b4c799	0.09087354799410576
110	0xbface999e4917687	-0.05646973528994886
111	0x3fb2439551838bde	0.07134373893818188
112	0xbfa672de1bfaa6ee	-0.04384512034932962
113	0xbfab5cd0885354d0	-0.053442494050310096
114	0xbfb90332f798d894	-0.09770506424760789
115	0xbfb25ed7dc4ce286	-0.07175969246316968
116	0xbfadf6849f421832	-0.05852140850133515
117	0xbf762453c142e113	-0.005405738036806679
118	0x3fb62c4e59e7ae8c	0.08661355681368316
119	0xbfb3a42b4775e47f	-0.0767237710441737
120	0x3f5b9d5c7d2e2410	0.001685467072748862
121	0x3fa27fad1a38e1f7	0.036130341959907435
122	0x3facee583d3210e4	0.05650592562690962
123	0x3fa0af09684fa328	0.032585424407278574
124	0x3fb1c72189ae0493	0.0694447480327816
125	0xbfa2f22be418e661	-0.03700387153044172
126	0xbfa0a05fb58c59ec	-0.032473555480624444
127	0xbfa992195f8dda04	-0.049942772783584416
128	0x3e89908881d362b2	1.90470985572999e-07
129	0xbd5e5ee95764ed19	-4.3159428751883924e-13
130	0x3b10dcd7d8198be2	3.487118118954361e-24
131	0x3ae1705a51a39bfe	4.507844348817276e-25
132	0xbe98a378be304f8d	-3.6714317114380344e-07
133	0x3d90389575d2e0d9	3.688235343000243e-12
134	0x3a09c57f29ced028	4.066021284337163e-29
135	0x3d30f60a15eab9c5	6.02579014037001e-14
136	0xbec75e9b120de511	-2.785867892315796e-06
137	0xb95d3f8ecdbac34d	-2.253204973240803e-32
138	0x39a48451867a5a3b	5.057798698072339e-31
139	0x3e2dcbda85d5baa8	3.46874621966808e-09
140	0x3b4fe6b2cc869fd5	5.277605166099357e-23
141	0x3d84ce41965bcbae	2.3653329075567186e-12
142	0xb9a222feb904bcb1	-4.471041561333704e-31
143	0x3901f7177a943415	4.3249650631230615e-34
144	0x3a25ba611ed674c8	1.371232384488182e-28
145	0xb9ac1000ec6d8bdb	-6.917943834234936e-31
146	0xba915658df7f5b33	-1.4004954234240568e-26
147	0x3e9073c052372402	2.4515618887423435e-07
148	0x3e3ce16778f26d2c	6.724261938192676e-09
149	0xbec84e361f4f588c	-2.897442977527084e-06
150	0xbe42e7237f7827f2	-8.802341951701362e-09
151	0xbea1dfc5902d9908	-5.326899386981344e-07
152	0x3e87a91badf174f3	1.7628504786734867e-07
153	0x399330d459a2f8a2	2.365441357937102e-31
154	0xbec2967effeda793	-2.215847416155286e-06
155	0xb9a4f7edd3e83c5f	-5.169127614374844e-31
156	0x3d25815570751b1d	3.8200926777520955e-14
157	0x3ec0e92db9a6670a	2.015930886401021e-06
158	0xba56f9f717709d4f	-1.1600130983165824e-27
159	0x39bf7eda4a12c949	1.552848943818927e-30
160	0xb9a1ffc55afd459f	-4.437121995502998e-31
161	0x3a4e7b160906e4f0	7.694436931039156e-28
162	0xbe9657d7879b3394	-3.3293861854689035e-07
163	0x3d59e29c4db3ef5e	3.678507809829879e-13
164	0xbc28bd87e1dad91d	-6.705886564497636e-19
165	0x3944b9c440874b6f	7.98323030578905e-33
166	0x3b52a20d1203deb9	6.165146491447141e-23
167	0x3d08757b59e6ea35	1.086193954319731e-14
168	0x3da64ffd0fb17c81	1.0146529875340431e-11
169	0x3e640fb6a50169b3	3.7367233419240874e-08
170	0xbd0e67ff5b31a6b5	-1.3503083174623646e-14
171	0x3eda35714ff0bb18	6.248655380721215e-06
172	0xbed583292c90cc63	-5.1289432088540635e-06
173	0x3936bdf312dacdcd	4.37994800358688e-33
174	0x3ea06202a2b24f6b	4.882470582439501e-07
175	0x3e70803aaa4a8c82	6.147062465515917e-08
176	0xba0b4f657bf4792a	-4.308780711510024e-29
177	0xbee19de2d7651d74	-8.400317466196744e-06
178	0xb9d4805855d5335a	-4.043177963584928e-30
179	0xbac21535a8429ebe	-1.1685767918356002e-25
180	0xb955b632eb2d748a	-1.6726096406787243e-32
181	0xbe73dafc49b88c58	-7.396717410143949e-08
182	0x3d53d19df0265824	2.81642317559165e-13
183	0xbee18160db75640c	-8.347217643022243e-06
184	0xb920d1576ea38967	-1.6194894877390915e-33
185	0x39b59c24f013d598	1.0654522341491595e-30
186	0xbd93e77f1db6f888	-4.5257100708447185e-12
187	0x3e7d0843ba08ccf9	1.08153683794216e-07
188	0xbee13e6fec476911	-8.222530035452193e-06
189	0x3ecf0d233cebfe4b	3.7016056703141157e-06
190	0x3ac5c7335d48c726	1.407378504115003e-25
191	0xbd025638aa076847	-8.143175967623935e-15
192	0xb99f8dfed2f68932	-3.8894133110196695e-31
193	0x3b532ee193f9002a	6.347165139879916e-23
194	0x3a920be5a7a1f0b4	1.4577824799005e-26
195	0x3e8416fa0bd066c2	1.4968032316445521e-07
196	0xb9b2db3a013bc963	-9.296900221310744e-31
197	0x3eb5127da50fa6ce	1.2560027651216607e-06
198	0xbe2cd1aa10c610f7	-3.3549733045430433e-09
199	0xba8f575f2f923fb7	-1.265864871311647e-26
200	0x3e8d07c7a77e03fc	2.1629326218619496e-07
201	0x3bfb22886dd69283	9.193659777354239e-20
202	0x3c920bfb6f635bce	6.261243379776511e-17
203	0x39cfe6f1514a1097	3.145791879446232e-30
204	0x3d85ba7eeca973aa	2.470244364027578e-12
205	0xb9d20cb0d8202df0	-3.559650708507724e-30
206	0xb9f6e64dbdae683a	-1.8064617906953323e-29
207	0xbe68ed98ddb9eaae	-4.643223025249523e-08
208	0x3c3441434a28834b	1.098022118597668e-18
209	0x3e83a6826e530e2d	1.4640709548016553e-07
210	0x3ad48abf7bf8b91e	2.654989245501846e-25
211	0xb9a6b64c40c705dd	-5.59896518037865e-31
212	0xba230e1f0b0fa3ab	-1.2025497359176183e-28
213	0xbe6409375271c6bc	-3.731995895033687e-08
214	0x3bba9a101178b74f	5.63315189079633e-21
215	0xbe8237cde39c4efe	-1.3573456830088496e-07
216	0x3d8c3ae486ac9dd4	3.2093850599175158e-12
217	0xbeb1cc27bd5457f9	-1.0608125554137876e-06
218	0xb92301d0e1c4aa0b	-1.8303165297373803e-33
219	0xb980d091bffb6b77	-1.036287372655916e-31
220	0x3e42ea5fb3186f85	8.80822667846536e-09
221	0xb98d682fbfc1f333	-1.8123449806622165e-31
222	0xbe8008db5763e88e	-1.1946705642097089e-07
223	0xbeb29180ab180e8e	-1.1067610724565643e-06
224	0xbedf01c33ad65d4b	-7.392617516719625e-06
225	0xba41fb772dd19b9b	-4.539367494146548e-28
226	0xbe8d4d684269c090	-2.1831968518042123e-07
227	0xbe62f397dc679e1e	-3.529998653437132e-08
228	0xbb2321a6b0ed76f9	-7.912582163556354e-24
229	0x3d11fe3b471c52b9	1.5981076024366346e-14
230	0x3a034b1a4dc63e21	3.0439570826151376e-29
231	0x3bbbbd474696de98	5.874039834074717e-21
232	0xb964cc9cbc38dc63	-3.204634427758832e-32
233	0x3a5420d0ab1919f6	1.0162135981755089e-27
234	0xbe844c24bd366645	-1.5122767980657504e-07
235	0x398da74bca2c404e	1.8275380483072702e-31
236	0x3e5e4f9d49249b73	2.8229312728666854e-08
237	0xbe86fdc9726599d9	-1.712989440946794e-07
238	0xbe1ce074fa339681	-1.680850105633941e-09
239	0x3a6702eb244046b4	2.323557658883669e-27
240	0xbe9b84537a65d298	-4.1003374420056163e-07
241	0x3e3834c6016f205e	5.63593262939543e-09
242	0xb98081e39e4855db	-1.0173458030919157e-31
243	0xb995311c94ebe7ed	-2.612096243324549e-31
244	0x3a3e82e3f7b476f6	3.85106634323229e-28
245	0xbe9b83d0fb8f5aba	-4.10004072968187e-07
246	0xbdc450348db3d6a6	-3.694968091287241e-11
247	0xb9c73633d2850a49	-2.2888531195045338e-30
248	0x39766810a3064283	6.904537076552987e-32
249	0xb957006e72e6282c	-1.7719853808054129e-32
250	0x3dbbb306c6d04d57	2.5192386740812394e-11
251	0xbbb140228e219b28	-3.652941238908159e-21
252	0x3a438038ce0f00fc	4.922710853158236e-28
253	0xb963889d94dc63b1	-3.00963601040264e-32
254	0x38d854b3d3b5451a	7.321804541939377e-35
255	0xbbaa38ad720d6df4	-2.7762983520743327e-21

fc1.bias f8 [64]
0	0x3fb45095ea5a3f9d	0.07935463878152267
1	0xba9f31b13a957dc4	-2.5198401826914722e-26
2	0x3facfc914e819ba3	0.05661443789795519
3	0xbfb12edc925a98ab	-0.06712130139439647
4	0x3fa358f8daf113f6	0.037788178182871876
5	0xbe3491cb22b669b0	-4.789211287444669e-09
6	0x3faec63b3e5e4ca0	0.06010613571484069
7	0xbeb18dcd49c3dc3b	-1.0462947904169056e-06
8	0x3f8de349074d5ef4	0.01459366849455488
9	0x3f8dbdb8d7d1f807	0.01452202232962564
10	0xbcf193baee59eacf	-3.902893806274969e-15
11	0x3f73aa7b5223a502	0.004801255914778981
12	0x3fa178ba802724d9	0.034124210494675906
13	0x3f80717e02ad6f73	0.008028969246588002
14	0x3f7494c4b46c9d89	0.005024689081245434
15	0x3f93319d13218f01	0.01874394826189896
16	0x3f8dfc90768274d0	0.014641884438157865
17	0x3f714ff6fcdf6b80	0.004226650997192105
18	0x3fab1ae6959bc552	0.05293961120868097
19	0x3f9e5b31063f8e6b	0.029644742971767373
20	0xbeb70ff2c4076896	-1.3746200836413166e-06
21	0xbfa18dff734dcd32	-0.03428648264425717
22	0x3f9be97e7c1000a1	0.02725789673058954
23	0xbf135af1181eea06	-7.383438608502693e-05
24	0xbf8b07a7042e527a	-0.013198189559070917
25	0xb982f40a922ea184	-1.1680864522140836e-31
26	0xbf8dfa54fd2980f9	-0.014637626624960808
27	0xbe66aadb78c897dc	-4.2221343841527225e-08
28	0xbfa371063a42f238	-0.037971682178497834
29	0x3f7d54fd642c4061	0.007161130723730564
30	0x3fafe98480e3cd26	0.062328472837089685
31	0x3fb0135d0bc92071	0.06279546296821238
32	0xbf1209d6af9d6419	-6.881115760161461e-05
33	0xbf91a6ab071934b2	-0.01723735075784267
34	0xbf4009e3f917319f	-0.0004894602918113395
35	0x3fa479bb5c6516e7	0.03999124052874752
36	0x3fa18302716f108a	0.03420264849367623
37	0xbebd863313a1077f	-1.7597804587020272e-06
38	0x3f782f0b777fe96f	0.005904240410013236
39	0xbf6ff481d3547c26	-0.0039007697729540767
40	0xbe529297b504a483	-1.729710713650108e-08
41	0x3fb04e8c4b30a7fd	0.06369854770369439
42	0xbbadcec32d11d1b7	-3.1560093608101127e-21
43	0x3fb0c55e4821533b	0.06551160107603675
44	0xbea2dd4a84481f78	-5.622034753857899e-07
45	0x3f90e199a64b5ded	0.016485596442036444
46	0xb9f182d3f57428e7	-1.3813780178483726e-29
47	0xbe348dd7771da3fd	-4.785617112531886e-09
48	0x3b7ca8a0488b8d6a	3.7929467982625525e-22
49	0x3fa8a7ea46207d40	0.0481560907940044
50	0xbf9d3c4cc969d521	-0.02855033854799161
51	0xba5090cea15d2c1f	-8.363517417486773e-28
52	0x3fb0ad6985c3ab78	0.06514606013995017
53	0x3fa44a656c7188ce	0.03963009785435788
54	0xbedbf48cba68c2fd	-6.665056310015775e-06
55	0xbf60ff127683d7aa	-0.002074752865264669
56	0x3f8dc9de2cb6f7ca	0.014545188655457415
57	0x3fad1a05e302b31d	0.05683916469693016
58	0xbec1d704eefa52fe	-2.1266840731316624e-06
59	0x3fa9c22a74d8a52f	0.05030949283929897
60	0xbe6ac4f84e048b5f	-4.9861918818033994e-08
61	0x3fa9387b28318388	0.049259041458532826
62	0x3fb5f28fbe45411b	0.08573244471813661
63	0x3face76e2f59c39d	0.056453173904521516

bn1_fc.weight f8 [64]
0	0x3ff0000000000000	1.0
1	0x3ff0000000000000	1.0
2	0x3ff0000000000000	1.0
3	0x3ff0000000000000	1.0
4	0x3ff0000000000000	1.0
5	0x3ff0000000000000	1.0
6	0x3ff0000000000000	1.0
7	0x3ff0000000000000	1.0
8	0x3ff0000000000000	1.0
9	0x3ff0000000000000	1.0
10	0x3ff0000000000000	1.0
11	0x3ff0000000000000	1.0
12	0x3ff0000000000000	1.0
13	0x3ff0000000000000	1.0
14	0x3ff0000000000000	1.0
15	0x3ff0000000000000	1.0
16	0x3ff0000000000000	1.0
17	0x3ff0000000000000	1.0
18	0x3ff0000000000000	1.0
19	0x3ff0000000000000	1.0
20	0x3ff0000000000000	1.0
21	0x3ff0000000000000	1.0
22	0x3ff0000000000000	1.0
23	0x3ff0000000000000	1.0
24	0x3ff0000000000000	1.0
25	0x3ff0000000000000	1.0
26	0x3ff0000000000000	1.0
27	0x3ff0000000000000	1.0
28	0x3ff0000000000000	1.0
29	0x3ff0000000000000	1.0
30	0x3ff0000000000000	1.0
31	0x3ff0000000000000	1.0
32	0x3ff0000000000000	1.0
33	0x3ff0000000000000	1.0
34	0x3ff0000000000000	1.0
35	0x3ff0000000000000	1.0
36	0x3ff0000000000000	1.0
37	0x3ff0000000000000	1.0
38	0x3ff0000000000000	1.0
39	0x3ff0000000000000	1.0
40	0x3ff0000000000000	1.0
41	0x3ff0000000000000	1.0
42	0x3ff0000000000000	1.0
43	0x3ff0000000000000	1.0
44	0x3ff0000000000000	1.0
45	0x3ff0000000000000	1.0
46	0x3ff0000000000000	1.0
47	0x3ff0000000000000	1.0
48	0x3ff0000000000000	1.0
49	0x3ff0000000000000	1.0
50	0x3ff0000000000000	1.0
51	0x3ff0000000000000	1.0
52	0x3ff0000000000000	1.0
53	0x3ff0000000000000	1.0
54	0x3ff0000000000000	1.0
55	0x3ff0000000000000	1.0
56	0x3ff0000000000000	1.0
57	0x3ff0000000000000	1.0
58	0x3ff0000000000000	1.0
59	0x3ff0000000000000	1.0
60	0x3ff0000000000000	1.0
61	0x3ff0000000000000	1.0
62	0x3ff0000000000000	1.0
63	0x3ff0000000000000	1.0

bn1_fc.bias f8 [64]
0	0x0000000000000000	0.0
1	0x0000000000000000	0.0
2	0x0000000000000000	0.0
3	0x0000000000000000	0.0
4	0x0000000000000000	0.0
5	0x0000000000000000	0.0
6	0x0000000000000000	0.0
7	0x0000000000000000	0.0
8	0x0000000000000000	0.0
9	0x0000000000000000	0.0
10	0x0000000000000000	0.0
11	0x0000000000000000	0.0
12	0x0000000000000000	0.0
13	0x0000000000000000	0.0
14	0x0000000000000000	0.0
15	0x0000000000000000	0.0
16	0x0000000000000000	0.0
17	0x0000000000000000	0.0
18	0x0000000000000000	0.0
19	0x0000000000000000	0.0
20	0x0000000000000000	0.0
21	0x0000000000000000	0.0
22	0x0000000000000000	0.0
23	0x0000000000000000	0.0
24	0x0000000000000000	0.0
25	0x0000000000000000	0.0
26	0x0000000000000000	0.0
27	0x0000000000000000	0.0
28	0x0000000000000000	0.0
29	0x0000000000000000	0.0
30	0x0000000000000000	0.0
31	0x0000000000000000	0.0
32	0x0000000000000000	0.0
33	0x0000000000000000	0.0
34	0x0000000000000000	0.0
35	0x0000000000000000	0.0
36	0x0000000000000000	0.0
37	0x0000000000000000	0.0
38	0x0000000000000000	0.0
39	0x0000000000000000	0.0
40	0x0000000000000000	0.0
41	0x0000000000000000	0.0
42	0x0000000000000000	0.0
43	0x0000000000000000	0.0
44	0x0000000000000000	0.0
45	0x0000000000000000	0.0
46	0x0000000000000000	0.0
47	0x0000000000000000	0.0
48	0x0000000000000000	0.0
49	0x0000000000000000	0.0
50	0x0000000000000000	0.0
51	0x0000000000000000	0.0
52	0x0000000000000000	0.0
53	0x0000000000000000	0.0
54	0x0000000000000000	0.0
55	0x0000000000000000	0.0
56	0x0000000000000000	0.0
57	0x0000000000000000	0.0
58	0x0000000000000000	0.0
59	0x0000000000000000	0.0
60	0x0000000000000000	0.0
61	0x0000000000000000	0.0
62	0x0000000000000000	0.0
63	0x0000000000000000	0.0

bn1_fc.running_mean f8 [64]
0	0x0000000000000000	0.0
1	0x0000000000000000	0.0
2	0x0000000000000000	0.0
3	0x0000000000000000	0.0
4	0x0000000000000000	0.0
5	0x0000000000000000	0.0
6	0x0000000000000000	0.0
7	0x0000000000000000	0.0
8	0x0000000000000000	0.0
9	0x0000000000000000	0.0
10	0x0000000000000000	0.0
11	0x0000000000000000	0.0
12	0x0000000000000000	0.0
13	0x0000000000000000	0.0
14	0x0000000000000000	0.0
15	0x0000000000000000	0.0
16	0x0000000000000000	0.0
17	0x0000000000000000	0.0
18	0x0000000000000000	0.0
19	0x0000000000000000	0.0
20	0x0000000000000000	0.0
21	0x0000000000000000	0.0
22	0x0000000000000000	0.0
23	0x0000000000000000	0.0
24	0x0000000000000000	0.0
25	0x0000000000000000	0.0
26	0x0000000000000000	0.0
27	0x0000000000000000	0.0
28	0x0000000000000000	0.0
29	0x0000000000000000	0.0
30	0x0000000000000000	0.0
31	0x0000000000000000	0.0
32	0x0000000000000000	0.0
33	0x0000000000000000	0.0
34	0x0000000000000000	0.0
35	0x0000000000000000	0.0
36	0x0000000000000000	0.0
37	0x0000000000000000	0.0
38	0x0000000000000000	0.0
39	0x0000000000000000	0.0
40	0x0000000000000000	0.0
41	0x0000000000000000	0.0
42	0x0000000000000000	0.0
43	0x0000000000000000	0.0
44	0x0000000000000000	0.0
45	0x0000000000000000	0.0
46	0x0000000000000000	0.0
47	0x0000000000000000	0.0
48	0x0000000000000000	0.0
49	0x0000000000000000	0.0
50	0x0000000000000000	0.0
51	0x0000000000000000	0.0
52	0x0000000000000000	0.0
53	0x0000000000000000	0.0
54	0x0000000000000000	0.0
55	0x0000000000000000	0.0
56	0x0000000000000000	0.0
57	0x0000000000000000	0.0
58	0x0000000000000000	0.0
59	0x0000000000000000	0.0
60	0x0000000000000000	0.0
61	0x0000000000000000	0.0
62	0x0000000000000000	0.0
63	0x0000000000000000	0.0

bn1_fc.running_var f8 [64]
0	0x3ff0000000000000	1.0
1	0x3ff0000000000000	1.0
2	0x3ff0000000000000	1.0
3	0x3ff0000000000000	1.0
4	0x3ff0000000000000	1.0
5	0x3ff0000000000000	1.0
6	0x3ff0000000000000	1.0
7	0x3ff0000000000000	1.0
8	0x3ff0000000000000	1.0
9	0x3ff0000000000000	1.0
10	0x3ff0000000000000	1.0
11	0x3ff0000000000000	1.0
12	0x3ff0000000000000	1.0
13	0x3ff0000000000000	1.0
14	0x3ff0000000000000	1.0
15	0x3ff0000000000000	1.0
16	0x3ff0000000000000	1.0
17	0x3ff0000000000000	1.0
18	0x3ff0000000000000	1.0
19	0x3ff0000000000000	1.0
20	0x3ff0000000000000	1.0
21	0x3ff0000000000000	1.0
22	0x3ff0000000000000	1.0
23	0x3ff0000000000000	1.0
24	0x3ff0000000000000	1.0
25	0x3ff0000000000000	1.0
26	0x3ff0000000000000	1.0
27	0x3ff0000000000000	1.0
28	0x3ff0000000000000	1.0
29	0x3ff0000000000000	1.0
30	0x3ff0000000000000	1.0
31	0x3ff0000000000000	1.0
32	0x3ff0000000000000	1.0
33	0x3ff0000000000000	1.0
34	0x3ff0000000000000	1.0
35	0x3ff0000000000000	1.0
36	0x3ff0000000000000	1.0
37	0x3ff0000000000000	1.0
38	0x3ff0000000000000	1.0
39	0x3ff0000000000000	1.0
40	0x3ff0000000000000	1.0
41	0x3ff0000000000000	1.0
42	0x3ff0000000000000	1.0
43	0x3ff0000000000000	1.0
44	0x3ff0000000000000	1.0
45	0x3ff0000000000000	1.0
46	0x3ff0000000000000	1.0
47	0x3ff0000000000000	1.0
48	0x3ff0000000000000	1.0
49	0x3ff0000000000000	1.0
50	0x3ff0000000000000	1.0
51	0x3ff0000000000000	1.0
52	0x3ff0000000000000	1.0
53	0x3ff0000000000000	1.0
54	0x3ff0000000000000	1.0
55	0x3ff0000000000000	1.0
56	0x3ff0000000000000	1.0
57	0x3ff0000000000000	1.0
58	0x3ff0000000000000	1.0
59	0x3ff0000000000000	1.0
60	0x3ff0000000000000	1.0
61	0x3ff0000000000000	1.0
62	0x3ff0000000000000	1.0
63	0x3ff0000000000000	1.0

fc2.weight f8 [64, 64]
0	0xbf9ad42281080c8c	-0.026199854970411482
1	0x3e7d72e54c7c9d5e	1.0970537111782446e-07
2	0x3fb27a8ea41bca2b	0.07218257433468327
3	0x3fab6f69cf649227	0.05358439118052543
4	0x3f99ecede18475e5	0.025317875756732184
5	0xbf239979f50c948e	-0.0001495324491084565
6	0x3f443e4265737b71	0.0006177734566355908
7	0xbf33b3f9e509eba1	-0.00030064440674209587
8	0xbfa5cadaadb5ca93	-0.04256327982411281
9	0x3fa1ecc8020f622d	0.03500962281367879
10	0xbda38de7199edc45	-8.892269560136416e-12
11	0x3f8552a1edc15e51	0.010411515300957993
12	0x3f82d1f20d16dc78	0.009189501785711082
13	0xbfa64b609eb73150	-0.04354383408972018
14	0xbfb01081e11b60ed	-0.06275188203597155
15	0xbf854ac4f5431b71	-0.010396517500692789
16	0xbf7c2bea09889abe	-0.0068778173522676105
17	0xbf93615a32b5037b	-0.018926057190813843
18	0x3fb0290da931bea6	0.06312642460556592
19	0x3fa6ec05d6602510	0.04476946107758739
20	0x3dd5b69bda76bb07	7.899258210731701e-11
21	0xbfbdcdf8c0c9ecb4	-0.11642412859684975
22	0xbf306eadc46037b6	-0.0002507375942294403
23	0x3b231c1ca2695291	7.903632967596049e-24
24	0xbf933f08daf42e32	-0.01879514538181421
25	0x39d954804a9cc8e6	4.995477966816635e-30
26	0xbf6f0df8cd1bc213	-0.0037908419989138935
27	0xbf33b68261d4cd1a	-0.0003007953944973038
28	0xbf4033be87be2af3	-0.0004944496463264711
29	0xbf88ac7c0587565b	-0.012047737997742993
30	0xbf8e43fa996467a8	-0.014778096967848445
31	0xbfb24ec662c35c40	-0.07151451026162281
32	0xbef532950e2651e5	-2.0215594199139964e-05
33	0xbf70122f4f2df80f	-0.003923592378553677
34	0xbe2432607744d3e9	-2.351215161933557e-09
35	0xbfb9e836aeae2a0c	-0.10119954838425133
36	0x3fb9c5a73f849af2	0.10067220020992432
37	0xbcea81aca41aec94	-2.9428171614164507e-15
38	0x3fa47690654bd7ff	0.03996707188154857
39	0xbf68f4e75803c2a0	-0.0030464666780221777
40	0xbad0eed88cb2d8c1	-2.188537893257394e-25
41	0x3fb6cb11c8c78567	0.0890360942062408
42	0xbf0eac269992d548	-5.8503082251896434e-05
43	0x3fb9fa81b08bf559	0.10147867737028572
44	0xbee931640a70d475	-1.2012926459895591e-05
45	0xbfb66f549f73bbe5	-0.0876362695014304
46	0x39a364511eefe97d	4.780463264685511e-31
47	0x3ee4f8f04813dc5b	1.0000427439467248e-05
48	0xbf30fd45541196d6	-0.0002592367419026303
49	0xbfb12bde2824128a	-0.06707561950686106
50	0xbf3b177abde7f49f	-0.00041338678957443005
51	0xbee75d54ea571a14	-1.1141098478340202e-05
52	0xbf63b639da8796e3	-0.0024062280610789174
53	0xbfb0f0359fe27cc8	-0.06616530564723455
54	0x3eeb07e235d65f49	1.2889287684100493e-05
55	0x3f8ba5068f81c3b6	0.013498355154497915
56	0xbd8b2e3bdf1d408a	-3.090076582702893e-12
57	0x3f9b5017e35fc2e1	0.026672719242870072
58	0x3dfdf085e6177eb1	4.3567769365449117e-10
59	0x3fb7d4f7280ac7b1	0.09309334495153966
60	0x3f3e0a939b5fb351	0.0004583940857390461
61	0x3fac91dec7b59c42	0.0558004015718372
62	0xbfb3826cb23a877f	-0.07620887137684738
63	0xbfaf49243f6dde53	-0.06110490106851487
64	0xbee022e7bcc62c99	-7.694410577815859e-06
65	0xbadce148b0eb632e	-3.732654508172375e-25
66	0xbf10121835c1d72e	-6.130478635832097e-05
67	0x3cc96e3cf2a6a35f	7.058414267087714e-16
68	0xbe92ab3c0317cfe3	-2.7818805667313726e-07
69	0x3a0b6edfcaa0a2b3	4.328180380707581e-29
70	0xbbb6e709d15c8d80	-4.8497916544808805e-21
71	0x39a49c72bbcf972f	5.081034773265867e-31
72	0xbed5c8a5c2cfbc0e	-5.193657710996479e-06
73	0x3f164d63fefb0703	8.507654978997738e-05
74	0x3f2b7ebc06fcab86	0.00020977063422241928
75	0xbe443ef86c529a6a	-9.427768241717335e-09
76	0xbf148f0dcb9eb874	-7.842561436064035e-05
77	0xbf273c779b091b89	-0.0001772781374873268
78	0x3f1fe9424164ddfa	0.00012173144236703867
79	0xbf252c6959845f7a	-0.00016154085165775626
80	0xbed49b3b3aeffbe4	-4.912942059397626e-06
81	0xbf01d44a9cf096f0	-3.400662136980408e-05
82	0x3b002a3fedef9d3a	1.671425752879757e-24
83	0xbec7f5fa5ebd3e7f	-2.8563560955720026e-06
84	0x3dcb6eb1fd8a0c28	4.989925113073855e-11
85	0xbee05eb9a70b3181	-7.805833975104523e-06
86	0xbf1161b91bbd602c	-6.630604087598584e-05
87	0x3db29fc5583cfae1	1.6938524814442703e-11
88	0x3f16f8ce6e03358a	8.763084361192698e-05
89	0xbef0d0e9170ac746	-1.603704135062021e-05
90	0xbea65c0a04c67d88	-6.663658580936146e-07
91	0xbe67b059a47e9ffa	-4.4123954767120005e-08
92	0x3e8543639fd1064e	1.5842347514572028e-07
93	0xbed2ab6bf649180c	-4.451183347747519e-06
94	0x3ea239f661e21b76	5.431895180465168e-07
95	0xbe829c0dfc83287b	-1.386522383627737e-07
96	0xb93767f070f30a75	-4.507834052902616e-33
97	0x39b8b2b55b75a3d6	1.2177093488826154e-30
98	0xbe3bcba6fb66cfca	-6.471648042483237e-09
99	0xbe93fe7cb26e38c5	-2.979351613690484e-07
100	0x3f36933e23b8648d	0.00034446971014429826
101	0xbf2ba5dd964c6345	-0.00021093683167163805
102	0x3999a8be1ce82d16	3.1627345313411304e-31
103	0xbf383ff525a906e2	-0.0003700231078803529
104	0xbd44ddac8d8cd0eb	-1.4826123758922423e-13
105	0xbef048e29913a108	-1.5530307398232474e-05
106	0x3c4759ae1bd33a39	2.5316460015381855e-18
107	0xbee8a8ae772bc7e6	-1.1758285585614742e-05
108	0xbbb20804f2d22619	-3.818281697072409e-21
109	0xbe5ec63f9c0c92c6	-2.866090098858157e-08
110	0x3ea90d7db6204e11	7.466286258160991e-07
111	0x3eb94a8def9ec3ef	1.5074746770699832e-06
112	0x3f3e8ad2db799049	0.0004660382069003916
113	0x3b057eff4b93e651	2.22264288751472e-24
114	0xb9eb760b9a136d1b	-1.0831499833382267e-29
115	0x3dc25a6dd02d3c7b	3.3384345654315096e-11
116	0xbe3bf35f48ded26f	-6.507773110264715e-09
117	0x3ee9ac222efcae87	1.2241552638756675e-05
118	0xb9c04cec9524abfc	-1.607351915515441e-30
119	0xbb0607b35a98f085	-2.2778569325589166e-24
120	0xbf291d314c476abd	-0.00019160486966892333
121	0xbb4617fa62e42ddf	-3.655090160733062e-23
122	0x3eb166dd875417e4	1.037229165946803e-06
123	0xb981842210498419	-1.0795157671050086e-31
124	0xbed7c21b664924e8	-5.6644035778066296e-06
125	0xba012545a2e4fbbf	-2.705097731602888e-29
126	0xbf227bf3d048e666	-0.00014102317085633586
127	0xbeb0f72910ff32c8	-1.011220835056536e-06
128	0x3fbdb4cb11ce687c	0.11603993591998746
129	0x3dfe720a2a23a7a4	4.4303986359718323e-10
130	0x3fba3437f2a31030	0.10235929178003356
131	0x3fbbacdc3154c190	0.10810638622638735
132	0xbfb8296787512153	-0.09438178113589872
133	0xba1f8cb981d84300	-9.955331732465664e-29
134	0xbf68b3ccce428e81	-0.003015422831667725
135	0x3f0d612e3048817e	5.603716093483239e-05
136	0x3faa7424ed01ef2c	0.05166736024054183
137	0xbfaad7e114ef5192	-0.05242827778389193
138	0xbeac17a188015364	-8.372160351747103e-07
139	0xbfba9ff3de650006	-0.10400318316987986
140	0xbfa6c12d0a15fdd9	-0.04444256542319253
141	0x3fb67babcf2ec0d3	0.08782457168740913
142	0x3f8bdfaa9f76ec43	0.013610203734847675
143	0xbfa28f9880bc2dcd	-0.036251798357706734
144	0xbf702b48b128206f	-0.003947528794476892
145	0x3fa09f27b686b969	0.03246425726989594
146	0x3f91843d188c3b9d	0.01710601293876445
147	0x3fb3744277ca808a	0.07599273132882636
148	0xbe603fda6a6dad04	-3.026691546597307e-08
149	0xbfa8e90d35e84179	-0.048653042631602035
150	0x3f59094fd213d456	0.0015280990122026514
151	0x3e8670f6aa5d0e04	1.6720044476214784e-07
152	0x3f5e9c15fb7cc5ad	0.0018682684585197104
153	0x3f3a0fd711dfa636	0.00039767266014098816
154	0x3fb75731af0ea5e6	0.09117422603471645
155	0xbedfcda374653db1	-7.582491724569317e-06
156	0x3f45b18d93037653	0.0006620351105330414
157	0x3fb7b7797d6b4f89	0.09264334976188428
158	0x3fb08b44323763d2	0.06462503648744125
159	0x3fa09ccf29ffa655	0.03244635951689349
160	0x3ef80ce20fe40f7f	2.2936176713464047e-05
161	0x3f9df2576b47e09e	0.029244771883867864
162	0x3f44c4fa47e6071a	0.0006338331293564731
163	0x3fbdff2b3810bc71	0.11717481726440028
164	0x3fbf0b1e5e1d5d64	0.1212634067318184
165	0x3be7cf1571fe455b	4.0333881015738944e-20
166	0xbfa572e113eeec61	-0.04189208381964061
167	0xbf83fda4b9030b97	-0.0097611302338743
168	0x3f40b698c43014a3	0.0005100484780774694
169	0xbf33530de673f59e	-0.000294867414097977
170	0x3b1c629e900b44a3	5.869928393003609e-24
171	0x3fbc6add4895badd	0.11100562116710529
172	0xbca25bdd207287aa	-1.2739006291782543e-16
173	0xbf6c887016ff2ba9	-0.0034830273870957895
174	0x3e98ee64808fa600	3.7150414350251167e-07
175	0xbc147da41bb7b2e0	-2.777019248169923e-19
176	0x3bffd62038d1b3e0	1.0786601771267606e-19
177	0xbfb43f2fd0ca3ec6	-0.07908915374195677
178	0xbf759496f69e519c	-0.005268659306143422
179	0xbf24f435e4a03277	-0.00015986593126661775
180	0x3fc123720f5ea258	0.13389421225044162
181	0x3fb38eb6e8446539	0.0763964001711387
182	0xbd5200ac62b540f3	-2.558327650373166e-13
183	0xbf88d8c5dbe5c3df	-0.012132211468925234
184	0xbf60ec7de6dfade7	-0.002065893079807191
185	0x3fa90229a2dd31f0	0.0488446246441504
186	0xbd8824a35307bcae	-2.7447546394346456e-12
187	0xbf7f0b1b46360d65	-0.007578951397025112
188	0xb9a367c954cd9848	-4.783804340921783e-31
189	0x3fa76c346e6592cf	0.04574741218201483
190	0x3fbb25712fbb982e	0.10604007163382853
191	0x3fbeee63d8cbcc23	0.12082504313347946
192	0x3fbb410ce92b69ba	0.10646134083382366
193	0xbee3381c0ad47082	-9.16441816883212e-06
194	0xbf950cdadfef0189	-0.020556850354979814
195	0x3fb56f3a4301c5d8	0.08372844825659997
196	0x3fa0c8689fd39724	0.03277899695403466
197	0xbef35c4ac0ac36ea	-1.846362651307987e-05
198	0xbf776b9e065edebe	-0.005717866215426857
199	0x3ead37ac567cecf2	8.707485621215314e-07
200	0xbf8ed2098272b83b	-0.015049051564656071
201	0x3fa868b16190964c	0.04767374340034944
202	0x3f426cb883f5e17a	0.0005622769312330488
203	0x3fb79804e1dcd53d	0.09216337694382033
204	0x3fb6b133eb7fd640	0.0886414003324143
205	0xbf8e930313c27753	-0.014928840675846244
206	0xbf97345ff6b52c3c	-0.022660731728404424
207	0xbfb20c562af2b2ed	-0.07050074146782111
208	0x3f7bb84e934f33db	0.006767565665495713
209	0x3fa12a4a8acada70	0.03352578109973059
210	0x3fb25b510496f108	0.0717058788495174
211	0x3fb80d7f2d22c629	0.09395594455670477
212	0x39cf9acd228fed6f	3.1164633028746558e-30
213	0x3fb72b906a7b6d71	0.09050848579084005
214	0xbf7a8e6d18b5410c	-0.0064834844191212875
215	0xbed811d570ff0b5e	-5.73865487746541e-06
216	0xbfb3c3958e98a164	-0.077203128160027
217	0xbf3a9ccde814146f	-0.00040607478156601864
218	0xbfb420c8b85afdb6	-0.0786252451025494
219	0x3ea89890372813bb	7.33016447818626e-07
220	0x3f7b7ba234f5213c	0.006709703083579929
221	0x3fb3e22c2d982010	0.07766986954823119
222	0xbfa0ed12462a1414	-0.03305871111391681
223	0x3f96bd410c517e06	0.022206322075701855
224	0xbf0f6ad297cb2b36	-5.9923698221794904e-05
225	0x3fa5d0cc67d8fd07	0.04260863082572013
226	0x3f4230b1a689faee	0.0005551211771289402
227	0x3fa5bacfbadf8d28	0.042440883218456016
228	0x3f970c6f6daf9208	0.02250837428063515
229	0xbec306d96a49c8f2	-2.268165945112503e-06
230	0x3f98c0fe906067c9	0.02417371517376646
231	0xbfa548d81365013b	-0.041571380965708525
232	0x39f95bb01da08f5a	2.0004057946430558e-29
233	0x3fb0b63e1eb4a166	0.06528080224655283
234	0x3ef922e81d751410	2.3971895499092703e-05
235	0x3fa9bdef46c4d3fc	0.05027721156003648
236	0xbe61e6aecc97b958	-3.3343405879978846e-08
237	0x3fbcdd81c62f3306	0.11275492752538349
238	0xbec131c1cb0faf87	-2.0497278332333628e-06
239	0xb9f2338f3c53b532	-1.4358376313889143e-29
240	0xbebadc890e8a4404	-1.6010681581949638e-06
241	0xbfb5a9d6e661e06f	-0.08462279438561081
242	0x3f96c06bd590f299	0.022218403730436796
243	0x3ef97a9bea3beee3	2.4298612188096847e-05
244	0xbfb1fc048aa4e433	-0.07025173554292578
245	0xbfb5097ea619f620	-0.08217612796030282
246	0xbdaa4c724185a1bf	-1.1959227052724881e-11
247	0x3fb10f7362a4ee41	0.06664200933749333
248	0xbf8575452d0e8255	-0.010477581441422116
249	0xbfabdb5916cbebf3	-0.05440786746290618
250	0x3dff8c64fb47ca1b	4.5908987313140647e-10
251	0x3f9d9c7ebe957cbb	0.02891729391319296
252	0x3e7a6628939ea5a3	9.83441496282189e-08
253	0xbfb24f98ccce76af	-0.07152705192717222
254	0x3fbc8d8b0096c43b	0.11153477444055764
255	0x3f8634eecfb2ce72	0.01084314891190916

fc2.bias f8 [64]
0	0x3fbbc415ca1eb6e5	0.10846077141351491
1	0xbee3141b400c15db	-9.097357180030727e-06
2	0xbf944f1e1c3b1509	-0.019833059762068426
3	0x3fbe55744e7212c5	0.11849142947364573
4	0x3fa8a34dec208278	0.04812091357621723
5	0xbfb0e59006b9f0bb	-0.06600284733025578
6	0x3fad5c37667d030e	0.057344180355817995
7	0xbfa7570b5aa22c55	-0.0455859707008918
8	0x3fadbd7206113a03	0.05808597873748413
9	0xbfb802f137f7310f	-0.09379489532802075
10	0xbf9e00f2d830a356	-0.029300493664922676
11	0xbf9b7b74f6d1dfd5	-0.026838138165174847
12	0xbf6567cac50f3f42	-0.002612968477912065
13	0xbf0e01bcf3f1869e	-5.723340881825838e-05
14	0xbea0f9830b9f5d1b	-5.058841658867309e-07
15	0xbf9d6d965c37bddd	-0.02873835504391119
16	0xbfa7e544d6158f65	-0.0466710578282619
17	0xba853ea3373516f3	-8.58065709931208e-27
18	0x3f9cd7d58ddc2b17	0.028167092116784333
19	0x3fad786adf46e8dc	0.05755933738278582
20	0xb9aaabedd64a1a37	-6.575056508782151e-31
21	0x3fb1f12a43813163	0.07008613727629646
22	0x3fb6a50628848709	0.08845556725693994
23	0x3fbfebc6f7420993	0.12469142471858267
24	0xbfa5b5b14293781d	-0.04240182817169134
25	0xbfac55fd4b18c2a1	-0.05534354726512914
26	0x3fb147f5201cb3b6	0.06750423463809238
27	0xbe3cbda805e97e52	-6.691749458888115e-09
28	0x3fb5f7d5db151520	0.08581291769686006
29	0x3fa88c070dccc766	0.04794332545715356
30	0x3fb0eab1c85bf01b	0.06608115331249602
31	0x3f9838fb7c39bd61	0.02365487046921311
32	0x3fa8338f2cb355fe	0.04726836605702188
33	0xbf77cdb28706ecd8	-0.005811402676438614
34	0xbf13587b2134afc2	-7.37977173243523e-05
35	0xbf4ca2fff5922117	-0.0008739232827262047
36	0x3faaea8723fd4794	0.05257055582354933
37	0x3fb696e7fcc42c7c	0.08824014588405932
38	0xbf2a3e7b2d1bc0ed	-0.00020022634139805294
39	0xbdf428683d545ab9	-2.9333518715555135e-10
40	0x3fb3bf678b7e0aa5	0.07713935046744298
41	0xbf2834eca56284da	-0.00018468273873842902
42	0xbfb35de854a68228	-0.07565166536961299
43	0x3fae37d0050ff453	0.05901956617160722
44	0x3fb3c3d461280ef5	0.07720687267288524
45	0x3f9265f495351fac	0.017967053992179835
46	0xbf1eefc8d421032c	-0.00011801398525880237
47	0x3f90ec56e07d858b	0.016526563121606535
48	0xbee48efaa9115b90	-9.803062569852824e-06
49	0x3fbc239bc138fb91	0.10991834132526736
50	0x3fac2818b0ebae37	0.05499341163325904
51	0xbf2d74e2e632bb2c	-0.00022473592534796286
52	0xbf4cf1cb9221fafa	-0.0008833164213369598
53	0xba66f955316b15f7	-2.3197767524642013e-27
54	0x3fbc778eb0b0a217	0.11119930089683581
55	0x3fbe9fb1c71f5d2f	0.11962424384488622
56	0xb9770f527d8d5941	-7.1058656567494e-32
57	0x3f9d36b433211799	0.02852899133747364
58	0x3f82719653bdf809	0.009005712919812241
59	0x3fb09ca3699eae90	0.0648901112423863
60	0xbf1135fe9bdedd05	-6.565443524563306e-05
61	0xbf9c1111e09cca72	-0.027408866247422066
62	0xbfa01ae47ca300d2	-0.031455173696942076
63	0xbd904c1fbce7dfb7	-3.70559047999484e-12

bn2_fc.weight f8 [64]
0	0x3ff0000000000000	1.0
1	0x3ff0000000000000	1.0
2	0x3ff0000000000000	1.0
3	0x3ff0000000000000	1.0
4	0x3ff0000000000000	1.0
5	0x3ff0000000000000	1.0
6	0x3ff0000000000000	1.0
7	0x3ff0000000000000	1.0
8	0x3ff0000000000000	1.0
9	0x3ff0000000000000	1.0
10	0x3ff0000000000000	1.0
11	0x3ff0000000000000	1.0
12	0x3ff0000000000000	1.0
13	0x3ff0000000000000	1.0
14	0x3ff0000000000000	1.0
15	0x3ff0000000000000	1.0
16	0x3ff0000000000000	1.0
17	0x3ff0000000000000	1.0
18	0x3ff0000000000000	1.0
19	0x3ff0000000000000	1.0
20	0x3ff0000000000000	1.0
21	0x3ff0000000000000	1.0
22	0x3ff0000000000000	1.0
23	0x3ff0000000000000	1.0
24	0x3ff0000000000000	1.0
25	0x3ff0000000000000	1.0
26	0x3ff0000000000000	1.0
27	0x3ff0000000000000	1.0
28	0x3ff0000000000000	1.0
29	0x3ff0000000000000	1.0
30	0x3ff0000000000000	1.0
31	0x3ff0000000000000	1.0
32	0x3ff0000000000000	1.0
33	0x3ff0000000000000	1.0
34	0x3ff0000000000000	1.0
35	0x3ff0000000000000	1.0
36	0x3ff0000000000000	1.0
37	0x3ff0000000000000	1.0
38	0x3ff0000000000000	1.0
39	0x3ff0000000000000	1.0
40	0x3ff0000000000000	1.0
41	0x3ff0000000000000	1.0
42	0x3ff0000000000000	1.0
43	0x3ff0000000000000	1.0
44	0x3ff0000000000000	1.0
45	0x3ff0000000000000	1.0
46	0x3ff0000000000000	1.0
47	0x3ff0000000000000	1.0
48	0x3ff0000000000000	1.0
49	0x3ff0000000000000	1.0
50	0x3ff0000000000000	1.0
51	0x3ff0000000000000	1.0
52	0x3ff0000000000000	1.0
53	0x3ff0000000000000	1.0
54	0x3ff0000000000000	1.0
55	0x3ff0000000000000	1.0
56	0x3ff0000000000000	1.0
57	0x3ff0000000000000	1.0
58	0x3ff0000000000000	1.0
59	0x3ff0000000000000	1.0
60	0x3ff0000000000000	1.0
61	0x3ff0000000000000	1.0
62	0x3ff0000000000000	1.0
63	0x3ff0000000000000	1.0

bn2_fc.bias f8 [64]
0	0x0000000000000000	0.0
1	0x0000000000000000	0.0
2	0x0000000000000000	0.0
3	0x0000000000000000	0.0
4	0x0000000000000000	0.0
5	0x0000000000000000	0.0
6	0x0000000000000000	0.0
7	0x0000000000000000	0.0
8	0x0000000000000000	0.0
9	0x0000000000000000	0.0
10	0x0000000000000000	0.0
11	0x0000000000000000	0.0
12	0x0000000000000000	0.0
13	0x0000000000000000	0.0
14	0x0000000000000000	0.0
15	0x0000000000000000	0.0
16	0x0000000000000000	0.0
17	0x0000000000000000	0.0
18	0x0000000000000000	0.0
19	0x0000000000000000	0.0
20	0x0000000000000000	0.0
21	0x0000000000000000	0.0
22	0x0000000000000000	0.0
23	0x0000000000000000	0.0
24	0x0000000000000000	0.0
25	0x0000000000000000	0.0
26	0x0000000000000000	0.0
27	0x0000000000000000	0.0
28	0x0000000000000000	0.0
29	0x0000000000000000	0.0
30	0x0000000000000000	0.0
31	0x0000000000000000	0.0
32	0x0000000000000000	0.0
33	0x0000000000000000	0.0
34	0x0000000000000000	0.0
35	0x0000000000000000	0.0
36	0x0000000000000000	0.0
37	0x0000000000000000	0.0
38	0x0000000000000000	0.0
39	0x0000000000000000	0.0
40	0x0000000000000000	0.0
41	0x0000000000000000	0.0
42	0x0000000000000000	0.0
43	0x0000000000000000	0.0
44	0x0000000000000000	0.0
45	0x0000000000000000	0.0
46	0x0000000000000000	0.0
47	0x0000000000000000	0.0
48	0x0000000000000000	0.0
49	0x0000000000000000	0.0
50	0x0000000000000000	0.0
51	0x0000000000000000	0.0
52	0x0000000000000000	0.0
53	0x0000000000000000	0.0
54	0x0000000000000000	0.0
55	0x0000000000000000	0.0
56	0x0000000000000000	0.0
57	0x0000000000000000	0.0
58	0x0000000000000000	0.0
59	0x0000000000000000	0.0
60	0x0000000000000000	0.0
61	0x0000000000000000	0.0
62	0x0000000000000000	0.0
63	0x0000000000000000	0.0

bn2_fc.running_mean f8 [64]
0	0x0000000000000000	0.0
1	0x0000000000000000	0.0
2	0x0000000000000000	0.0
3	0x0000000000000000	0.0
4	0x0000000000000000	0.0
5	0x0000000000000000	0.0
6	0x0000000000000000	0.0
7	0x0000000000000000	0.0
8	0x0000000000000000	0.0
9	0x0000000000000000	0.0
10	0x0000000000000000	0.0
11	0x0000000000000000	0.0
12	0x0000000000000000	0.0
13	0x0000000000000000	0.0
14	0x0000000000000000	0.0
15	0x0000000000000000	0.0
16	0x0000000000000000	0.0
17	0x0000000000000000	0.0
18	0x0000000000000000	0.0
19	0x0000000000000000	0.0
20	0x0000000000000000	0.0
21	0x0000000000000000	0.0
22	0x0000000000000000	0.0
23	0x0000000000000000	0.0
24	0x0000000000000000	0.0
25	0x0000000000000000	0.0
26	0x0000000000000000	0.0
27	0x0000000000000000	0.0
28	0x0000000000000000	0.0
29	0x0000000000000000	0.0
30	0x0000000000000000	0.0
31	0x0000000000000000	0.0
32	0x0000000000000000	0.0
33	0x0000000000000000	0.0
34	0x0000000000000000	0.0
35	0x0000000000000000	0.0
36	0x0000000000000000	0.0
37	0x0000000000000000	0.0
38	0x0000000000000000	0.0
39	0x0000000000000000	0.0
40	0x0000000000000000	0.0
41	0x0000000000000000	0.0
42	0x0000000000000000	0.0
43	0x0000000000000000	0.0
44	0x0000000000000000	0.0
45	0x0000000000000000	0.0
46	0x0000000000000000	0.0
47	0x0000000000000000	0.0
48	0x0000000000000000	0.0
49	0x0000000000000000	0.0
50	0x0000000000000000	0.0
51	0x0000000000000000	0.0
52	0x0000000000000000	0.0
53	0x0000000000000000	0.0
54	0x0000000000000000	0.0
55	0x0000000000000000	0.0
56	0x0000000000000000	0.0
57	0x0000000000000000	0.0
58	0x0000000000000000	0.0
59	0x0000000000000000	0.0
60	0x0000000000000000	0.0
61	0x0000000000000000	0.0
62	0x0000000000000000	0.0
63	0x0000000000000000	0.0

bn2_fc.running_var f8 [64]
0	0x3ff0000000000000	1.0
1	0x3ff0000000000000	1.0
2	0x3ff0000000000000	1.0
3	0x3ff0000000000000	1.0
4	0x3ff0000000000000	1.0
5	0x3ff0000000000000	1.0
6	0x3ff0000000000000	1.0
7	0x3ff0000000000000	1.0
8	0x3ff0000000000000	1.0
9	0x3ff0000000000000	1.0
10	0x3ff0000000000000	1.0
11	0x3ff0000000000000	1.0
12	0x3ff0000000000000	1.0
13	0x3ff0000000000000	1.0
14	0x3ff0000000000000	1.0
15	0x3ff0000000000000	1.0
16	0x3ff0000000000000	1.0
17	0x3ff0000000000000	1.0
18	0x3ff0000000000000	1.0
19	0x3ff0000000000000	1.0
20	0x3ff0000000000000	1.0
21	0x3ff0000000000000	1.0
22	0x3ff0000000000000	1.0
23	0x3ff0000000000000	1.0
24	0x3ff0000000000000	1.0
25	0x3ff0000000000000	1.0
26	0x3ff0000000000000	1.0
27	0x3ff0000000000000	1.0
28	0x3ff0000000000000	1.0
29	0x3ff0000000000000	1.0
30	0x3ff0000000000000	1.0
31	0x3ff0000000000000	1.0
32	0x3ff0000000000000	1.0
33	0x3ff0000000000000	1.0
34	0x3ff0000000000000	1.0
35	0x3ff0000000000000	1.0
36	0x3ff0000000000000	1.0
37	0x3ff0000000000000	1.0
38	0x3ff0000000000000	1.0
39	0x3ff0000000000000	1.0
40	0x3ff0000000000000	1.0
41	0x3ff0000000000000	1.0
42	0x3ff0000000000000	1.0
43	0x3ff0000000000000	1.0
44	0x3ff0000000000000	1.0
45	0x3ff0000000000000	1.0
46	0x3ff0000000000000	1.0
47	0x3ff0000000000000	1.0
48	0x3ff0000000000000	1.0
49	0x3ff0000000000000	1.0
50	0x3ff0000000000000	1.0
51	0x3ff0000000000000	1.0
52	0x3ff0000000000000	1.0
53	0x3ff0000000000000	1.0
54	0x3ff0000000000000	1.0
55	0x3ff0000000000000	1.0
56	0x3ff0000000000000	1.0
57	0x3ff0000000000000	1.0
58	0x3ff0000000000000	1.0
59	0x3ff0000000000000	1.0
60	0x3ff0000000000000	1.0
61	0x3ff0000000000000	1.0
62	0x3ff0000000000000	1.0
63	0x3ff0000000000000	1.0

fc3.weight f8 [1, 64]
0	0xbf767a12be0c32f8	-0.005487511837384267
1	0xbf2cab2d43a251b2	-0.0002187245134491873
2	0x3fa3da91719bb4b1	0.038776917570296894
3	0x3fbbb002195a1021	0.10815442198696747
4	0xbfa976f4818c1524	-0.049735680402628796
5	0xbfaa35ba1679f478	-0.051191153758716135
6	0x3fa14a99bf07831d	0.03377228218938042
7	0xbf6bf30beca1e6dc	-0.0034117920777675236
8	0xbfa33cbbe1f4f85c	-0.03757273801100844
9	0xbfa2783d82252c4d	-0.03607361043631183
10	0xbf957c7a5f33e4e0	-0.020982658444130275
11	0x3fb44353ce8feac8	0.0791523341467083
12	0xbfb5c9eadea389cf	-0.08511226592558006
13	0xbf200558959bd5ce	-0.0001222296366944334
14	0x3aa7a6e42f052e70	3.821173652349814e-26
15	0x3f82b69fdb2ab440	0.00913739097208055
16	0xbf85ff925466a1eb	-0.01074137039252406
17	0x39a533e9bae7c10b	5.226890099009135e-31
18	0xbf962fff84a53ce4	-0.021667473288570785
19	0x3fc08106a9943ead	0.12893756180027563
20	0x3a027ac76ab9b846	2.9155676425396647e-29
21	0x3f5e426a97654206	0.0018468895846873736
22	0x3f7b7f7f809cae10	0.006713388496602871
23	0x3fbbeeb54b958ce9	0.10911114783589294
24	0xbfb86de65728e9c6	-0.09542693736958716
25	0xbfb3c9642addbdb5	-0.07729173704659938
26	0x3fb0c33c9658561d	0.06547907515081204
27	0x3e968bc1f173cdc3	3.359605087037551e-07
28	0xbf8ecd7977726356	-0.015040348966339028
29	0x3fc13eeab4f87d54	0.13473256908853648
30	0x3fa6359beffc14fc	0.04337775520802187
31	0x3fbbc17b979dc533	0.10842106296128833
32	0xbfbec18fe18f351d	-0.12014102227040664
33	0x3f9a6182682f16aa	0.025762593850024253
34	0xbf10a5195f71040b	-6.349532473938506e-05
35	0x3f1d913eccf21cee	0.00011279054455047888
36	0x3fa5bb42509f85ed	0.04244429811638981
37	0x3fab7d27057691b6	0.053689212242975
38	0xbf273b559422dd0c	-0.0001772443739065172
39	0xbe2f9c38d15a8417	-3.6799164920385404e-09
40	0x3fc12a33af176eb1	0.13410039948836563
41	0x3f23238b4897fa5a	0.0001460177921188296
42	0x3fb5836bef4d5323	0.08403658478102875
43	0xbf8139c50e6aa9c2	-0.008410968306027725
44	0xbfa0baef9f35f731	-0.03267620867244004
45	0x3fac1ba51197ec1f	0.054898413083684476
46	0x3f21b4566c1b2f87	0.0001350741859397176
47	0xbf9927f55fe035c9	-0.02456649205855913
48	0xbc1b720dce561d8a	-3.7195619797724247e-19
49	0xbfb2f80c27417540	-0.07409740408316612
50	0xbfba1c93eb04b68b	-0.10199856269601974
51	0xbe67615689115e09	-4.354906580548613e-08
52	0xbfb667df8f07bc69	-0.08752248041104028
53	0xbf30aba54c260ebb	-0.00025437150556959957
54	0x3fb00bb6f40f061b	0.06267875154937778
55	0x3fabf6e9fd05be89	0.05461817945149245
56	0xbee0d7d62e5d7eff	-8.031421611042875e-06
57	0xbfb6518915c725d1	-0.08718163282096404
58	0xbfb774352579996f	-0.09161693730275088
59	0xbfbce9df2d5202da	-0.11294360023931507
60	0xbc56c2a0d7a0a735	-4.9353461332163695e-18
61	0xbfa9be4b7d2fa607	-0.050279959708699855
62	0x3fbea54bdb2752e8	0.11970972156934645
63	0x3e2378c06804891c	2.2668025790992053e-09

fc3.bias f8 [1]
0	0xbfa814633773e2cd	-0.04703054477608291
