model_path/data56/G56.pth (torch, 652927 bytes, 12 tensors)

gru1.weight_ih_l0 f8 [192, 13]
0	0x3fc0dc7aaccb36c4	0.1317284911842106
1	0x3f8a21c150fc1c49	0.0127596953239061
2	0x3f9bdbe21cd17186	0.027205975541038117
3	0x3fc6af1920fc7b2e	0.17721857176453554
4	0xbfa3486055ef2f70	-0.03766156243327046
5	0x3fc1275185bf3885	0.1340124037801084
6	0x3fa0fb86111297ba	0.033168973526059145
7	0x3fbf7a2df644f8b6	0.12295806181370747
8	0x3fbcb0a32e056ed2	0.11207027314724918
9	0x3fa94f1d9856ee53	0.04943172916997853
10	0x3fc4a68b2b666d3d	0.16133250826974602
11	0x3f614e83bdaac67c	0.002112633997364109
12	0x3fc565ecd837eab5	0.16717300946750915
13	0xbface2bf1cadac11	-0.056417438746244504
14	0xbfc0cbe21661d5d0	-0.131222020081323
15	0xbfa2253fe2873982	-0.035440441515322454
16	0xbfc18c152ac30efa	-0.13708748424516398
17	0xbfc0bde28bd3e673	-0.13079482867742662
18	0x3f963a0c38813577	0.021705809544348278
19	0x3fb5357727c4c958	0.08284706803241215
20	0x3fb63015944a5998	0.08667120809909645
21	0xbfbaa46739b91d26	-0.10407109412436863
22	0x3fb495d003953317	0.08041095817061393
23	0x3fac181dafa9b714	0.05487149018595808
24	0x3fb78ac8ef9df961	0.09196143960978055
25	0x3fbb189e535a52ba	0.10584439787846636
26	0xbfadc9a4f2b385eb	-0.058179049135798376
27	0x3f9d71f7014f35a8	0.028755053954048343
28	0xbfb153e0793ae53d	-0.06768610915869018
29	0x3f99310d7e72d6a8	0.024601183741387672
30	0xbfc1db17dc0d9502	-0.1394986938932235
31	0xbfbf0a8cef166fae	-0.12125473820782304
32	0x3fa2ce5935ff2dea	0.036730563966184196
33	0xbfad2575dffa5144	-0.05692642554382357
34	0xbfbce167ff419dc6	-0.11281442624896618
35	0x3fb5305c3c3c01f5	0.08276916952673459
36	0xbfb2dad8489e832f	-0.07365180752686905
37	0x3fb8b57a62326c41	0.0965191354502375
38	0x3f9d9ea5be60c6d7	0.028925504441025787
39	0xbfb4105774a1f938	-0.07837435338476417
40	0x3fa4ded327a8e66b	0.040762518492965714
41	0x3fcba849dc19af42	0.21607325789534043
42	0x3fcc815fbb1f26cb	0.22269817959595736
43	0x3fb8462160e90927	0.09482010475133916
44	0xbf9320217b8550fa	-0.01867725674067431
45	0x3fabb4a7d44f071d	0.05411266771944965
46	0xbfb446f7886cebf6	-0.07920786934566579
47	0xbfa2b88fb86dbbde	-0.03656434179617184
48	0x3fcbcc9a5ae1effd	0.2171814864885845
49	0x3fbcbd6090cd2dba	0.11226466689293249
50	0xbfb7228153c4cc44	-0.09037025733123111
51	0x3fbc4e1dd3260f98	0.1105669632434555
52	0xbfa9b8592a2c15c5	-0.050234590909933576
53	0x3fa0d80c327d88c0	0.03289831272447108
54	0x3fbdafb6b6bc8270	0.11596242867791218
55	0x3fa4cf50ffcf176c	0.04064419863384114
56	0xbf9ac93942f0ffb4	-0.026158232413081087
57	0xbfbe63c8456f65ec	-0.118710057212773
58	0xbf7c99dbf705ef93	-0.006982669103645994
59	0x3fbab788fbde56a3	0.10436302327283413
60	0xbf753c1e0c8f0b31	-0.0051842855254474055
61	0x3fa87bff760475b2	0.047821028858588646
62	0xbfb6739d5bb1f67b	-0.08770164002086205
63	0x3fb020319c83c5e4	0.06299123831902126
64	0xbfa6194a649f3eb1	-0.04316170194908631
65	0xbfbd58eda85d2d70	-0.11463818893860434
66	0x3f7c2f30a3f79349	0.0068809413928406305
67	0x3fc090b0d2b25490	0.12941561019821224
68	0xbf9476ea22513f15	-0.019984873146596877
69	0x3fa4850a8dae2ceb	0.040077523989646334
70	0x3fb4ff8db7ec3b5d	0.08202443828871027
71	0xbfa621dba9f44c3a	-0.0432270665134173
72	0x3fb17aa2f1528ed1	0.06827753440534969
73	0xbfa133f92431669b	-0.033599649112784756
74	0x3faa881e6b87ee5d	0.05181975424417538
75	0x3fc06fd64f785c5e	0.1284129989660156
76	0x3fa692b61ae80253	0.04408806875654094
77	0x3fb1b0101950d33b	0.06909275644359252
78	0xbfb8aa5eb63a9a5f	-0.09634963940571016
79	0x3fbfa9a2408772c7	0.12368215632836686
80	0xbfa8798c02f5dd00	-0.04780232940805185
81	0x3fbe87c7d880f08a	0.11925934825643672
82	0x3fb54d30c416e75e	0.08320908343639874
83	0x3fb7f72ac76e2698	0.09361522072699768
84	0x3fbecb2c34146a09	0.1202876689098177
85	0x3fa047a5d4b73306	0.03179662915827035
86	0x3fb27e903b7ba6e3	0.07224370434019138
87	0x3fb5edf170c8d7d0	0.08566197398690112
88	0x3fb59c4c347a61ff	0.0844161632652529
89	0x3fc239e7348e6084	0.14239206377238045
90	0xbfb9bd09e152857d	-0.10054075003656311
91	0xbf63ebc81237c135	-0.002431765331259462
92	0x3fb80c5067d916ea	0.09393789801933008
93	0xbfbc4f06fd56bf17	-0.11058086094885443
94	0x3f9776421619874c	0.022912056540355594
95	0xbfb7320f2cb69e9b	-0.09060759393343647
96	0x3f9a44b7e025f842	0.025652764373710342
97	0xbf980d9c870e0eaa	-0.023489423506829844
98	0x3fa24ac7e8fdb69d	0.03572678298119778
99	0x3f923f5544f2711d	0.01781972153968169
100	0x3fb739bad1f8e46e	0.09072463632846148
101	0xbfb2ebfc9c33dc31	-0.07391337216891782
102	0xbf98bf3cd1624838	-0.0241670134351539
103	0x3fc0b03a894b4fda	0.1303780718213819
104	0x3fca479c8c1314e2	0.20531040992333432
105	0x3fa0a97aafc1ceda	0.03254302401992755
106	0xbf8c886c31bc87fe	-0.013932080524288178
107	0x3fcd1fda427e2e3d	0.22753456351016324
108	0x3fb11ec1b9fc7e1b	0.06687556067162641
109	0x3fb8f26d0a23ff54	0.09744912622045138
110	0x3fc17383bf558c0f	0.1363377269982213
111	0x3fb0cfd305f185ed	0.06567114729980235
112	0x3f85106fde44889b	0.01028525731141299
113	0x3fb8c5c425def8c1	0.09676767277321387
114	0x3fc2bf6288fc8299	0.14646560372149933
115	0x3fa8532c048ea9a9	0.0475095515788156
116	0x3fcaff7f5fc37f5e	0.21092216659507818
117	0x3fb0fd8ef05aa41c	0.06636899345416264
118	0x3f8192ca531171f0	0.008580761585272406
119	0x3fa84b66bebc7c18	0.04745026663135138
120	0x3fb467371ce947ef	0.079699940260326
121	0x3fc022810ceb2482	0.1260529816702594
122	0xbfb8b5743e90c26b	-0.0965187695262643
123	0x3fb02842f56dd48a	0.06311434261245288
124	0x3fb1acf60bba8607	0.069045427192144
125	0xbf5f3e1b1f7554a9	-0.001906897055808524
126	0x3fb97171a58d9134	0.09938726703473294
127	0x3fa2eb614ec44b2f	0.03695205770977449
128	0x3fa6efe404141a15	0.04479897069727571
129	0xbfb8d7567f2792a3	-0.09703579525337118
130	0x3fc5292169e17b17	0.16531770391426256
131	0xbfa7c5c25e1e93ce	-0.04643065833014469
132	0x3fb423f235370f97	0.07867349433132485
133	0xbfa1187327484ef4	-0.033389662308904194
134	0x3fc783daa7a7f049	0.1837113684304106
135	0x3fb49719575d7cbf	0.08043058760584908
136	0x3fc5c2d8d0641268	0.17000875640237045
137	0x3fbf05914f2b7065	0.12117870505193336
138	0xbfa82b26ceddf2f6	-0.04720422053558153
139	0x3fbedc1c2f5b05b7	0.12054611354962828
140	0x3fc30af5393b6af2	0.14877190870796358
141	0x3fa06b4951223f1b	0.03206853022959263
142	0x3fc3d0292fc5a530	0.15479006607646673
143	0x3f9462f1e891039c	0.019908695049028688
144	0x3f8b1ddccbef9ac3	0.01324055192340035
145	0x3fb1e35f1b0d87fa	0.06987566385717506
146	0xbfa5d99c11eb5db5	-0.042675854861666286
147	0x3fb98510b6a3a470	0.09968666514363789
148	0xbfb56b47139b6f6e	-0.08366817692461634
149	0xbfa3e8f1c58810dd	-0.03888659988663943
150	0xbfb045d927a4cb13	-0.06356579988350246
151	0x3fb573e71238654a	0.08379978365737376
152	0x3fb453288b2e28d4	0.07939389608341979
153	0x3fac4771ee71d465	0.055232582432758894
154	0xbfabfbe9d15c0a3e	-0.054656321341117295
155	0xbfb954ea261cd5b5	-0.09895194464191699
156	0x3f99b38b3da1f268	0.025098968159442597
157	0x3fb9b0fa8076bbac	0.10035672794650335
158	0x3fb689e22cd1aeb0	0.08804143518653507
159	0xbf996b6be987c94f	-0.024823843124928854
160	0xbf85e1a21be0cade	-0.01068426749779888
161	0xbfbd33f5e62d02ba	-0.11407410497214246
162	0xbfb1cdba912974e0	-0.06954542201988856
163	0x3f87b9b892ec6ff6	0.011584703429939208
164	0xbfb519a20fbbd8b3	-0.08242237934232115
165	0xbfb73ff75ad6f664	-0.09081979720846217
166	0xbf9cac561ffe98f6	-0.02800116129187643
167	0xbfb8b0b0369ca8fb	-0.09644605000781674
168	0x3f7d6da50834d5ff	0.007184643417806224
169	0xbfb5abab57a9ddb8	-0.0846507157347024
170	0xbfb620e09b978140	-0.08643916891697234
171	0x3fb2595bb1ab45c3	0.07167599761603242
172	0xbfc3b6f192eb093e	-0.15402049707160786
173	0xbfb981b27f0586b6	-0.09963527299035033
174	0xbf6574d7c495a84d	-0.0026191915718998594
175	0xbfa35b34e38b3b68	-0.03780522611270137
176	0x3fc19e925004cd3f	0.13765171916166172
177	0xbfc1fbfe5e4a6782	-0.1405027351764226
178	0xbf912534d57664c7	-0.01674349358436158
179	0xbfa44e743cfff459	-0.039661056944148405
180	0xbfbbf35860714877	-0.10918190340569987
181	0x3fb01653e4b3466b	0.06284069379332784
182	0xbf834926baf5cd93	-0.009416868763515029
183	0xbf9a9d0b47968753	-0.025989700550446426
184	0xbf173079653cd242	-8.846035899241162e-05
185	0xbfb070e28807f8f2	-0.06422248669693767
186	0x3fa95b7a4425e040	0.04952604371914093
187	0xbfbccc78ba3be9d8	-0.11249498888711373
188	0x3fbd3e6de4d480c8	0.11423384510681267
189	0x3fac85679e78a55c	0.05570529756034645
190	0xbf9f240218c90166	-0.0304107978465721
191	0xbfa13b0df0ad9d15	-0.033653674726162354
192	0x3fc0c0264f4ec882	0.1308639418835505
193	0xbfaf8ed791b65a8d	-0.06163667348589739
194	0x3fbe29aea1b84867	0.1178235192130913
195	0x3fc717554732c79e	0.18039957024080605
196	0x3fb96c8309d0ae74	0.09931200971248605
197	0x3facd88a4f954e48	0.05633957120394634
198	0x3fba3ce8cc0df637	0.10249190313148736
199	0x3fa50cbad3b128e2	0.04111274561053492
200	0x3fc3af1272737687	0.15378027523449964
201	0x3fb05cb683ec3ef5	0.06391468735477786
202	0x3fcaa05ea3d9b31e	0.208019094472001
203	0x3fcb5c7d84dba526	0.2137600802155159
204	0x3fc104fb81b2793d	0.13296455223912487
205	0x3fc06a137af2b62e	0.12823718550991842
206	0x3fa86117825e3c81	0.04761575189979173
207	0x3fb0dc6d7f564dca	0.06586346014801517
208	0xbf6d970a9634f859	-0.0036120611927393073
209	0x3fa026703afff725	0.03154326172078318
210	0x3fbcabfa7f2c3c8f	0.111999183700606
211	0x3f660fff647f2eab	0.0026931751380966005
212	0x3fa2bc082ab1c902	0.03659081956074496
213	0x3f9282c6c3d4cd16	0.018076997473326882
214	0xbf94016a55557612	-0.01953664918743498
215	0x3f8950a80b343811	0.012360871164244032
216	0x3fbb235b3c25b7cd	0.10600824564400498
217	0x3f7fa7437d752d41	0.007727874405939973
218	0x3fa172646e2f9e76	0.03407586903614128
219	0xbfadb5e4300adb43	-0.05802834593253305
220	0x3fc80fb6ae15d639	0.18797954082735815
221	0x3fa9d31e1cab5b6a	0.05043882465331857
222	0x3faa858b265892ef	0.05180010645952914
223	0xbfb20e66bf7aabee	-0.0705322473028642
224	0x3fb108178bf03fa1	0.06652972380129409
225	0xbf654884e0632f7b	-0.0025980563396838497
226	0x3f9b8997c075da8f	0.02689206230339863
227	0xbfb2bcf2b73a64c8	-0.07319561932890217
228	0x3fb2c26e60f85634	0.07327928416665302
229	0x3fbe144a9b2a4c5e	0.11749712265218323
230	0x3fa22cec6b44396f	0.035498989194922774
231	0xbfa62d7c68e7b702	-0.04331578045444752
232	0xbfbcf6cfc0860022	-0.11314104509619985
233	0xbfb1d13bb02c910b	-0.0695988946068306
234	0xbfa83abfcf9d9999	-0.047323221296028346
235	0x3fc19df4a30d5724	0.13763292275933126
236	0xbfb6da65e0416d73	-0.08926998829831749
237	0x3f8b02de3552842a	0.01318906402804217
238	0x3fc3076662b89f2b	0.14866332836504034
239	0xbfa441591d0e35d2	-0.039561066433730155
240	0xbfb9be061f9c0273	-0.10055578490938348
241	0x3fb8ab5529e6d016	0.09636432908047285
242	0xbf9455b771ec30d0	-0.019858232811245824
243	0x3fb6d6d702f8fd42	0.08921569655011743
244	0xbfb3d7d1ac22e112	-0.0775118870977887
245	0x3fb794a92e492352	0.09211213474294525
246	0xbfb48ae1e868f440	-0.08024417804786399
247	0xbf904081bfc2cc40	-0.015871074036749144
248	0xbfbbbb271321d2e7	-0.10832447259037857
249	0x3fbf019cac4ce4b6	0.12111834723045231
250	0x3fc37f33d58b2c00	0.15231941153464845
251	0x3fc0dda1a663a5c0	0.13176365494227404
252	0x3fa1f8a385484828	0.03510008813840698
253	0xbf701232affcd7c8	-0.003923604963167855
254	0x3fccbb4ba6729b1e	0.22446580531433197
255	0x3fbeae42bd0f20cb	0.11984650722218075

gru1.weight_hh_l0 f8 [192, 64]
0	0x3fbbfb3a3470c155	0.1093021753338282
1	0xbfb13d63b4879097	-0.06734297902545659
2	0x3faaa473bfb065fd	0.052035920285742755
3	0x3fbb76f246504975	0.10728372780457625
4	0x3fbfd1b72dd2510a	0.12429375523271716
5	0x3fc9697e3d800021	0.19853189471177848
6	0xbfd135b75d9ffcd0	-0.26890358107625634
7	0xbfa98e5634035094	-0.049914068078266954
8	0xbfb43277647899b6	-0.07889505579860309
9	0xbfcf387634470ce7	-0.24391057541479386
10	0x3fa8cc9f191428ac	0.048436137973184884
11	0x3fbe66ae2fbb7557	0.11875427880609855
12	0xbfc06bdff0f48572	-0.12829207673443538
13	0xbfc3ca2070555e6c	-0.1546059177878648
14	0xbfb241f358816445	-0.0713188258245206
15	0x3faeb343531f72a4	0.05996141805346625
16	0x3f92792593cce7b9	0.018040263315220992
17	0xbfb6a838ec5919e1	-0.08850436945167629
18	0xbfb940ef896a6b15	-0.09864709000468637
19	0x3f97023dacfb62ee	0.02246948593424041
20	0x3f857ef7d0eb861b	0.010496078551514512
21	0xbf8da595a887c582	-0.014475983815801955
22	0x3fb0983d196b639c	0.0648229777392672
23	0x3fafb326c168f13d	0.061913691625223845
24	0x3fb87d2d57c1897a	0.09566005127411428
25	0x3fbf6aecfd100862	0.12272530725752653
26	0x3f857301747ad875	0.010473262183364288
27	0xbf8ca51f51b0f819	-0.013986820869941895
28	0x3fbb10e51f9c43b4	0.10572654744852522
29	0x3f9896eb4e9cba24	0.024013210938557475
30	0x3fca43f244145c6c	0.2051985580844503
31	0xbfc0b94aad8d6304	-0.13065465425713552
32	0xbfb8c5bc4d812f32	-0.09676720516398232
33	0x3fb69290e06bb466	0.08817391852399367
34	0x3fa03e46d7047347	0.031725133654822595
35	0x3fac7754a11ecf67	0.05559792010117697
36	0x3fc4be41fe77f731	0.16205620694375392
37	0x3fc52a0d38fb510a	0.1653458145361884
38	0x3fac201aac3a11fd	0.054932435535224734
39	0xbfb3074c657b10eb	-0.07433011510426339
40	0x3f94838624243841	0.02003297420110806
41	0xbfa75be698de7695	-0.045623022232786394
42	0xbfbd980b835aaca2	-0.11560127217187469
43	0x3fbbffdcd00939ac	0.10937290266995231
44	0xbfb4eefba036115f	-0.08177158986479104
45	0x3f7754ff5a734e5a	0.005696294282830994
46	0xbfbec1ed282e1a43	-0.12014658194503007
47	0x3f812846b6579e93	0.008377602042812604
48	0xbfb057ba05dc6533	-0.06383860247696731
49	0x3fa92d5e3c0f1765	0.04917425616399277
50	0xbf72a17c5cc5304c	-0.004548536100923494
51	0xbfd394f3d656a78b	-0.30596633845799975
52	0x3fcc63f1b53080ab	0.22180005404607547
53	0x3f96ccd4be9056a4	0.02226574338063493
54	0xbfb42644f57c7b97	-0.07870894425694384
55	0xbf7b34779129de36	-0.006641833361406271
56	0x3fae9dfb8b2c7e12	0.059799061526288125
57	0xbfc04a318b407086	-0.12726420688057177
58	0xbfc2e3db128a3f8b	-0.14757860570216183
59	0x3fbb62abf1dbf034	0.10697436003459942
60	0xbfa5030a777938cb	-0.04103882511536624
61	0xbfb0ebd9803daeaa	-0.06609877949602586
62	0x3fbb0d96de2da5d4	0.1056761066844481
63	0xbfc65ba595beda6d	-0.17467183887284268
64	0xbfa5697beb2dea3b	-0.041820404489915274
65	0x3fb389def64599c7	0.07632249367234244
66	0xbf91267a03633e0a	-0.016748339134947478
67	0x3fc676c69b0da49b	0.17549974986039704
68	0xbf871e1f342aa9cb	-0.011287921695232314
69	0xbf9bf59a79e33498	-0.027304090203689485
70	0x3fa92d047e3335ff	0.04917158165481438
71	0x3fb2518805d30090	0.07155656950181055
72	0x3fb8b0507511325a	0.09644034250340763
73	0x3f9bf356ff51e8df	0.027295455296987178
74	0xbf895b6353f51e9f	-0.012381340026549835
75	0xbfba70a8e54a2bea	-0.10328155134099828
76	0xbfac9c01e303d2a1	-0.05587774177721384
77	0xbfadac25bfb47c2c	-0.05795400586270491
78	0x3fba85050590f430	0.10359221826452436
79	0x3fb0d139524a2b52	0.06569250353838399
80	0xbfa32262471e097b	-0.037371703320803605
81	0xbfa5bbd17c5a0a17	-0.04244856493916787
82	0xbfa70c00c9089f68	-0.04501345113777583
83	0xbf73fac5f2525b0c	-0.004877827862535222
84	0xbfb3b545bc5330ad	-0.076984747388624
85	0x3fab97a365b6e071	0.053891283193878155
86	0x3faa7ff354aac41c	0.0517574349263514
87	0xbfa4b3665bf1e388	-0.04043121216176987
88	0x3fc2ee2a108514fa	0.14789319807656637
89	0x3fbf7afbb3ecf042	0.12297032492364315
90	0xbfac306f44873605	-0.05505702697301377
91	0x3fab4151888b03fe	0.053232715528345395
92	0x3fa75835f570e553	0.04559486981492946
93	0xbfb94ce820a69afe	-0.09882975384844525
94	0x3fa124a134880413	0.03348258749247903
95	0xbfa3216934ae4e4f	-0.037364280396243836
96	0xbfb71c01182e0050	-0.09027106132816809
97	0xbfc04e1686b94471	-0.12738305643373196
98	0xbfa6c58f80e038d2	-0.044476017457883224
99	0x3fb08e272f26bf9b	0.06466908360630301
100	0xbf93a60790579743	-0.019188039956041136
101	0x3fc30fff63f6c012	0.14892570859001403
102	0x3fb6a1a04d586dda	0.08840371979061193
103	0x3faeaabf42dc4ca5	0.059896447097480356
104	0xbfb6ffc155f78820	-0.08984001492311267
105	0xbfa3d86bbf93f53c	-0.03876053536985544
106	0xbfa37d6007289295	-0.038065911172713
107	0xbfbef9b9f1f57699	-0.12099802167127861
108	0xbf858995b2ffbda9	-0.010516328358760445
109	0xbf9e003cc0571940	-0.029297780265346463
110	0xbf742331d077ff52	-0.00491637667391827
111	0x3f72c2749a07c9ef	0.0045799784424951214
112	0x3f8d046977895b1a	0.014168571434465305
113	0x3fb114301ac27229	0.0667142930346435
114	0xbfb0781ee61306d7	-0.064332896395196
115	0x3fa27211e3f67e89	0.036026534154413765
116	0x3fc1f3ffa9d8f9f6	0.1402587489446458
117	0x3fad5c781943a002	0.05734610851669687
118	0xbfc0242345b6b680	-0.1261028376006159
119	0xbfb1043c56fb76ad	-0.06647088168707667
120	0x3fbd4500f9aa1ec5	0.11433416457486618
121	0x3fb574372c8d89c9	0.08380455815998923
122	0x3f62780b94a412c4	0.002254507654585987
123	0xbfb8f7a1da9becd7	-0.09752856814513976
124	0xbf9aa4f53fa48c9c	-0.0260198898405518
125	0xbfc2f4753d60d9bd	-0.14808526513088607
126	0x3fc06fab2c8948bc	0.12840785669920318
127	0xbfc19f7d95244083	-0.13767976553254266
128	0x3faf2dfa13bdcacd	0.060897650632701784
129	0xbfb3c67fd9b58966	-0.07724761071361783
130	0x3f8d96a136e60f0b	0.014447459686159477
131	0xbfad17eaca7400f3	-0.05682309838630486
132	0xbfb010f120b6473f	-0.06275851296075262
133	0xbfb98f0f470cd178	-0.09983916744824295
134	0xbf9560891b596d65	-0.02087606648852382
135	0xbfb8565d21f09ca6	-0.09506780699358561
136	0x3fb90c53c06ffcdd	0.0978443474596022
137	0x3f9baaa96915addd	0.027018210448131675
138	0xbf99fd66e9dfb06a	-0.025380714439890907
139	0x3fbbd1bf12766da9	0.10866922569987615
140	0xbfbf0bd889bc4470	-0.12127450335198531
141	0x3fc07b50e4edcc6a	0.1287633054558655
142	0x3f9646985dc2c48c	0.02175367424269274
143	0xbfc0946f12b0cdcb	-0.1295298424971477
144	0xbfa50120344f2599	-0.04102421415843622
145	0x3f944ae97e332d23	0.01981701691401584
146	0x3fa2b213031546b8	0.03651484882960915
147	0xbfc08c6c667118c5	-0.1292853832439446
148	0xbfc032180055f69f	-0.12652874008556567
149	0xbfb1ee1e5afec756	-0.07003965112269603
150	0xbfa16d55ee59f9be	-0.034037289949071944
151	0xbf81f233af26bb76	-0.008762744696324747
152	0xbfa9e05be3e4795c	-0.05053984791651331
153	0xbfa8250a2f5c97d0	-0.04715759113450668
154	0xbfbda21ac0120ec8	-0.11575476826879616
155	0x3faf6bc3a6d83f09	0.061369051090990175
156	0x3fb5eec9106de31a	0.0856748261557069
157	0x3fb6f989b7a129ab	0.0897451470674812
158	0x3f870da0f713648a	0.011256463565972891
159	0x3fa42614deb83144	0.039353038966597725
160	0xbfb2d4ab76d59b73	-0.07355758334379718
161	0x3fb9a4f73c4aa6b8	0.10017342779124305
162	0x3fbcf2f6bd67f761	0.11308233379528822
163	0xbf8b482a267655dc	-0.013321236895346304
164	0x3fac81b77a11a870	0.05567715993022737
165	0x3fb94b9da45f44d2	0.09881005537978929
166	0xbfb34419eb5e3e6d	-0.07525789257328493
167	0x3f8cc9a6db106786	0.014056495247178235
168	0xbfa9f2ff1a9c32bb	-0.05068204116660043
169	0x3fa57b6e56ac1126	0.04195732887277108
170	0xbfbc01f7fbaf798a	-0.10940503973640694
171	0xbf6cadaa623857a5	-0.0035007789426897023
172	0xbf8bd4fecc328364	-0.013589850050551973
173	0xbfa1c1349ff1fb11	-0.034677166485371676
174	0x3fb6da1851870ca5	0.08926536550920845
175	0xbfc73a46afe9a335	-0.18146594609722802
176	0xbfa8ffc920838ee2	-0.04882648965738469
177	0x3fb9df7da52189c5	0.10106644898909341
178	0x3fab3ca0a905d0f4	0.05319692672029133
179	0xbf93b7e598426549	-0.019256198328183847
180	0x3f545d0377a8ec01	0.0012428792821441716
181	0x3fad5e87da4ac741	0.05736183681200525
182	0xbfb69847b58467a4	-0.08826111013004706
183	0xbf9caa3f3fe6a42a	-0.027993191027835852
184	0x3fc040d38f225757	0.12697834481212553
185	0xbfb75cf7a27247bb	-0.09126231876351103
186	0xbfa4c191987b4b2b	-0.04053931223247383
187	0x3fb3fca2e9282745	0.07807367508226289
188	0x3fb9915a25219d9b	0.09987414747739935
189	0x3fb105458b944216	0.06648668916410147
190	0xbfa9200bbf822a06	-0.04907261574506454
191	0x3fb84f234fde651b	0.09495754909439251
192	0x3fa281d0d9b93ab8	0.03614666612394529
193	0x3f7a43d067ddeb57	0.006412328801043219
194	0x3faa7eeb596aeff1	0.05174956766629169
195	0x3fc6d6adbd01fd23	0.17842647293944322
196	0x3fa3689c4493f79e	0.03790748917707208
197	0x3fb25fb228772d7a	0.0717727040093247
198	0xbfd0968b83f01200	-0.2591885364966231
199	0x3f9efd38f6dd53e0	0.030262842242638643
200	0xbfac2701c5ec71d2	-0.0549850992303821
201	0xbfb939bd1bc07c25	-0.09853727271591646
202	0x3fceb1488a622164	0.23978525883672852
203	0x3f9b83980a276077	0.0268691784093282
204	0xbfc06f16ec9a25f5	-0.128390183952703
205	0x3fc616f62779c5c2	0.17257573058627257
206	0x3fb67c70f2475d08	0.08783632197388525
207	0xbfc379d97b357bc1	-0.15215605274258162
208	0x3fc8755451db9bc2	0.19108060833897694
209	0x3fc85928d182a6fe	0.19022093038557125
210	0xbfc78433a80cff31	-0.18372197824100447
211	0xbfa9989086c5ef1c	-0.049992100192836925
212	0x3f9b43bce30b7474	0.026625586850844887
213	0xbf90cd7616d2764b	-0.016408772604896076
214	0x3fa6ae7f20788595	0.04430005332347801
215	0x3fbb7d098aef5ae1	0.1073766674229364
216	0x3fb7fbab5bf54af2	0.09368391985962513
217	0xbf8f2a3cf01382ce	-0.015217281414551389
218	0x3fc3d176d652b97d	0.15482984032628258
219	0xbfc5e76568399162	-0.1711241492186089
220	0x3f9c8613540727dc	0.027855207446726968
221	0xbfaa19ed11e7f124	-0.050979050098222595
222	0x3fc7f47554534438	0.18714777581638642
223	0x3f94f205156f3df2	0.020454482491741595
224	0xbf5b3c8e7c8085ec	-0.0016623870342374848
225	0x3fada2a3a1e1ac19	0.05788146353810237
226	0x3fa159f4cdc6fe8c	0.033889436835576964
227	0x3fc135c8a85c1cef	0.13445385189718403
228	0x3fb436143ecf9c92	0.07895018132659207
229	0x3fcd312e4f13227c	0.22806338177749186
230	0xbfa859ff5d26ca9b	-0.04756162654975534
231	0xbfb20627149b9bb0	-0.0704063821136589
232	0xbfb74302ed79ccd7	-0.09086626336811619
233	0xbfb5d5d46e7f6fb3	-0.08529403398227835
234	0x3fa253b1b205f728	0.03579478548179643
235	0x3fad8f07fd0366f0	0.05773186648884898
236	0xbf84def1bf5a0971	-0.010190857555475859
237	0x3fc1b5190071b85b	0.1383391620797195
238	0x3fa7cbeb415c21d5	0.04647765324449763
239	0xbfca570bfc5ac526	-0.20578145811081433
240	0xbfc30bb884ea3d1b	-0.14879518976201997
241	0x3f943b0912302970	0.019756452307811256
242	0xbf54f2ef517cd8f8	-0.0012786233036883848
243	0xbf8490905bab77de	-0.01004135875467321
244	0x3fd469322285904e	0.3189206444860745
245	0xbfa194cfbc538c8a	-0.034338466395433434
246	0xbfb9c6eaeda592d2	-0.10069149305270322
247	0xbfcbbac8b7912286	-0.2166376968691745
248	0xbf958ff91b11e3f1	-0.021057026173796293
249	0xbfb7fcdc3b97b5d6	-0.09370209174058827
250	0x3fa334fe678685bb	0.03751368535746332
251	0x3fa126214be05482	0.033494034301988954
252	0xbfbc0992f19cab79	-0.1095210876343752
253	0xbfb723379da515e5	-0.09038112257720561
254	0x3f97e35a3f04567c	0.023328218551873267
255	0x3faebf1b35e25a36	0.06005177529111842

gru1.bias_ih_l0 f8 [192]
0	0xbfb72458385dacb3	-0.09039832473870284
1	0x3fa84feb3775717a	0.047484732169979574
2	0xbfb16e5e712648b0	-0.06809034597816566
3	0x3fc07e0a8e1bc07a	0.12884647311102865
4	0x3fb92f6544041b7e	0.09837944899127923
5	0xbfb12408e6d72350	-0.06695609699012306
6	0x3fbe2e764a7e892e	0.11789645498950982
7	0xbfbf5b06c2504e1a	-0.12248270267473807
8	0x3fbe737a3db95f5a	0.11894954688011464
9	0x3f8cd31dec0ab261	0.01407454849808082
10	0xbf96200e18554c76	-0.02160665534513525
11	0x3f9276ca217ab9b8	0.018031271260662257
12	0xbfbfcdb27d68064e	-0.12423244058302282
13	0xbfae0591be52f8b1	-0.05863624046604466
14	0x3f9ab1a32dc03da6	0.026068257968345464
15	0x3fcbf90d62e29db0	0.21853797272090736
16	0x3fc49324064ee8fb	0.16074037845630315
17	0xbfbae57b68f787e7	-0.10506411850613483
18	0xbf8bbb0a3c0f121b	-0.013540344198085077
19	0xbfb5ef4e3b1839fc	-0.08568276350727183
20	0x3f9272c54a4a097b	0.018015940341237418
21	0x3fbf91f1ccde4e7e	0.12332068683309136
22	0xbfa76a1ba9d6a1b4	-0.04573141525480953
23	0x3fa44293ca6318a6	0.03957044454141227
24	0xbfb8e013e9243239	-0.09716915552071094
25	0x3f94189824d0f403	0.019625069853862708
26	0xbf91e9d0f543bd99	-0.017493500680698302
27	0x3fa018a5a9ba3e05	0.031438042610826535
28	0xbf983c927aa375be	-0.02366856454397292
29	0xbfb0220292101370	-0.0630189520453095
30	0x3f87427e3212c0ac	0.011357293990244287
31	0xbf97e071f6933dc7	-0.02331712787127829
32	0x3fb30722883473e1	0.07432761979403281
33	0x3fae4bcbe647b319	0.059172031269417676
34	0x3fa70da380c0d435	0.045025929896305085
35	0xbfb6e4e5b43a1a05	-0.08943019533226255
36	0x3f91dde534f67693	0.017448026044454123
37	0xbf7e434485eb06ec	-0.00738837019770398
38	0x3f77428eaeac25bb	0.00567870841292389
39	0x3fcc02aa59a9ef77	0.2188313424884389
40	0xbf87b8e67b959a8a	-0.011583138128753907
41	0x3fae758cdb5c5099	0.059490587022225934
42	0xbf9f14ac4233a850	-0.03035229829848901
43	0xbfa97afe7c5642fa	-0.04976649539742613
44	0x3fc12bde5b6f272f	0.13415126289901866
45	0xbfb50a65c702c0d8	-0.08218990429554951
46	0xbfb40635bf6d2a6f	-0.07821975635048671
47	0x3fba811d276ef990	0.10353262150508713
48	0x3fa0189e585b5640	0.031437824521770796
49	0x3fbf408924e25a21	0.1220784869241034
50	0x3fa90fd2a9d4bbb4	0.04894884417659942
51	0x3fa0b28872ae8bfb	0.03261209869312861
52	0x3fb10f4701a9bcb9	0.06663936415292228
53	0x3fb5143e1aee456d	0.0823401275395292
54	0x3f8aab02b0511b5d	0.013021489148867077
55	0x3fc087de51a7108b	0.12914637553160832
56	0x3fc6a92c17893861	0.177037726871677
57	0x3fafa26c26c0476a	0.06178606007610095
58	0xbf745ab123d514a3	-0.004969303086288654
59	0xbfb6959dec557e23	-0.08822047252532932
60	0x3fb016d58b0929f7	0.06284842152050617
61	0xbf61db20e8e6f91c	-0.002179683949378076
62	0xbf7b66aa9eebb02f	-0.006689707267224106
63	0x3fc06fdd190b90b6	0.12841380808743502
64	0x3fc8eed32a69597f	0.19478835650324908
65	0xbf82fa4d98f77953	-0.009266477804825845
66	0xbfa8eadab435ed97	-0.0486667962058746
67	0x3fcbef7924e67e79	0.2182456426789832
68	0x3fbff4c051c43661	0.12482835766078317
69	0x3fc5091d6a6c43f3	0.1643406648295521
70	0x3fc49ecb83d2a680	0.16109603821432827
71	0x3fc81abed6b3bed0	0.18831620677473504
72	0xbfa2969934c7cbe4	-0.03630522507946646
73	0x3fa158c7ac667e92	0.03388046245094957
74	0xbfb261b1cad73a92	-0.0718031997887272
75	0xbf8048b87df099ce	-0.007951203673724285
76	0xbfc2cc25c876b514	-0.14685509002939823
77	0x3fc351525a6aa155	0.15091924109334323
78	0x3f6f0fa84ecc5a61	0.0037916457425908744
79	0x3fb6a9ad7109dd59	0.08852657327394321
80	0xbfc15c5e38bc20b7	-0.13563134927995232
81	0x3fa041d4385fe173	0.03175223529973694
82	0x3fbf4e60f980ead6	0.12228971568485333
83	0x3f8e1c2e17c1c9ce	0.014702186679845488
84	0x3fbee1b523d359ff	0.12063152432106249
85	0x3fb9caa952919e9f	0.10074861780014509
86	0x3fbfdab89cb89c94	0.12443116975974738
87	0x3fc1724d28e5dd40	0.13630070206611755
88	0x3fb12e2750e7618a	0.06711049771491254
89	0x3fc55796093ae940	0.16673541498841793
90	0x3f9d5db364e91d93	0.02867775252732725
91	0xbfbdab9b2e165750	-0.11589975238015637
92	0xbfd1a195987d6e41	-0.2754873265418816
93	0xbfb47daa8d3e3e7a	-0.0800425143081557
94	0x3fa863eb3fa6273d	0.047637321014077895
95	0xbf957d503532ebea	-0.02098584484768288
96	0x3fc5297139cdc806	0.1653272182698517
97	0x3f8107f297aa1938	0.008315940144950504
98	0x3fbc1e671ab3d606	0.10983890916744352
99	0x3fc2d757576c403a	0.14719669121450513
100	0xbf830762532ea5fa	-0.009291427768249417
101	0x3fbcea128d44d2fe	0.11294666241594695
102	0x3fc66e40e453b3b8	0.17523966931130786
103	0x3fce1c7d67f36d02	0.2352444417545954
104	0x3fa298e15de1f39e	0.036322634420663066
105	0xbfbbedf476d858c8	-0.10909965421191992
106	0xbfb240b40815e8e6	-0.07129979321863153
107	0x3f82e9f409d0b28d	0.00923529295877159
108	0x3fb8956c26d996cb	0.09603000591740878
109	0xbfc389966975e8fb	-0.15263633870546997
110	0xbfa8084a3a2e3c17	-0.046938247301220475
111	0xbf5cba310ee423cf	-0.0017533759196928127
112	0x3fb9a8475ea424f7	0.10022398052764801
113	0xbf936ad7b29935a7	-0.018962259555612395
114	0x3f7f87a5c0706db9	0.00769772288097264
115	0x3fb3ac1464102975	0.07684447710940907
116	0x3fbe838ef0014fde	0.11919492110729332
117	0xbfa7c63dfd4b89a6	-0.046434342546280136
118	0x3fa623fb9f778c04	0.043243277755912884
119	0xbfc8070c2d6739bf	-0.18771507470087376
120	0x3fcedb935951e6ef	0.24107591496777256
121	0x3fc68e8a29af8b4f	0.17622496638713378
122	0xbfc475f232557e7a	-0.15984942872727342
123	0x3fcdc788108d3984	0.23265171821772068
124	0xbfd5ab3f56080a8c	-0.3385771122122285
125	0x3fbec5a80f94cb3d	0.12020349865342168
126	0x3f9cb52b57e4a130	0.02803485607106032
127	0x3fc152ec81d5c012	0.13534313525769953
128	0x3fad93981db4a24f	0.057766679407283854
129	0xbfb15d01567dd3a5	-0.06782539712533138
130	0x3fbd955de76a2a4a	0.11556040668271197
131	0xbf979d78baf965b5	-0.023061643993377696
132	0x3fc0464978f5d6eb	0.12714498907342117
133	0xbfad9bc30b7b2532	-0.05782899394177789
134	0xbfb1d058467806d8	-0.06958533974104897
135	0xbfa63aee79dbf470	-0.04341836202181859
136	0xbfa8300b9f9c8312	-0.04724155734425585
137	0x3fb59ae4a0026f9e	0.08439473062975231
138	0x3fbe3473f42d263a	0.11798786841713929
139	0x3fbc46d7ef070ff3	0.11045598588594867
140	0xbfb18c648f0b3614	-0.06854847423820615
141	0x3f6a961081b68020	0.0032453844448383645
142	0x3fa8632af58b8f47	0.047631590341352274
143	0x3f9d26687e066f66	0.02846682805248637
144	0x3fafef850d550c4f	0.062374265553920887
145	0x3fa2d2d7827e5171	0.03676484554231053
146	0x3f9e3110c2ebe033	0.029484044930512886
147	0x3f95c957e9829ef9	0.021275876643499256
148	0x3f9adfaec588f8ed	0.026243906790335215
149	0x3f9c5c360aca7a71	0.02769550743925681
150	0xbfb79ba4d18d13fc	-0.09221868625634494
151	0x3fb75e735450dd47	0.09128495033734395
152	0x3fbdfafe6fbd16de	0.11711111286157513
153	0x3fb8e84ac28ef41c	0.09729449510537375
154	0x3fba5f8a1cd42319	0.1030203171141121
155	0x3f9c47ab8ab1a3ac	0.02761714967747124
156	0x3f8836252c1fb81b	0.011822023781828552
157	0xbfb0db06d664a66c	-0.06584208234985461
158	0xbfb0166983262614	-0.06284198238258681
159	0xbf9db7b4f82f7679	-0.02902109875491596
160	0x3fb35e49a86c3358	0.07565746652489957
161	0xbfb2e05d640ff647	-0.07373603527954585
162	0x3faf0d5f4b1c5608	0.060648897093567966
163	0xbfbd069264442d4d	-0.11338152835758315
164	0x3fae7d1480bd99b6	0.05954803535023549
165	0x3fa1f1360e87ccb8	0.03504342009900924
166	0x3fb1240d634e33fe	0.0669563643879911
167	0xbfb8fb3b0705fedb	-0.09758347436399666
168	0x3faf1b4d6400ff5e	0.06075517507315341
169	0x3fae57d7a1117972	0.059263933574345354
170	0xbf8d9a33777e534b	-0.014454271396780924
171	0x3fb0ba621e479da7	0.06534398307086652
172	0x3fbb42792817e7a6	0.10648305157510993
173	0xbf9cf1b891ea11ee	-0.02826584234800749
174	0xbfb2b6ce6b7348ba	-0.07310190318392787
175	0xbfbf1433758aac3b	-0.121401992985441
176	0xbfaa673133a872b5	-0.051568543964298476
177	0xbf84a1653d4af569	-0.01007346242237857
178	0x3fa146de02f343b3	0.033743799076212076
179	0x3fb9496e57b82893	0.09877671853624496
180	0xbfb27dd298ce0287	-0.07223240118583805
181	0x3f958726e59a575f	0.021023376239632238
182	0xbfae856c641f066b	-0.05961168977911487
183	0x3fbb0f4a15d5436a	0.10570204766305627
184	0x3faa77c69c796399	0.05169506702504307
185	0x3f845d2dcd4e3ca5	0.009943349674158173
186	0xbfbaba05bb59ac73	-0.10440097640973693
187	0x3fab37ace99857e1	0.05315914489271712
188	0x3fb000f51a5ba5d1	0.06251460927491982
189	0x3fa0013c563b5add	0.03125942757258369
190	0xbfbc77c842a7a7d7	-0.11120273234669696
191	0x3fb8e33e1b11d7ab	0.09721744690781857

gru1.bias_hh_l0 f8 [192]
0	0xbfb47e27b85dacb3	-0.08004997492905623
1	0x3fa91f8f3775717a	0.049068904418819906
2	0xbfbbed26312648b0	-0.10908735942783454
3	0x3fb1e9e29c37810a	0.0699750548733428
4	0x3fbe96a384041b7e	0.119486064653854
5	0x3fa6db71b251b972	0.0446429758238648
6	0x3fa7619c14fd125d	0.045666577875213867
7	0xbf82d11a1282712b	-0.009187892618051826
8	0x3fcb46d63edcafbf	0.2130992705291401
9	0xbfa9406c04fd5353	-0.04931962548167825
10	0x3f9ccf8be7aab3ac	0.028135477080173096
11	0x3fb9639f485eae6b	0.09917636410562529
12	0xbfa3fd46fad00cbe	-0.03904172717741393
13	0xbfbe446b5f297c3f	-0.11823149750988281
14	0xbfbd42c6348ff08b	-0.11430014403589632
15	0x3fa0e0020b8a76f4	0.03295904532317975
16	0x3fc4dbf9664ee8fc	0.16296308036346108
17	0x3facd6982e10f047	0.05632472574549801
18	0xbf98d3c61e078916	-0.024245353300906457
19	0x3fc1e4024273e31d	0.13977077717552158
20	0x3fc03c3309494129	0.1268371386854679
21	0x3fa5027d19bc9cf9	0.04103461207551535
22	0x3f8ad15958a57985	0.013094614045880313
23	0xbfb22ef21ace73b3	-0.07102883486227433
24	0x3fb9eae096dbcdc7	0.10124019320556164
25	0x3fa0d75c926879f7	0.03289307868202578
26	0xbfb868947d50ef5c	-0.09534576472736717
27	0xbfaad4fdd645c20e	-0.052406246572790235
28	0x3f8a35c30ab914af	0.012797855152835018
29	0xbfab40b4242026dc	-0.053228024873602314
30	0x3fb18bf146425817	0.06854160275756303
31	0xbfa023987b499ed5	-0.03152157311415996
32	0x3fb3311a083473e2	0.07496798229517723
33	0x3f807eef991ecc45	0.008054611072884419
34	0x3fb66321c0606a27	0.08745013186163729
35	0x3fbd53750bc5e5fb	0.11455470597675081
36	0xbfb08802b2c2626f	-0.0645753561424358
37	0xbfa1707c90bd60b7	-0.03406132952540147
38	0x3fa6c98ad5d584c6	0.04450639591483134
39	0x3fcbc0d119a9ef77	0.216821801692159
40	0xbf8afc5c7b959a87	-0.013176653405662776
41	0x3fb5efe02dae2853	0.08569146266214149
42	0xbfaca18aa119d413	-0.05591996399463297
43	0x3fc2585ba0ea6f43	0.14332146985258917
44	0xbfa1745d924362a2	-0.03409092340888732
45	0xbfb020588702c0d8	-0.06299355789338124
46	0x3fbdb09b4092d591	0.11597605062964635
47	0x3f903aa89dbbe659	0.015848765017813047
48	0xbfad0b4a27a4a999	-0.05672675832677782
49	0xbfb245981b1da5df	-0.07137442266471038
50	0xbfaa6fd2d62b4433	-0.05163439621322432
51	0x3fb11b6ab9574602	0.06682459855007752
52	0xbfb390307e564344	-0.07641890606306584
53	0xbfbacaaba511ba93	-0.10465500621806205
54	0x3f89de28b0511b5c	0.012630765801203196
55	0xbfb88b469cb1dee0	-0.09587518048817456
56	0x3fc33fcf9789385e	0.15038485430926846
57	0xbfb07e58ac9fdc43	-0.06442789282287813
58	0x3fa876c8db855d6f	0.04778125457476789
59	0x3fa82611275503cf	0.04716542821052593
60	0x3fb6fd39cb0929fd	0.08980141837051998
61	0x3f6a5007171906f4	0.0032119883042306344
62	0xbf8f4aa34f75d840	-0.015279079306065424
63	0x3fc0a097790b90b4	0.129900869468775
64	0x3fc9a98c2a69597f	0.20048667975306597
65	0x3fadadd519c221b8	0.05796686114723876
66	0xbf9be2bc686bdb31	-0.027232116578456093
67	0x3fd113fb12733f48	0.2668445282151777
68	0x3fc483b688e21b2d	0.16026956256629302
69	0x3fc6db9faa6c43f4	0.1785773832457661
70	0x3fcc0b6ec3d2a67c	0.21909889756834733
71	0x3fc1e8d056b3bec5	0.13991741403105187
72	0x3fc3d1a2b2ce0d02	0.1548350689955456
73	0xbfb5684469ccc0c0	-0.08362224181178401
74	0x3fb03351b528c56a	0.06328306839784195
75	0x3f97e37dc107b319	0.02332874766027535
76	0xbfc65304e876b50e	-0.17440854407087908
77	0x3fba2f5234d542b6	0.10228456296796193
78	0x3f97352809d98b2f	0.022663713074858535
79	0x3fb45881b109dd58	0.07947550365667178
80	0x3fb6fdc58e87bea2	0.0898097489332437
81	0xbfb683ac23d00f4c	-0.08794666170439064
82	0x3f8d5e21cc0755db	0.014339698828659422
83	0xbfb495433d07c6ce	-0.08040256729125447
84	0x3fa7c59bc7a6b42a	0.04642950832508348
85	0xbf832f516b730a68	-0.009367595759959005
86	0x3fa3b35c397138f7	0.0384777851219144
87	0x3fbf753f51cbba9b	0.12288280245750587
88	0x3fc6ccc12873b0cd	0.17812361216727482
89	0x3fc0eee3893ae933	0.13229030800523275
90	0xbfb2d83a26c5b89a	-0.07361186453428772
91	0xbf80899d70b2bad3	-0.008074979783797264
92	0xbfc40b1110fadc84	-0.15658772782419217
93	0xbf8c518c69f1f3e2	-0.013827416403950413
94	0xbf9095b780b3b192	-0.016196124296514798
95	0x3f7e1f332b34506d	0.007353973272319886
96	0x3fc83455b9cdc80c	0.18909713337376421
97	0xbfb6afb8ad0abcd7	-0.08861879563004336
98	0x3fb9748ddab3d608	0.09943472470680359
99	0x3fb021196ed88063	0.06300505596345966
100	0x3fc1e6df9acd1594	0.13985819872520422
101	0x3fd041ace35134bb	0.25400850485750553
102	0x3fc900902453b3b5	0.19532968305375467
103	0x3fb2da8c4fe6d9f8	0.07364727926947257
104	0x3f9b624bbbc3e73f	0.026742156348496634
105	0xbfa1178dedb0b16e	-0.0333828308724574
106	0xbfbee59cc815e8db	-0.12069110760595285
107	0xbfa04cd57d8bd353	-0.031836196494544076
108	0x3fc9411a536ccb6b	0.1972992808674364
109	0xbfb2524d52ebd1fc	-0.07156832956736275
110	0x3fb785dd62e8e1f6	0.09188636460101648
111	0x3f9482bfef11bdbd	0.020030020681984107
112	0x3f9f8d187a909404	0.030811674576529682
113	0xbfc1cb0d565326b1	-0.1390091582782609
114	0xbf95ee578fe3e499	-0.021417015225754985
115	0x3f86f32120814bc9	0.011205920032954968
116	0x3fd5497d1c00540c	0.33261039480686416
117	0x3fb096b6815a3b39	0.06479969652194208
118	0x3fb66607cfbbc604	0.08749436208361067
119	0xbfbac1a49ace7399	-0.10451725749449138
120	0x3fcda980f951e6ed	0.231735345590827
121	0xbf7b9022ca0e97ad	-0.0067292555767490105
122	0xbfc3def8b2557e79	-0.15524204929078048
123	0x3fbcb182611a7311	0.1120835768765114
124	0xbfbe463358202a08	-0.11825867558960834
125	0x3faedaf41f299648	0.06026423340226167
126	0x3fc083246afc9416	0.12900214408833283
127	0x3fb46e7943ab8037	0.07981069471452505
128	0x3f91e506c2b445b7	0.017475228914070686
129	0xbfc0704288ee5939	-0.12842590032659887
130	0xbfbf9762731e4b7a	-0.1234036952067025
131	0xbf9107b79db37df6	-0.016631001472772376
132	0x3fb2557fb53bf840	0.07161710905708762
133	0xbfaacf7c7e887980	-0.05236424488633684
134	0x3fb632f80fad62be	0.08671522505518234
135	0xbfb87d9e337a94ae	-0.09566677815253641
136	0x3fa78b2c1b760b20	0.04598367533892245
137	0xbf919d390261cedb	-0.017201319475545467
138	0xbf981078285bcf53	-0.023500325644774844
139	0x3fb8d264601a6138	0.09696032854333658
140	0x3fbd3eb2ededee3d	0.1142379599459042
141	0x3fb47bfaef90cdc6	0.08001678799410347
142	0xbf8b643de98b02fc	-0.013374789895693955
143	0x3f8b78de313c43ff	0.013414131047769116
144	0xbfb913b1700548e7	-0.09795674309615131
145	0xbf8641b4eaaf271d	-0.010867513095849152
146	0x3fbe097804c47a04	0.11733198276895257
147	0xbfb329826e027fcb	-0.0748521345690271
148	0x3fbd02ef3820a23f	0.11332602615642261
149	0x3fb9a7aad33eba1f	0.10021464974736503
150	0xbfb613d2dc3f8081	-0.08623998524808664
151	0xbfbb2ba474b20ae9	-0.10613468026171415
152	0xbfb5d60d7b11a708	-0.08529743437398107
153	0xbf40f0903cc29391	-0.0005169586452394727
154	0x3f832bebbde55c73	0.009361116154350512
155	0xbfc0a88088f8a1cf	-0.13014227569625667
156	0x3fb42e6c0b4716d2	0.07883334422430302
157	0x3faf54a249229b89	0.061192580630907996
158	0xbf929f4a0b6df28a	-0.01818576521644614
159	0xbfb00998cf72a488	-0.06264643730777852
160	0x3fb9da655b1f523b	0.10098870730082236
161	0x3fb376a6a116ec4f	0.07602921898698976
162	0x3f5df7c19ed2e467	0.0018290892433425966
163	0x3fb8ba71e4bc8a67	0.09659492334734808
164	0x3fbba9ab16b6c809	0.10805768303433196
165	0x3faf0a2c5dde4974	0.06062449117520688
166	0x3f8ce9b284091226	0.014117617277528426
167	0xbfb59cb8408955bc	-0.08442260337445523
168	0xbf711c2242cb4d4b	-0.004177221137712304
169	0x3fa177b1fbd96f18	0.03411632727940467
170	0x3f8120dda38cdd21	0.008363467744500643
171	0x3f985adc720d4142	0.02378410764805606
172	0x3fa6d7b2b544af6d	0.04461439574001145
173	0xbfbcede78852ecb9	-0.11300513342114273
174	0xbf9c1fdc563201c0	-0.027465288887926098
175	0xbfab94f5cfdc6134	-0.05387085115779869
176	0xbfad1277d05ed72d	-0.056781524835442056
177	0x3fa68ab606c5a13d	0.044027031256350636
178	0x3f7264b576657dc0	0.004490574682079751
179	0x3fad0f85c7e6c5ab	0.05675905289843838
180	0xbfbf5dd986dc881c	-0.1225257829906074
181	0x3fbe25a675bbd14f	0.11776199697834965
182	0x3fa80399384f2cfc	0.04690245449418204
183	0x3fa46c8fd961e240	0.03989076164811367
184	0x3fbcd5e9f7285d57	0.11263906749842555
185	0xbfb269e35c00fd36	-0.07192822452724532
186	0xbfab51c1b3cd3074	-0.05335812873690396
187	0xbf9ddf4a425c8ea7	-0.02917209653891342
188	0xbfb0c3cd39ca61aa	-0.06548769627477805
189	0x3f64a73b91504f1d	0.0025211490087801007
190	0xbfb28f0eadbe14b3	-0.07249538175354324
191	0x3fa7fe827740e50f	0.04686362939578192

gru1.weight_ih_l1 f8 [192, 64]
0	0xbf740ab05b4624ed	-0.004893006222468116
1	0x3fc888b6d9fb6d8e	0.19167218822154236
2	0x3f81bb40787191d3	0.008657935786865167
3	0xbfb261cc9fc4a035	-0.07180479908549915
4	0xbf90f5fc2ef4569f	-0.01656335865580749
5	0x3f9c6e9dc7d9f14f	0.02776571781440512
6	0x3f84c1bfc63a13b6	0.010135172116187845
7	0xbfc32168580264bd	-0.14945701882678533
8	0xbfbc18e307015a21	-0.10975474282290822
9	0x3f952caf244ce819	0.02067826899585876
10	0x3fce8f326b2a6ea3	0.23874502403929396
11	0x3fc332476ba63032	0.14997189289386054
12	0xbf6373fb35e92fc0	-0.0023746401268791295
13	0x3fb6da456cc05adc	0.0892680540567698
14	0xbfc66989f624fd89	-0.17509579199575523
15	0xbfa983633f13e893	-0.04983053345672874
16	0xbfbc3b83ef938c68	-0.11028313254387145
17	0x3fc31b4626191d9d	0.14926983700045762
18	0x3f9caf3ffb78441b	0.028012275432107808
19	0x3f9e889e212bed22	0.029818030142434122
20	0x3f96f9029e5d0d5c	0.022434273639431054
21	0x3f245de433e98a74	0.00015538607290739896
22	0xbfbb38a250269a69	-0.10633291680151448
23	0x3f96641240812b84	0.02186611670212414
24	0xbf75e569971b6423	-0.005345737897834576
25	0x3fb2a68f00687a06	0.07285398254359884
26	0x3fc6a65a7165a5d1	0.17695169960943116
27	0x3f6bea64e6e0a84e	0.003407666276889854
28	0x3fa713156616bd25	0.04506747122956715
29	0xbfb487b1dc60f77b	-0.08019553785649507
30	0xbf9383e566db4021	-0.019057831194743472
31	0x3fa8e3adb82edc26	0.04861204980209548
32	0xbfc61ae21332f2b6	-0.17269540727092697
33	0x3fb3317f9c47e395	0.07497403684091204
34	0x3f9f9f1cdb188288	0.030880404350798446
35	0xbf9091dffd767f3e	-0.01618146881594317
36	0x3fa4f6608453a91b	0.04094220748250362
37	0x3fc19935e6c596af	0.13748811500697886
38	0xbfc389e2c4cd5999	-0.15264544114570525
39	0xbfc0f3a7d257b434	-0.1324357773841328
40	0xbfb7427ff0e74a66	-0.09085845595772354
41	0xbfb95989aa2caff5	-0.09902248768474904
42	0xbf9c6bbe4a25aabe	-0.02775475814398009
43	0xbfb7584c0c4d60ff	-0.09119105625484634
44	0x3f3132ce4c565f13	0.00026242767884231236
45	0x3fc6256d319f1a1e	0.173017167309994
46	0x3fb03af47ee072f1	0.06339958283974646
47	0x3fa6d6b10fffa25a	0.04460671730322892
48	0xbfc26f982341106b	-0.14403058740038274
49	0xbfa620fd91d26906	-0.043220447588469255
50	0x3fa7686d744ae43f	0.04571859402262434
51	0x3fc4cf17db1d0269	0.1625699825181244
52	0xbfb8d600cde1626a	-0.0970154287946429
53	0x3fa778252cc13238	0.04583851023980795
54	0x3fae962d2746c72a	0.0597395048565786
55	0xbfa56bfbf109a6a4	-0.04183947865824436
56	0x3fafd42be9ed9ffa	0.062165615373316954
57	0x3f76473b4852297b	0.00543902547100072
58	0xbfa0032d922019a2	-0.03127424629933563
59	0xbfbf06ae58c0959a	-0.12119569460681703
60	0xbfad6597460d552c	-0.05741570215347233
61	0xbfcce8c8209337cd	-0.22585393515185928
62	0xbfc6f3db37635835	-0.17931690411086412
63	0x3f9c0ae78567f1c2	0.027385346906145143
64	0xbfb42a3efe4117b9	-0.078769623826786
65	0x3fa34d3a927b862c	0.037698583966413984
66	0xbfaa1d73b76e9075	-0.051005951062763545
67	0x3fbbc46ff6947c18	0.10846614618320449
68	0xbfa2285f524b1f2a	-0.03546426658209463
69	0x3fb450b3efc8e18b	0.07935642818563886
70	0xbfc1dbe7c7ee978c	-0.1395234800558537
71	0xbfb40fd084dc9d22	-0.07836631053634283
72	0xbf904ad5c8a1a22b	-0.015910473223273918
73	0xbfce37e39c315556	-0.23608060003850068
74	0x3fd36c9750682c34	0.30350287296522827
75	0x3fae341f0bf1c145	0.058991403778124986
76	0xbfb6c0f209595fee	-0.08888161400079728
77	0x3fbd0c1518f66651	0.11346561297832493
78	0x3fbc5688bfcdfdf3	0.11069540674906601
79	0xbfbb06784c2e9aa0	-0.10556747302926306
80	0x3fbb2123faf4db13	0.10597443463198557
81	0x3fb4e54bc145aaa3	0.08162377804334624
82	0xbfaa717fc3e5e93f	-0.051647179282513715
83	0xbfb0a5090bae5a0e	-0.06501823935682458
84	0xbfa395c29311bdb9	-0.03825195355681949
85	0xbf99ce17e7182a64	-0.025200246314890498
86	0xbfbaac51dfa18bec	-0.10419189176313609
87	0x3fb64998dfdbfccd	0.08706050362887936
88	0xbfb2cd843bc496a0	-0.07344843348672692
89	0x3f9a6a33e8781ff7	0.0257957564008677
90	0x3fc5101e28e5678f	0.16455437657242242
91	0xbfc2ef9f8dd1c443	-0.1479377214887184
92	0xbfb2f121d8766c3b	-0.073991885516464
93	0xbfb5fbe1172bfb6a	-0.08587462249486824
94	0x3fc71824c078375f	0.18042430303506315
95	0xbf73999257c70163	-0.004785129215122505
96	0xbfc2bfc33cd6495c	-0.14647713156279962
97	0x3fc1914062d25a6e	0.13724522424009272
98	0xbf65f50b0b1c808c	-0.0026803222362020204
99	0xbfb27ea8956ef399	-0.07224515579487302
100	0xbf909d024a3adc21	-0.016223941593775607
101	0x3fc1298bf0944272	0.13408040282276407
102	0xbfb629016693c56b	-0.08656319383933002
103	0xbfbab8641999104d	-0.10437608361195423
104	0xbfb0c2adea5151dd	-0.06547057123800167
105	0xbfb53b1deaeb6f17	-0.08293330178588253
106	0x3f686880a77ff443	0.0029795182017538237
107	0xbfade25f9d2a9abb	-0.0583677176812691
108	0x3fa72cd708583d0d	0.045263976830137144
109	0x3fbc41e3df5f421d	0.11038040355129693
110	0xbfb9b56118bf6e48	-0.10042387823289645
111	0x3fb14255fd5273b6	0.0674184554540734
112	0xbfc03a52c12ec2e2	-0.12677988465067985
113	0x3f8ff5ebae4e43ae	0.015605775124443468
114	0xbfa48e94314a8c13	-0.040150290505401774
115	0xbf968b6b6d40470d	-0.022016218703419677
116	0x3fd32c73121e5bb3	0.2995879818858455
117	0xbfb7b8768a8e9648	-0.09265843279589447
118	0xbfbf167f917280c6	-0.1214370470138447
119	0xbfc86692c3e7bc8d	-0.19063028875050173
120	0x3f8b0ee02a2fcdb2	0.013211966788708594
121	0x3fc2178ebdc15ac2	0.14134392037768434
122	0x3fc27f25145d179d	0.14450515264814792
123	0x3fc64cfb77564043	0.17422431303976013
124	0xbfb18b8957a355fd	-0.06853540792084085
125	0xbfb6c47159af7550	-0.08893497886261525
126	0xbfae7e03a0862558	-0.059555161805358636
127	0xbfa750827be488e6	-0.04553611528742056
128	0x3f8bbcf38e41f821	0.013543989924297563
129	0xbfbe0a7d774f1060	-0.11734756624997678
130	0xbfa5a7bc2b52bafb	-0.0422953417668079
131	0x3f67223c7496841b	0.0028239422578768664
132	0x3fb549c5448f6758	0.08315689967949191
133	0xbfc14e5dc4f68f4a	-0.13520404927578006
134	0xbf813b11a4255d8a	-0.008413446256482233
135	0x3f85f475e7a29e87	0.010720177775808594
136	0x3fa4f61c2d2d3d89	0.04094017077897678
137	0x3fa7a3800164ed63	0.046169281168171115
138	0xbfb31189ebb30a34	-0.07448637012843379
139	0x3f9718e67d5b8532	0.022555924798216505
140	0x3f68d4ecdcc08380	0.0030312181679765238
141	0xbf9de54f47b6dca2	-0.029195059539884334
142	0xbf8a7a1c25f3b1f7	-0.0129282187540065
143	0x3f55a9ecb3d66ad4	0.0013222514674910328
144	0x3fb5b3165a546c5e	0.08476390557591304
145	0x3f1503933ac3b8d0	8.016191594936999e-05
146	0x3fac87dc9fffd64e	0.05572404339902147
147	0xbfb661bcf1e57375	-0.08742886453314987
148	0xbfb833493d6eb443	-0.0945325636846102
149	0xbfb78a97d86af024	-0.0919585135806647
150	0xbfb8cc92c76fe917	-0.09687154168196731
151	0xbfbc85bfe28d5655	-0.11141585618073553
152	0x3fb88b0e14bc95a0	0.09587181097284381
153	0xbfa04c6fbae0cc96	-0.03183316379763672
154	0xbf9ceecb83bd6ea9	-0.02825468055321659
155	0x3fb7e67d6b81c830	0.09336074709588682
156	0x3fac7e140ad8cbe8	0.05564940102012611
157	0xbfbcad3e4cd89cb4	-0.11201848388792507
158	0x3fb812bc8b1347da	0.09403589625733791
159	0x3fa8d888b1132776	0.048527022948816986
160	0xbfbd91636d9dcae7	-0.11549970079594694
161	0x3fa977b562902eb1	0.04974142864383902
162	0x3f8c8152738dc925	0.013918537284301433
163	0xbfa98d437934e018	-0.0499058804948051
164	0xbfb37b64f9d9d2cb	-0.07610159969210455
165	0x3fbdbe8d53711e5e	0.11618884360461254
166	0xbfc049b781eecb8a	-0.12724965900778457
167	0x3fb460f3a4715d66	0.0796043659660107
168	0x3f9cbfde443693b7	0.028075669206049727
169	0x3f8be44e326179ff	0.013619051849841133
170	0x3fb9d9a637668a17	0.10097731449653967
171	0x3fb58d6b6f622ff2	0.08418914288830573
172	0xbfae3286c684f48e	-0.05897923634845724
173	0xbf8bb039177f28ef	-0.013519712476313532
174	0xbfb5b883fea843f9	-0.08484673468798566
175	0xbfbf4663ac4e2ced	-0.12216780621217867
176	0xbfbb38cd8d1f615c	-0.10633549399733994
177	0x3f8c5c1aaea74b79	0.013847549872399988
178	0x3fbcf0300f31ebf1	0.11303997393581235
179	0xbfa0602714a63e93	-0.03198358656947877
180	0xbf9dac6ec1ac8dc4	-0.028978090830731565
181	0xbf9e36e26c14094d	-0.029506242605756672
182	0x3fa7ce966bd4618e	0.04649801317481482
183	0xbfb80709935f4d8b	-0.09385738227802258
184	0x3faa86cb770367bd	0.05180965259360402
185	0xbf79d2d0ede9fca0	-0.006304565553931912
186	0x3f90be87f943a64c	0.016351818646319224
187	0x3fb71e524a09487c	0.09030641849065718
188	0xbfb2b9309a909b87	-0.07313827298695062
189	0x3f8fd70ad9ce2ac5	0.015546879550830348
190	0x3fb2cbc6b8355d37	0.07342187878872584
191	0xbfb2f75892c72588	-0.07408670028157449
192	0xbfa2e04f712d2e68	-0.03686760193394606
193	0x3fab350a7845ccf3	0.053139044934960376
194	0xbfae40bd43204de5	-0.05908767170344812
195	0xbfb0814809fa8716	-0.06447267764681572
196	0x3fa582995cf5520c	0.04201201686615627
197	0x3f92263a9e0bcd93	0.017723956962937115
198	0x3fb48ac1657ee271	0.08024224021836247
199	0x3fb5906a32e7837d	0.08423484556943879
200	0xbfac3d1524d94cc3	-0.05515352320494451
201	0xbfbcadf31e2feb72	-0.11202926146499495
202	0x3fc025780735bd3f	0.12614345886275122
203	0xbf9e7b2a5615a502	-0.02976671362322226
204	0x3fa89a834ac011ff	0.04805383956412256
205	0xbfbd8512f4b7649a	-0.11531179880639045
206	0xbfa950308bddcfb6	-0.04943992335657248
207	0x3fb36d62213810c7	0.07588780699740304
208	0xbfb9ded7b8b50980	-0.10105655917599243
209	0x3fac52a85c318864	0.05531812787445814
210	0xbfafccb07a626830	-0.06210853094053481
211	0xbfbf49ff57303281	-0.1222228610860814
212	0xbfbd6f58e59f3526	-0.11498027425769361
213	0x3f91a59ae012fea8	0.01723329537048693
214	0xbfaaf7f2e271c00a	-0.052672948972826886
215	0x3f958239aa172911	0.021004582411287723
216	0x3fb9811a3e466ae9	0.09962619800937102
217	0xbfb0e80827088746	-0.06604052498780985
218	0x3fab496e9b378b1e	0.053294617125877006
219	0x3fa560ef9e73259b	0.041755188076034254
220	0xbfb76ed0d7e216ac	-0.09153466482720302
221	0x3fac33b6b495e43a	0.055082044166689006
222	0xbfb1aafac4ba3c88	-0.06901519110600607
223	0x3fa16721efbfc402	0.033989964023824384
224	0xbfc16fe38a2147f2	-0.13622707600239853
225	0x3fa9f8389b15056e	0.050721901827737934
226	0xbfba4cdfab9d572b	-0.10273549976167533
227	0x3f9ac1e2b04b5113	0.02613023949636879
228	0xbfb516af253fcae4	-0.08237738284496349
229	0xbfabf08893220b81	-0.05456949993187888
230	0xbfb370e13616c5c1	-0.07594115801364067
231	0xbfaff7a5b76c02ab	-0.06243627418553407
232	0x3fab17830d3e5ccc	0.0529137567202099
233	0x3fa07108fcab5535	0.03211238941518461
234	0x3fbf41c22e677f58	0.1220971453944889
235	0xbf7e33e2d3a10e0e	-0.0073737011353531955
236	0x3fa83010d2a84795	0.0472417122984005
237	0xbfb8f693116c5a46	-0.09751242804882407
238	0x3f9707e71fce1d11	0.022491084400397435
239	0x3fa8cdff29e18f63	0.04844663034671617
240	0xbfb512307f622abc	-0.08230879888484827
241	0xbfa845ef6ae2c534	-0.04740856342085423
242	0x3fb8d60410ed06d0	0.09701562321881885
243	0xbfc57daf282ad12b	-0.16789807759563166
244	0x3fceeed78d2edae8	0.24166387933447386
245	0x3fc0dfc6117632eb	0.13182903149245048
246	0xbfc114626b083697	-0.13343458391357352
247	0xbf72ee506fa7937a	-0.004621805385316752
248	0xbfbfd430d96df35d	-0.12433152492844841
249	0xbfba6b2b23f5a3eb	-0.10319776180189393
250	0x3fb88c886d7ef663	0.09589436219445129
251	0x3fb807cd779adfff	0.09386905832332103
252	0xbfa759ad14fc972a	-0.04560604935822561
253	0xbfc45fa55f3871f1	-0.15916888379514618
254	0x3fad556c3b12623f	0.05729234906283808
255	0xbfc26520921030d0	-0.14371115810388924
