model_path/data56/P56.pth (torch, 108013 bytes, 14 tensors)

fc1.weight f8 [64, 128]
000000 91 9a c2 4d 35 8f a9 3f d5 f3 32 98 ab 87 b8 bf
       0.04992071699353063 -0.09582016435429293
000010 dc da 7d e9 58 dd 91 bf 1f d9 e8 f1 7c 0e b8 bf
       -0.017445935488889272 -0.09397107034678641
000020 78 63 39 15 bc a3 a0 bf bb 45 62 3d cd 3e ae bf
       -0.032499196616021686 -0.059072889083050716
000030 4f 4a ee e5 7d d6 aa bf a5 27 00 af 42 c0 b2 3f
       -0.05241769248745653 0.07324616215205866
000040 49 7a 9c fd ac 25 b3 bf c5 ec 3b 43 33 11 9a 3f
       -0.07479363624268233 0.025456238726275133
000050 eb 04 df 68 5c bf b3 3f e6 94 47 db d7 c1 98 bf
       0.07713868675547857 -0.02417695308567582
000060 e4 83 fd 08 57 43 48 bf 50 63 73 c5 1d 32 a0 bf
       -0.0007404494262851472 -0.0316323569802025
000070 71 01 01 46 c2 d7 a1 3f f8 42 27 4d 19 6f 8e 3f
       0.0348492346242918 0.014860341708215583
000080 34 a5 11 ff 5a 04 99 bf c3 79 ed ab 3f 45 a7 bf
       -0.02443067724053556 -0.04545020078397812
000090 f3 f2 17 b4 50 5c b2 bf 9e b4 e3 82 20 bf b2 bf
       -0.0717211188966294 -0.07322886653465097
0000a0 a5 ba 08 32 bc 89 62 3f 8c fb aa 51 2d 68 a7 3f
       0.0022629428570078596 0.0457166826431524
0000b0 a8 47 ff 2b 2a ba ac 3f b1 4b 6d ec 1c f3 43 bf
       0.05610782420229948 -0.0006088153103099761
0000c0 37 4a 8f d1 99 07 b7 bf e6 1e 89 78 68 c1 90 bf
       -0.08995972982601406 -0.01636279330912673
0000d0 d1 41 a0 67 a8 c7 9f 3f 5e a8 9a cc 1a ab a0 bf
       0.03103507168276726 -0.032555425144281655
0000e0 05 d5 55 c0 20 f6 af 3f fe e8 7e 42 67 d4 78 3f
       0.06242468211977762 0.006061938627619277
0000f0 53 bc ee c0 9f f6 a5 3f 1c 2a 65 26 c0 ed 88 bf
       0.042897217084253335 -0.0121722232548978
000100 26 90 cc a8 07 26 76 bf 2d 4a a4 71 11 32 a0 bf
       -0.00540736190740535 -0.031631989595684785
000110 b1 8f c8 ca 26 ed b1 bf 87 f4 f9 d5 1a a0 a9 3f
       -0.07002489519851342 0.05004962789551209
000120 8a bb 25 be 2e cd a9 3f 0f db f8 4b e8 4a 92 3f
       0.05039354392180602 0.017863874089211026
000130 1f be 7e 9d 7a 95 a1 bf e1 0f 99 fc 54 cf 96 bf
       -0.034343559003328965 -0.022275283734657484
000140 1d e6 c7 59 61 1e b7 bf 1c 31 f9 ed 5a 71 a5 bf
       -0.09030731622615247 -0.04188045649479674
000150 4e 66 e4 24 87 a8 b0 3f 1b 18 89 c8 45 7d 7a 3f
       0.0650715317791761 0.006467125502757322
000160 77 4b f2 58 f4 1a 96 3f 63 06 01 6b a6 38 af bf
       0.021587198189603165 -0.060979080736171885
000170 e4 01 65 03 ec 34 b1 3f f6 7f 7f 7d 87 a2 a9 3f
       0.0672137745177746 0.050068124837480285
000180 fc 91 f5 98 93 98 b1 3f 97 53 fb 52 1b d6 8d 3f
       0.06873438343388466 0.014568532438184607
000190 81 f3 13 17 b9 51 b6 3f 7d 25 f8 97 07 a1 8a bf
       0.08718449414659625 -0.013002452206836374
0001a0 fe 43 36 31 79 bd b1 bf 6e 5f 7e 05 e3 b5 87 3f
       -0.06929738475288613 0.011577390294220637
0001b0 ba 38 96 3b 79 25 af bf 98 13 71 3e 70 a4 89 bf
       -0.06083277561548202 -0.012520672708100908
0001c0 d3 de 57 b6 bc 57 7e 3f d5 8e b7 83 ad 09 b0 bf
       0.0074078914235468805 -0.06264767137286793
0001d0 ad 0d f8 b9 31 67 9b bf 64 61 90 40 33 81 ae bf
       -0.02676084230007596 -0.05957946932921024
0001e0 42 9b 2d 4a ca b8 a1 bf c4 f3 87 dd 73 e0 9b bf
       -0.034612962298345554 -0.027223406215842308
0001f0 ad 69 be 4a df 19 a3 bf 4c b0 86 60 20 ae b6 3f
       -0.037306764482497236 0.08859445911974823
000200 94 95 ec 8e ba 51 b7 3f b8 b3 db d8 58 04 7e 3f
       0.09109083165511428 0.007328364428514193
000210 e3 c4 aa 6b 7e 29 b4 bf 85 ff b8 d9 57 99 a1 bf
       -0.07875814560499665 -0.03437304051158122
000220 87 16 3a 5c 53 72 91 3f 3c fc eb c3 e3 38 98 bf
       0.017037680152972825 -0.023654517014616724
000230 fb 01 71 63 df 14 98 3f 25 2c 2d 14 f9 eb 77 3f
       0.023517122692512143 0.005840275730245846
000240 a0 9a 5a b6 14 1d 76 3f 41 82 1c 1c cb ca ad bf
       0.005398827464580563 -0.05818781583935052
000250 71 2d ce 72 0b 7f 29 3f 5c 58 81 dd 8c 81 a0 bf
       0.00019452109100047022 -0.03223839000627102
000260 11 08 9c 03 4e bc a1 3f 7b bc ff 43 63 78 87 3f
       0.03463977617322212 0.011460090172447082
000270 ac 69 72 ee a7 50 81 bf be d8 06 81 88 cb 9f 3f
       -0.008454620327303562 0.031049855113189244
000280 91 30 6a c5 e3 9a af 3f 0c 85 79 9e 1d 68 b0 bf
       0.0617285898671024 -0.06408867949496172
000290 a2 6b 24 51 8b b1 b5 3f cb 28 4a 57 a9 6d a0 3f
       0.08474035960209261 0.032086650758246536
0002a0 01 97 6e 82 e7 1a 9a 3f 9f 2e cc 74 4c 2a a0 bf
       0.02549325688928317 -0.03157271314384257
0002b0 5f e0 52 0e 76 c0 a0 bf 4a e0 c0 15 0c a1 b3 bf
       -0.0327183620915441 -0.07667613535966314
0002c0 ee a2 4d fb f4 56 ae 3f 87 9e d9 b1 04 19 aa 3f
       0.059257178951900843 0.05097212477704454
0002d0 80 d6 ad 62 e0 d2 69 3f 38 2a fe 19 fc 72 b0 bf
       0.0031523115662207 -0.06425452837553614
0002e0 8e 24 c7 1c 68 0f 7c bf d3 09 ba 07 fc 8d a0 bf
       -0.006850630463710717 -0.03233325571365566
0002f0 44 22 bb 1b 32 6d b7 bf 08 95 bb 8f e4 8b b4 3f
       -0.0915099446966759 0.0802595950040833
000300 5a 49 1b 56 b2 c4 ae 3f 1f 6e d4 c6 52 ee 65 bf
       0.060094426165636164 -0.0026771179897318166
000310 25 eb 54 4f 07 18 b2 3f 03 06 4d 48 d0 29 8e 3f
       0.07067914664086723 0.014728190618941822
000320 33 c1 68 92 8c ac a9 bf d7 eb 84 2f e0 3a ab 3f
       -0.05014457022878318 0.053183561134993056
000330 1a a9 60 0b 06 1d 82 3f 9f 24 7a a7 60 64 a2 bf
       0.008844420644966312 -0.03592206997297719
000340 1a 7e 76 84 0b ce 92 3f 43 19 fc 97 f5 4b a3 bf
       0.018364124259845217 -0.03768889885218354
000350 36 64 da d6 0d 68 97 bf 60 b4 76 77 77 54 b1 3f
       -0.022857872236816422 0.06769510904878606
000360 0f e7 43 e2 6f 19 aa bf d1 40 c7 16 74 e6 b2 3f
       -0.05097531926180753 0.07382894092666283
000370 e7 17 34 24 a0 ad b5 3f ab 2a d0 a1 a1 f9 83 bf
       0.08468056568025838 -0.009753477812428931
000380 db 7b af b2 0b f7 a4 bf 89 5c 5b f9 8e 09 b6 bf
       -0.0409473090764931 -0.08608335101904364
000390 1c b2 14 06 96 83 af bf 1e f7 bc e3 0c b5 91 3f
       -0.06155079673985517 0.017292214775117214
0003a0 61 ef 19 ae 86 5e 7c bf 72 87 a1 4a d1 d8 a3 bf
       -0.006926084608149669 -0.038763561592317766
0003b0 e1 52 23 81 72 6e a2 3f 10 23 da 42 d8 74 b2 bf
       0.03599889589682959 -0.07209540969973838
0003c0 1f b3 32 f4 56 09 ab bf 3b 7f aa 6d 3f 98 a8 bf
       -0.05280563097890067 -0.04803655828186356
0003d0 ab ca 67 0d ce 40 81 bf a8 77 46 2f 5a 57 96 bf
       -0.00842438677225251 -0.021817597518399318
0003e0 ff d5 21 bd e8 2d a7 bf 6a 40 fa 8c 7e 3a 66 bf
       -0.04527213391058282 -0.002713439149211229
0003f0 4d 2b 6b 0d be 14 8b 3f 07 95 44 5e a1 82 b8 bf
       0.013223156723503183 -0.09574326087438943
000400 bf 95 c8 95 5b 95 80 3f c9 61 98 d5 14 d3 a5 3f
       0.008097377308397989 0.04262604815830035
000410 15 57 2e d0 6a de af bf 58 b9 ee 92 a1 1f 8f bf
       -0.0622437838675706 -0.015197050377392315
000420 fd 71 26 84 a1 3b 96 3f 91 8f 7c 72 ff c6 9b bf
       0.021711848917776767 -0.027126304018693374
000430 42 b2 57 27 67 b3 b1 3f 32 a0 ee e4 0c 7d b3 3f
       0.0691437216807538 0.07612686719096542
000440 a6 d2 0d 36 aa 05 a2 3f 72 8d 2c 23 14 58 a4 bf
       0.03519946966017544 -0.03973448685999416
000450 7b 5e 86 16 2c b1 b4 3f 68 93 76 12 01 3f b1 bf
       0.08082843351291473 -0.06736761761437793
000460 69 c6 c2 52 9b d2 a1 bf 4d ad eb e3 fc d7 71 bf
       -0.034809926846162416 -0.004356372692863997
000470 14 b3 15 c6 c8 1c aa bf f2 78 7b fb ac a2 6e 3f
       -0.05100085657145406 0.003739679199369233
000480 f1 af ca 86 eb a0 9d 3f 79 44 15 18 99 c0 a9 bf
       0.028934173681292866 -0.05029753130896437
000490 a6 d0 fe f6 b4 79 af bf a3 d4 b4 35 62 d1 a7 bf
       -0.061475424910356666 -0.04651934533686954
0004a0 de dd 8f f6 fa e3 b4 bf 7a 94 82 7f 54 d6 9f 3f
       -0.08160370368556566 0.03109104183444742
0004b0 bb 3b 7b 44 46 f1 a1 3f f1 fc 69 b6 b1 2a b7 3f
       0.0350439032168803 0.09049521163432296
0004c0 e6 b4 59 7c 78 88 b4 bf fb 5a 3f f7 42 70 ae 3f
       -0.08020737682246057 0.059450237924172776
0004d0 f1 1c 86 5b 5e 0f 9b bf 6e 61 8c e4 bd 18 ab 3f
       -0.026425813995527517 0.05292313971421235
0004e0 f2 3a 5b 04 f7 26 ad 3f b3 0e ad d7 7a ed 5c bf
       0.056937903672965265 -0.0017656039842259108
0004f0 f9 a4 a3 b3 fd d7 b3 3f 0c 2c 1b 1f 94 48 88 bf
       0.07751451144908462 -0.011857182692798694
000500 c8 ad bf 36 50 82 87 bf 59 23 86 10 0a 6b b7 3f
       -0.011479021712111584 0.09147704032342342
000510 46 fa cf e8 2c fb aa bf cf 73 0a be 91 2d a3 bf
       -0.05269756643246075 -0.037457041214316804
000520 50 3d 76 af 54 7f 46 3f 17 2b d0 dd 52 9e b2 3f
       0.0006865657332343709 0.07272832789764681
000530 61 4e c3 30 80 9c a1 bf a2 80 44 b2 de d0 a2 3f
       -0.034397130920891035 0.03674980093114867
000540 ce d0 26 07 e0 6d ad 3f 24 bb 99 12 cb 76 a8 3f
       0.05747890555667966 0.04778132059151677
000550 ca a2 ff f7 e1 a8 b5 bf da e7 a8 2c 25 9b 90 bf
       -0.08460819534924294 -0.01621683201867783
000560 61 74 5b d6 ae 44 b4 3f 66 12 0e a2 59 22 91 bf
       0.07917301877337614 -0.016732597843218143
000570 3f 80 bd a1 5d eb ab 3f fc b9 9d 88 57 d6 95 bf
       0.05453007315986768 -0.021325462067972353
000580 2b 03 ea 6f 71 d9 84 3f 87 6e a9 c5 03 fb b5 3f
       0.010180364826057072 0.0858614308903559
000590 a6 07 3c 2d d9 da b3 3f 78 ee 24 4a 1e c8 99 bf
       0.07755811075551708 -0.025177453303724978
0005a0 cb 47 53 a2 db b5 8b bf f3 dc 00 bb 72 23 b3 bf
       -0.013530460253978213 -0.07475964608680723
0005b0 f6 5b b9 c3 95 57 9e bf 00 84 9a 18 43 3b 85 3f
       -0.029630985327766944 0.010366939724294255
0005c0 77 8b 2c f6 aa db 92 bf 99 3b 50 f5 34 a8 4c 3f
       -0.018416091227787725 0.0008745440087539635
0005d0 85 97 ab 5e e5 bf b3 bf f7 43 d9 bd a5 a8 aa bf
       -0.07714685021673347 -0.0520679277657407
0005e0 5b a4 db 7b 85 75 60 3f 0a 57 f1 51 5e 52 95 3f
       0.0020091635805000014 0.020822023154628368
0005f0 d4 b1 91 04 6b a0 b0 bf 08 bd 63 f8 1e a4 b6 bf
       -0.06494778501082205 -0.08844178737830444
000600 6a a5 d0 ee 80 92 a6 3f 6f e6 5e 59 53 6e b0 3f
       0.044086484100556 0.06418343479062981
000610 3d a5 c5 6b f5 74 ab 3f fb 1c 1e e7 07 67 9f bf
       0.05362669888092817 -0.030666469079304353
000620 43 86 76 dd ca 91 6c bf 1c 09 13 f6 28 8d b0 bf
       -0.0034874880036148983 -0.06465393073725462
000630 e8 a6 d3 ed 0a cd ac 3f f0 a8 a4 5d 34 7e 98 3f
       0.056251851588809576 0.023918932166602624
000640 1c 84 42 69 c6 ce b2 3f d2 78 12 aa 10 61 93 3f
       0.07346763677425411 0.018924961452847118
000650 d1 2a f3 97 92 cf ac 3f 34 86 c4 e4 2d 95 7e 3f
       0.05627115349633061 0.007466487190215743
000660 97 74 ab de 85 a5 a5 bf b9 ae 73 98 b6 d3 ad 3f
       -0.04227846472870416 0.05825586901650354
000670 d0 bd c2 87 4f 11 a7 3f 06 30 dc cd f2 09 b2 bf
       0.045053944895126485 -0.07046430135613954
000680 0c 52 15 b2 b3 a1 82 3f b0 a2 74 82 36 a6 b4 3f
       0.009097484466715343 0.08066120800925591
000690 73 a9 ea 82 fe f6 9a 3f 07 24 1b ac 14 df a8 bf
       0.026332833042638847 -0.048576971062694034
0006a0 af 93 db ed 57 c7 9f 3f 02 96 0e a1 2f 32 aa 3f
       0.03103387250202488 0.051164139185214466
0006b0 20 ed 60 22 5b 78 99 3f e0 76 d8 28 68 c6 a7 3f
       0.024873184178642593 0.046435599313765286
0006c0 4c e5 42 1c 7a 25 99 3f bd 7e 77 10 8a 6f ac 3f
       0.0245570258855186 0.05553847743044347
0006d0 39 bf e4 ae e8 54 ad 3f 06 d4 2f 24 39 44 b5 bf
       0.05728842863970702 -0.08307225354640488
0006e0 d5 b6 33 f7 7d b1 b5 bf f7 11 2a 9c 95 33 b6 3f
       -0.08473956380086219 0.08672461569410204
0006f0 8d 23 14 2b 94 60 64 3f 9a 0f cf 68 a4 e9 a9 bf
       0.0024874586021081447 -0.05061067370800672
000700 5e b7 6f 0d e4 8a 88 3f ba 9e f6 82 d0 a9 b1 3f
       0.01198366323475469 0.06899741360995906
000710 fa e2 0f 6b 94 f1 a2 3f 9f 34 1b 54 d0 80 af 3f
       0.036999357289408466 0.061529646174315326
000720 b1 65 78 08 ec 55 8a bf cc 1d d5 49 34 e9 ab bf
       -0.01285919571732816 -0.05451358224177802
000730 2e 24 ea 5e 03 7b b4 3f 99 3d 29 b9 dc 75 95 3f
       0.08000203196765263 0.02095742111333507
000740 74 6d b8 04 1e 44 b4 bf c1 c8 b6 7e de 47 b2 3f
       -0.07916438689465172 0.07140913575748
000750 35 c3 5c f0 f0 16 ab 3f 54 5a b0 07 d1 37 9c bf
       0.0529094022189213 -0.02755667313985051
000760 f0 9c c7 88 55 af a3 3f c5 ba 3d 2b b8 0c a0 3f
       0.03844706816362897 0.03134704139562453
000770 c8 e0 37 19 da 48 b4 bf 29 73 4c 65 a1 7e 92 bf
       -0.07923663249664792 -0.018061181838777394
000780 91 35 d8 76 35 bf aa bf 50 18 16 c7 8f 07 55 3f
       -0.052240057713883854 0.001283541114703652
000790 7f 40 9b ec 22 4e 88 bf b7 4c 0c 88 f6 89 a9 bf
       -0.01186778339925376 -0.04988069926016563
0007a0 45 ed 43 b6 b7 97 b2 bf e8 92 f7 8d a6 da af bf
       -0.07262752723538764 -0.06221504672047279
0007b0 2d ce b7 a0 c4 4c aa bf a2 8f ab 86 a3 27 58 bf
       -0.05136694394959949 -0.0014742943700918128
0007c0 c7 11 ec 92 a9 ae a2 3f 80 c8 38 dc 38 d7 91 3f
       0.03648881834490996 0.017422569695732637
0007d0 c2 3b 26 fa 83 37 a9 bf 92 77 73 15 bf 69 96 3f
       -0.049251674924668545 0.0218877655832937
0007e0 12 6c 7f b0 17 8a a2 3f 08 9c 47 f9 50 2d 72 3f
       0.036209812445768944 0.004437748244959579
0007f0 01 fa e8 1f fe fa 93 bf ee 30 f1 bb 69 0d 79 3f
       -0.019512148568759716 0.006116307281512896

fc1.bias f8 [64]
000000 59 54 50 ec 91 78 b5 bf 21 7c cd c5 ec 16 b1 3f
       -0.08387100238208357 0.0667560561100662
000010 85 12 4f f6 27 8a ac bf f7 58 19 e7 3b cf a1 3f
       -0.05574154741001273 0.03478419490845568
000020 3a 7e 55 27 04 54 b3 bf 8d 65 66 cc 3a 1c b2 3f
       -0.0755007358579797 0.07074325075372752
000030 85 7a 0c 1c 79 64 a7 3f f4 1b 56 30 e9 f4 91 3f
       0.04568842379943753 0.017535823416917354
000040 00 00 00 e0 aa 11 77 bf 00 00 00 80 84 e7 a3 3f
       -0.005632083397358656 0.03887571394443512
000050 73 c8 dd d9 56 be b1 3f 68 f8 d4 fa f6 1a b2 3f
       0.06931059664728582 0.07072394965959605
000060 42 d3 f5 25 75 3a b5 3f e6 f8 14 af a6 66 9e bf
       0.08292324234737428 -0.02968845790496113
000070 e4 e0 01 63 0a b9 a1 3f 5b 29 2f d2 8e 36 58 3f
       0.03461487253747622 0.0014778513657228351
000080 a2 fa 71 13 0c 3a ab bf 3d 67 4c 19 58 b3 a0 3f
       -0.05317723977440393 0.0326182871705911
000090 cd 3b 0c 63 92 59 b0 bf 34 fe af 3c f8 a7 af bf
       -0.06386675756605982 -0.06182838192762255
0000a0 31 f3 45 29 46 54 61 3f 5c 4d bb c6 17 8b af bf
       0.0021153803192518685 -0.06160806942866756
0000b0 3a b5 ba 52 df 08 b5 bf 1b 63 a5 86 b9 a9 a0 3f
       -0.08216663141020755 0.03254489678028546
0000c0 09 93 5f e6 3e b5 b2 bf d0 8a 9f 98 a8 64 a3 3f
       -0.07307808994626099 0.03787733901096646
0000d0 ef 7f a5 20 a9 b3 a2 3f ff 0b 98 9c f6 4a a1 3f
       0.03652695201412814 0.033775049796552985
0000e0 f6 f4 34 39 76 eb b2 bf ac 75 7f cf d7 b7 9c 3f
       -0.07390536209728168 0.028045055427232832
0000f0 8c e4 78 60 56 62 a1 3f 6a 98 7e 91 1d e5 9a 3f
       0.0339533798946344 0.026264631276398033
000100 83 28 25 de 35 42 9f bf b5 00 f3 cc 7f d7 a2 bf
       -0.030526010211624054 -0.0368003785783925
000110 fb af 89 4f 2a c9 a8 bf 22 5f b3 fc ef a4 78 bf
       -0.04840976925774495 -0.006016671609550691
000120 db 2b 89 35 89 4f b3 bf f7 9c 25 1b d2 23 b7 bf
       -0.07543237263705242 -0.09039033091322667
000130 1e 8d ae c1 a2 6a b3 3f 7f a8 20 2b 73 62 a4 bf
       0.07584588268814627 -0.03981361295184715
000140 bb e5 ae b7 a6 a0 9c bf 3c 77 f0 a7 28 03 b0 bf
       -0.027956585847027187 -0.06254819965439834
000150 f6 24 cf 5a 6c d1 9d bf 66 ad c1 7b 83 a6 b1 3f
       -0.02911919883971322 0.06894704600715826
000160 a0 a0 d5 5d 7a fd b6 bf 9f e6 7d 4a 96 39 b6 bf
       -0.08980526724701798 -0.08681620901725261
000170 c3 8b 4e 42 33 2c a9 bf ed f2 84 ee c3 a2 7c 3f
       -0.04916534599694657 0.006991162641779109
000180 1c c2 fa 96 41 ef 83 3f 29 d6 7c 9f b9 83 6b 3f
       0.009733688755063467 0.0033587098550025463
000190 6f 4e 32 a9 27 21 53 3f 19 d5 89 a8 c3 f6 b3 3f
       0.0011675727189740766 0.07798407425601218
0001a0 cd c6 1e c5 dc 46 a4 3f 5d 90 a4 ff 03 89 a5 bf
       0.039603137075926755 -0.042060971218490485
0001b0 14 6b b3 f9 74 30 ad bf bc b1 45 84 7c 4b 8e bf
       -0.05701032207590209 -0.014792416369083898
0001c0 23 22 15 21 4a 78 a1 3f 4b 57 f2 95 85 89 b6 bf
       0.03412086156692264 -0.08803591643149138
0001d0 a5 d4 1d fd 97 bb b9 3f ef 54 60 83 4b ba 91 bf
       0.10051870278933224 -0.017312221425602677
0001e0 35 00 f6 ca 66 e1 a2 3f 7e c8 7a c2 b2 9f b7 bf
       0.03687592723417802 -0.09228055236852303
0001f0 d7 a3 25 37 9d ac a9 bf d8 b1 e3 3a 1b 22 91 3f
       -0.05014506624394926 0.016731667966199598

bn1_fc.weight f8 [64]
000000 00 00 00 00 00 00 f0 3f 00 00 00 00 00 00 f0 3f
       1.0 1.0
000010 00 00 00 00 00 00 f0 3f 00 00 00 00 00 00 f0 3f
       1.0 1.0
000020 00 00 00 00 00 00 f0 3f 00 00 00 00 00 00 f0 3f
       1.0 1.0
000030 00 00 00 00 00 00 f0 3f 00 00 00 00 00 00 f0 3f
       1.0 1.0
000040 00 00 00 00 00 00 f0 3f 00 00 00 00 00 00 f0 3f
       1.0 1.0
000050 00 00 00 00 00 00 f0 3f 00 00 00 00 00 00 f0 3f
       1.0 1.0
000060 00 00 00 00 00 00 f0 3f 00 00 00 00 00 00 f0 3f
       1.0 1.0
000070 00 00 00 00 00 00 f0 3f 00 00 00 00 00 00 f0 3f
       1.0 1.0
000080 00 00 00 00 00 00 f0 3f 00 00 00 00 00 00 f0 3f
       1.0 1.0
000090 00 00 00 00 00 00 f0 3f 00 00 00 00 00 00 f0 3f
       1.0 1.0
0000a0 00 00 00 00 00 00 f0 3f 00 00 00 00 00 00 f0 3f
       1.0 1.0
0000b0 00 00 00 00 00 00 f0 3f 00 00 00 00 00 00 f0 3f
       1.0 1.0
0000c0 00 00 00 00 00 00 f0 3f 00 00 00 00 00 00 f0 3f
       1.0 1.0
0000d0 00 00 00 00 00 00 f0 3f 00 00 00 00 00 00 f0 3f
       1.0 1.0
0000e0 00 00 00 00 00 00 f0 3f 00 00 00 00 00 00 f0 3f
       1.0 1.0
0000f0 00 00 00 00 00 00 f0 3f 00 00 00 00 00 00 f0 3f
       1.0 1.0
000100 00 00 00 00 00 00 f0 3f 00 00 00 00 00 00 f0 3f
       1.0 1.0
000110 00 00 00 00 00 00 f0 3f 00 00 00 00 00 00 f0 3f
       1.0 1.0
000120 00 00 00 00 00 00 f0 3f 00 00 00 00 00 00 f0 3f
       1.0 1.0
000130 00 00 00 00 00 00 f0 3f 00 00 00 00 00 00 f0 3f
       1.0 1.0
000140 00 00 00 00 00 00 f0 3f 00 00 00 00 00 00 f0 3f
       1.0 1.0
000150 00 00 00 00 00 00 f0 3f 00 00 00 00 00 00 f0 3f
       1.0 1.0
000160 00 00 00 00 00 00 f0 3f 00 00 00 00 00 00 f0 3f
       1.0 1.0
000170 00 00 00 00 00 00 f0 3f 00 00 00 00 00 00 f0 3f
       1.0 1.0
000180 00 00 00 00 00 00 f0 3f 00 00 00 00 00 00 f0 3f
       1.0 1.0
000190 00 00 00 00 00 00 f0 3f 00 00 00 00 00 00 f0 3f
       1.0 1.0
0001a0 00 00 00 00 00 00 f0 3f 00 00 00 00 00 00 f0 3f
       1.0 1.0
0001b0 00 00 00 00 00 00 f0 3f 00 00 00 00 00 00 f0 3f
       1.0 1.0
0001c0 00 00 00 00 00 00 f0 3f 00 00 00 00 00 00 f0 3f
       1.0 1.0
0001d0 00 00 00 00 00 00 f0 3f 00 00 00 00 00 00 f0 3f
       1.0 1.0
0001e0 00 00 00 00 00 00 f0 3f 00 00 00 00 00 00 f0 3f
       1.0 1.0
0001f0 00 00 00 00 00 00 f0 3f 00 00 00 00 00 00 f0 3f
       1.0 1.0

bn1_fc.bias f8 [64]
000000 00 00 00 00 00 00 00 00 00 00 00 00 00 00 00 00
       0.0 0.0
000010 00 00 00 00 00 00 00 00 00 00 00 00 00 00 00 00
       0.0 0.0
000020 00 00 00 00 00 00 00 00 00 00 00 00 00 00 00 00
       0.0 0.0
000030 00 00 00 00 00 00 00 00 00 00 00 00 00 00 00 00
       0.0 0.0
000040 00 00 00 00 00 00 00 00 00 00 00 00 00 00 00 00
       0.0 0.0
000050 00 00 00 00 00 00 00 00 00 00 00 00 00 00 00 00
       0.0 0.0
000060 00 00 00 00 00 00 00 00 00 00 00 00 00 00 00 00
       0.0 0.0
000070 00 00 00 00 00 00 00 00 00 00 00 00 00 00 00 00
       0.0 0.0
000080 00 00 00 00 00 00 00 00 00 00 00 00 00 00 00 00
       0.0 0.0
000090 00 00 00 00 00 00 00 00 00 00 00 00 00 00 00 00
       0.0 0.0
0000a0 00 00 00 00 00 00 00 00 00 00 00 00 00 00 00 00
       0.0 0.0
0000b0 00 00 00 00 00 00 00 00 00 00 00 00 00 00 00 00
       0.0 0.0
0000c0 00 00 00 00 00 00 00 00 00 00 00 00 00 00 00 00
       0.0 0.0
0000d0 00 00 00 00 00 00 00 00 00 00 00 00 00 00 00 00
       0.0 0.0
0000e0 00 00 00 00 00 00 00 00 00 00 00 00 00 00 00 00
       0.0 0.0
0000f0 00 00 00 00 00 00 00 00 00 00 00 00 00 00 00 00
       0.0 0.0
000100 00 00 00 00 00 00 00 00 00 00 00 00 00 00 00 00
       0.0 0.0
000110 00 00 00 00 00 00 00 00 00 00 00 00 00 00 00 00
       0.0 0.0
000120 00 00 00 00 00 00 00 00 00 00 00 00 00 00 00 00
       0.0 0.0
000130 00 00 00 00 00 00 00 00 00 00 00 00 00 00 00 00
       0.0 0.0
000140 00 00 00 00 00 00 00 00 00 00 00 00 00 00 00 00
       0.0 0.0
000150 00 00 00 00 00 00 00 00 00 00 00 00 00 00 00 00
       0.0 0.0
000160 00 00 00 00 00 00 00 00 00 00 00 00 00 00 00 00
       0.0 0.0
000170 00 00 00 00 00 00 00 00 00 00 00 00 00 00 00 00
       0.0 0.0
000180 00 00 00 00 00 00 00 00 00 00 00 00 00 00 00 00
       0.0 0.0
000190 00 00 00 00 00 00 00 00 00 00 00 00 00 00 00 00
       0.0 0.0
0001a0 00 00 00 00 00 00 00 00 00 00 00 00 00 00 00 00
       0.0 0.0
0001b0 00 00 00 00 00 00 00 00 00 00 00 00 00 00 00 00
       0.0 0.0
0001c0 00 00 00 00 00 00 00 00 00 00 00 00 00 00 00 00
       0.0 0.0
0001d0 00 00 00 00 00 00 00 00 00 00 00 00 00 00 00 00
       0.0 0.0
0001e0 00 00 00 00 00 00 00 00 00 00 00 00 00 00 00 00
       0.0 0.0
0001f0 00 00 00 00 00 00 00 00 00 00 00 00 00 00 00 00
       0.0 0.0

bn1_fc.running_mean f8 [64]
000000 00 00 00 00 00 00 00 00 00 00 00 00 00 00 00 00
       0.0 0.0
000010 00 00 00 00 00 00 00 00 00 00 00 00 00 00 00 00
       0.0 0.0
000020 00 00 00 00 00 00 00 00 00 00 00 00 00 00 00 00
       0.0 0.0
000030 00 00 00 00 00 00 00 00 00 00 00 00 00 00 00 00
       0.0 0.0
000040 00 00 00 00 00 00 00 00 00 00 00 00 00 00 00 00
       0.0 0.0
000050 00 00 00 00 00 00 00 00 00 00 00 00 00 00 00 00
       0.0 0.0
000060 00 00 00 00 00 00 00 00 00 00 00 00 00 00 00 00
       0.0 0.0
000070 00 00 00 00 00 00 00 00 00 00 00 00 00 00 00 00
       0.0 0.0
000080 00 00 00 00 00 00 00 00 00 00 00 00 00 00 00 00
       0.0 0.0
000090 00 00 00 00 00 00 00 00 00 00 00 00 00 00 00 00
       0.0 0.0
0000a0 00 00 00 00 00 00 00 00 00 00 00 00 00 00 00 00
       0.0 0.0
0000b0 00 00 00 00 00 00 00 00 00 00 00 00 00 00 00 00
       0.0 0.0
0000c0 00 00 00 00 00 00 00 00 00 00 00 00 00 00 00 00
       0.0 0.0
0000d0 00 00 00 00 00 00 00 00 00 00 00 00 00 00 00 00
       0.0 0.0
0000e0 00 00 00 00 00 00 00 00 00 00 00 00 00 00 00 00
       0.0 0.0
0000f0 00 00 00 00 00 00 00 00 00 00 00 00 00 00 00 00
       0.0 0.0
000100 00 00 00 00 00 00 00 00 00 00 00 00 00 00 00 00
       0.0 0.0
000110 00 00 00 00 00 00 00 00 00 00 00 00 00 00 00 00
       0.0 0.0
000120 00 00 00 00 00 00 00 00 00 00 00 00 00 00 00 00
       0.0 0.0
000130 00 00 00 00 00 00 00 00 00 00 00 00 00 00 00 00
       0.0 0.0
000140 00 00 00 00 00 00 00 00 00 00 00 00 00 00 00 00
       0.0 0.0
000150 00 00 00 00 00 00 00 00 00 00 00 00 00 00 00 00
       0.0 0.0
000160 00 00 00 00 00 00 00 00 00 00 00 00 00 00 00 00
       0.0 0.0
000170 00 00 00 00 00 00 00 00 00 00 00 00 00 00 00 00
       0.0 0.0
000180 00 00 00 00 00 00 00 00 00 00 00 00 00 00 00 00
       0.0 0.0
000190 00 00 00 00 00 00 00 00 00 00 00 00 00 00 00 00
       0.0 0.0
0001a0 00 00 00 00 00 00 00 00 00 00 00 00 00 00 00 00
       0.0 0.0
0001b0 00 00 00 00 00 00 00 00 00 00 00 00 00 00 00 00
       0.0 0.0
0001c0 00 00 00 00 00 00 00 00 00 00 00 00 00 00 00 00
       0.0 0.0
0001d0 00 00 00 00 00 00 00 00 00 00 00 00 00 00 00 00
       0.0 0.0
0001e0 00 00 00 00 00 00 00 00 00 00 00 00 00 00 00 00
       0.0 0.0
0001f0 00 00 00 00 00 00 00 00 00 00 00 00 00 00 00 00
       0.0 0.0

bn1_fc.running_var f8 [64]
000000 00 00 00 00 00 00 f0 3f 00 00 00 00 00 00 f0 3f
       1.0 1.0
000010 00 00 00 00 00 00 f0 3f 00 00 00 00 00 00 f0 3f
       1.0 1.0
000020 00 00 00 00 00 00 f0 3f 00 00 00 00 00 00 f0 3f
       1.0 1.0
000030 00 00 00 00 00 00 f0 3f 00 00 00 00 00 00 f0 3f
       1.0 1.0
000040 00 00 00 00 00 00 f0 3f 00 00 00 00 00 00 f0 3f
       1.0 1.0
000050 00 00 00 00 00 00 f0 3f 00 00 00 00 00 00 f0 3f
       1.0 1.0
000060 00 00 00 00 00 00 f0 3f 00 00 00 00 00 00 f0 3f
       1.0 1.0
000070 00 00 00 00 00 00 f0 3f 00 00 00 00 00 00 f0 3f
       1.0 1.0
000080 00 00 00 00 00 00 f0 3f 00 00 00 00 00 00 f0 3f
       1.0 1.0
000090 00 00 00 00 00 00 f0 3f 00 00 00 00 00 00 f0 3f
       1.0 1.0
0000a0 00 00 00 00 00 00 f0 3f 00 00 00 00 00 00 f0 3f
       1.0 1.0
0000b0 00 00 00 00 00 00 f0 3f 00 00 00 00 00 00 f0 3f
       1.0 1.0
0000c0 00 00 00 00 00 00 f0 3f 00 00 00 00 00 00 f0 3f
       1.0 1.0
0000d0 00 00 00 00 00 00 f0 3f 00 00 00 00 00 00 f0 3f
       1.0 1.0
0000e0 00 00 00 00 00 00 f0 3f 00 00 00 00 00 00 f0 3f
       1.0 1.0
0000f0 00 00 00 00 00 00 f0 3f 00 00 00 00 00 00 f0 3f
       1.0 1.0
000100 00 00 00 00 00 00 f0 3f 00 00 00 00 00 00 f0 3f
       1.0 1.0
000110 00 00 00 00 00 00 f0 3f 00 00 00 00 00 00 f0 3f
       1.0 1.0
000120 00 00 00 00 00 00 f0 3f 00 00 00 00 00 00 f0 3f
       1.0 1.0
000130 00 00 00 00 00 00 f0 3f 00 00 00 00 00 00 f0 3f
       1.0 1.0
000140 00 00 00 00 00 00 f0 3f 00 00 00 00 00 00 f0 3f
       1.0 1.0
000150 00 00 00 00 00 00 f0 3f 00 00 00 00 00 00 f0 3f
       1.0 1.0
000160 00 00 00 00 00 00 f0 3f 00 00 00 00 00 00 f0 3f
       1.0 1.0
000170 00 00 00 00 00 00 f0 3f 00 00 00 00 00 00 f0 3f
       1.0 1.0
000180 00 00 00 00 00 00 f0 3f 00 00 00 00 00 00 f0 3f
       1.0 1.0
000190 00 00 00 00 00 00 f0 3f 00 00 00 00 00 00 f0 3f
       1.0 1.0
0001a0 00 00 00 00 00 00 f0 3f 00 00 00 00 00 00 f0 3f
       1.0 1.0
0001b0 00 00 00 00 00 00 f0 3f 00 00 00 00 00 00 f0 3f
       1.0 1.0
0001c0 00 00 00 00 00 00 f0 3f 00 00 00 00 00 00 f0 3f
       1.0 1.0
0001d0 00 00 00 00 00 00 f0 3f 00 00 00 00 00 00 f0 3f
       1.0 1.0
0001e0 00 00 00 00 00 00 f0 3f 00 00 00 00 00 00 f0 3f
       1.0 1.0
0001f0 00 00 00 00 00 00 f0 3f 00 00 00 00 00 00 f0 3f
       1.0 1.0

fc2.weight f8 [64, 64]
000000 00 00 00 80 81 f3 a7 3f 5d 31 55 ba 82 c9 b7 bf
       0.04677967727184296 -0.09291855858936544
000010 00 00 00 00 27 16 b1 3f 00 00 00 c0 ac d9 b2 bf
       0.06674426794052124 -0.07363395392894745
000020 50 fa e6 a0 b3 15 64 3f 00 00 00 00 d0 63 9f bf
       0.0024517544145219797 -0.030654191970825195
000030 00 00 00 80 bf 78 a3 bf 00 00 00 40 6c a2 be 3f
       -0.038030609488487244 0.11966587603092194
000040 00 00 00 00 9a 83 b4 3f 00 00 00 00 8e 08 a7 3f
       0.08013308048248291 0.04498714208602905
000050 00 00 00 80 bd 3c be bf 00 00 00 00 6c 72 ab bf
       -0.11811432242393494 -0.05360734462738037
000060 c1 29 55 0c 4f 2d a2 3f 00 00 00 80 8a ef a8 3f
       0.035501928573086435 0.048702552914619446
000070 00 00 00 00 1c f3 90 3f 00 00 00 00 a2 5c 81 3f
       0.016552388668060303 0.008477464318275452
000080 00 00 00 80 dc d1 a3 bf 00 00 00 c0 e6 17 be 3f
       -0.03871048986911774 0.11755220592021942
000090 00 00 00 00 fe ab b3 bf 00 00 00 00 88 d0 91 3f
       -0.07684314250946045 0.017397046089172363
0000a0 00 00 00 00 c0 e5 6e bf 1b be 01 a3 40 13 b4 3f
       -0.003771662712097168 0.07841876964243293
0000b0 00 00 00 00 01 f5 9f bf 00 00 00 00 04 60 8b bf
       -0.03120805323123932 -0.013366729021072388
0000c0 00 00 00 80 fe ce b9 bf 0a cc 87 8e 32 06 a0 bf
       -0.10081472992897034 -0.03129728307603592
0000d0 00 00 00 00 8e 5d 98 3f 8c ff 3a 2c 36 52 b4 3f
       0.02379438281059265 0.07937944965214977
0000e0 0d 49 13 1b 62 4f a4 bf 21 d9 04 0b f2 57 b5 3f
       -0.0396681459475464 0.0833731915380196
0000f0 00 00 00 00 6b 81 9c 3f 00 00 00 40 5e 26 b9 bf
       0.027837440371513367 -0.09824170172214508
000100 00 00 00 80 64 d9 bd 3f 00 00 00 00 e4 44 85 3f
       0.11659839749336243 0.010385304689407349
000110 00 00 00 00 36 8e a3 bf 4b d2 81 95 1b 36 6d 3f
       -0.038194358348846436 0.0035658396482694302
000120 00 00 00 80 51 d6 b9 bf 00 00 00 00 00 b0 41 bf
       -0.1009264886379242 -0.0005397796630859375
000130 e6 62 f5 63 df 65 aa bf 00 00 00 00 ab c4 a7 3f
       -0.05155847640225435 0.046422332525253296
000140 00 00 00 80 cf 96 a3 bf 00 00 00 40 3f 3f b1 3f
       -0.03825996816158295 0.06737132370471954
000150 00 00 00 c0 bd cc b5 3f 74 fa 99 eb 3e 0f a6 bf
       0.08515535295009613 -0.043085066089578655
000160 00 00 00 40 79 5e b4 3f 00 00 00 00 9d 5e 92 bf
       0.07956655323505402 -0.017939046025276184
000170 e5 61 01 63 a0 33 a4 bf 00 00 00 40 08 49 b7 bf
       -0.039456379018421285 -0.0909581333398819
000180 14 5f fb 96 83 5e ba 3f 00 00 00 c0 0f c1 b4 bf
       0.10300466953355808 -0.08107088506221771
000190 00 00 00 00 63 00 9f 3f 00 00 00 00 4c 21 73 bf
       0.03027491271495819 -0.004670426249504089
0001a0 0b 02 18 db 65 5c c1 bf 00 00 00 80 a1 f7 a6 3f
       -0.1356322593492368 0.04485802352428436
0001b0 00 00 00 00 5d bf be bf 00 00 00 00 ea 83 96 bf
       -0.12010747194290161 -0.021987587213516235
0001c0 00 00 00 00 a6 a2 82 bf 00 00 00 00 72 4d a7 3f
       -0.009099289774894714 0.04551273584365845
0001d0 00 00 00 80 84 d3 a7 bf 00 00 00 00 f8 0a 95 3f
       -0.04653562605381012 0.020549654960632324
0001e0 b5 3e 8a 88 c8 54 b0 bf 00 00 00 80 13 a1 a4 bf
       -0.06379369100090566 -0.04029141366481781
0001f0 00 00 00 00 d8 f4 9d bf 25 be 0d 60 ea 7a 85 3f
       -0.02925431728363037 0.010488349014592899
000200 ec 9a 1d 19 2f f7 a2 bf 00 47 08 6d 97 63 9c 3f
       -0.03704211408221689 0.027723661451154236
000210 25 dc 56 ed c1 21 a2 bf a7 a7 7f 2e e3 03 b3 bf
       -0.035413799497682676 -0.07427806744786257
000220 a4 d3 0e 6a 57 e8 b3 3f eb 6e b9 04 42 df b5 3f
       0.07776399936012851 0.08543789496746583
000230 53 70 51 3d 29 5f b9 bf 67 07 73 8b ab d9 a5 bf
       -0.09910829302811068 -0.042676316044448374
000240 00 00 00 80 4b 50 ac 3f 00 00 00 80 b1 72 a6 bf
       0.05530010163784027 -0.043843790888786316
000250 84 10 5c 5d 6e 16 a8 bf 6a 75 2b dd ec 27 aa 3f
       -0.04704613580364117 0.051085855482351075
000260 3e 8b 01 d5 2b cd ac 3f aa 33 64 82 a7 05 b5 bf
       0.05625283217593456 -0.08211752828010668
000270 e9 ed e8 3c 85 27 aa 3f 3a 62 6f c7 72 0d b8 bf
       0.05108276718643962 -0.09395520562191786
000280 22 6a 49 02 bd 18 78 bf 8d fc e1 7c 98 67 b4 bf
       -0.0058829672967371256 -0.07970574425597672
000290 ba 1a 9b c8 29 e8 86 3f 89 28 ab 70 94 40 99 3f
       0.011185003695016394 0.024660415055031613
0002a0 15 76 a9 4c 09 6d b4 bf 87 d6 31 67 74 d0 b8 3f
       -0.07978876229886851 0.09693076629067764
0002b0 98 4d 09 18 7a 8b a2 bf f8 5d 23 94 6c f9 b4 3f
       -0.03622037452137333 0.08193091026929966
0002c0 dc 89 98 b5 86 e0 8b 3f 06 55 6a 4e fa 4c b3 bf
       0.013611843506684922 -0.07539333738744255
0002d0 ab fd c9 e9 0f 2f 88 3f ae 90 f6 46 0f 0c b3 3f
       0.011808513948607343 0.07440276606081639
0002e0 cb 47 9f b0 35 0b b7 3f 25 db 75 ce 11 22 c0 bf
       0.0900147968489186 -0.12603972035477642
0002f0 e8 2e 9e ea 6a f7 b9 bf fb fd a9 1a 29 8d 54 bf
       -0.10143154361702111 -0.0012543584258820617
000300 00 00 00 00 9a 7e 91 3f 00 00 00 00 bc 2d be bf
       0.017084509134292603 -0.11788535118103027
000310 8a 55 cc 48 42 99 ad bf 39 66 47 3c 2d a6 a9 3f
       -0.05780989779138242 0.0500959526140829
000320 bd a1 0e e7 3f d6 bd 3f ae 12 0e ba 7c 65 ab bf
       0.11655043974918207 -0.05350866099528183
000330 91 1a b1 8a 24 f3 a5 3f 9b 10 f9 2a 23 38 b7 bf
       0.04287065690055159 -0.09070033835547735
000340 c9 50 d4 fa e4 55 a5 3f 76 b6 ac 16 73 bd 8f bf
       0.04167094766504104 -0.015498065118289644
000350 cf 54 e1 c4 51 ff ae 3f 37 3a 08 78 86 b3 72 bf
       0.060541682513454036 -0.004565739888234214
000360 65 97 3a 48 71 a5 c0 3f e6 14 14 da d1 e9 be bf
       0.13004890467453403 -0.12075530599766501
000370 b0 52 6b 9f 4d fa ba bf da e9 6c 33 c4 4e b9 bf
       -0.10538182394095474 -0.09885813003067004
000380 76 71 2f e3 7f 75 a1 3f bb 28 cc e8 da 5a b3 bf
       0.034099575502952215 -0.07560508903057699
000390 28 34 b8 5f bf f7 86 bf 99 95 fb 1a 8f c7 45 bf
       -0.011214728459004134 -0.0006646584278910294
0003a0 d2 c8 85 5b a9 82 b2 bf 97 ab 79 ee 72 26 b4 bf
       -0.07230623707235687 -0.07871168443823105
0003b0 b6 76 62 cf d2 78 a2 bf 3a 1a 18 7f 49 a8 9f bf
       -0.03607805997419915 -0.03091540182324535
0003c0 99 c2 fe ac ea b6 a3 bf f1 b6 9d e6 fb 71 b8 bf
       -0.03850491868741308 -0.09548925762438977
0003d0 96 d9 1a b4 b8 43 b0 bf f3 49 b1 2d ef 32 c0 bf
       -0.06353334805576191 -0.12655439120369713
0003e0 54 57 ed 2b bb e2 b0 3f 00 00 00 c0 1d 19 b4 bf
       0.06595964262427617 -0.07850824296474457
0003f0 c5 e5 45 42 27 d9 be bf e2 3c 5c 11 26 af b1 bf
       -0.12050099723810266 -0.06907880710444972
000400 90 f6 ed 16 d2 d5 94 bf c7 a6 ce 9e 0b 43 1d 3f
       -0.020346911096103926 0.00011162527489596694
000410 9b 55 ee 31 94 eb b1 bf 72 fa b6 a9 a2 53 a2 3f
       -0.07000089854257967 0.035794337479718843
000420 e5 d7 13 1c 11 46 bb 3f 4f 9f e9 17 c0 cb cc 3f
       0.10653788505064161 0.22496796767813484
000430 85 7b 9b d5 94 1d b4 3f 1b 87 0e e6 0d 22 ae 3f
       0.07857637610457686 0.05885356362638402
000440 00 00 00 c0 39 80 b7 bf 00 00 00 80 0d 0f af 3f
       -0.09180031716823578 0.060661718249320984
000450 e4 e8 c8 e5 11 20 be bf 7e 4f 06 34 2a 7e 9f bf
       -0.11767684802990491 -0.030754718232472104
000460 4d 29 e5 d0 9c 3f b3 3f 29 67 d3 90 44 57 b9 3f
       0.07518940067271736 0.0989878514841648
000470 2b c9 93 aa 99 16 b5 3f ac 68 20 91 19 43 b4 bf
       0.08237610258564547 -0.07914886277322591
000480 6a 27 da a1 88 72 b1 3f 68 50 40 d1 26 9a b6 bf
       0.06815389586895795 -0.08828966721222431
000490 5c 45 1d a9 4f 7c 8d bf a9 ad dc c8 67 eb b0 bf
       -0.014397260998210974 -0.0660920014749339
0004a0 89 6d e7 7e 97 ae 9c bf cb bc 98 cf 16 64 bd bf
       -0.028009764786344902 -0.11480848854329222
0004b0 72 80 b8 e0 d6 de a3 3f d0 13 fc ce 5b 56 aa bf
       0.03880950444386223 -0.0514401140372126
0004c0 39 30 d1 a7 ae 88 bb 3f 67 db d8 fb 81 06 b3 bf
       0.10755435559366412 -0.07431805037127291
0004d0 b3 42 23 3e 28 3a 92 3f 88 d0 26 12 16 35 c0 3f
       0.0177999771047463 0.1266200626975016
0004e0 d6 86 09 e6 88 b9 c3 bf 8b 3c b2 bd 3e 13 af 3f
       -0.15409957153592896 0.06069370332363019
0004f0 82 f8 ff e3 21 31 b9 bf cc c5 00 62 e5 d1 b5 3f
       -0.09840595070270022 0.08523400919582186
000500 00 00 00 00 eb eb ad bf 00 00 00 00 a4 b2 7f 3f
       -0.05844053626060486 0.00773872435092926
000510 81 b6 3d 2d f4 b6 ad 3f 5a 03 ab ee 1b 15 a0 bf
       0.05803645183810336 -0.03141104973247506
000520 e4 a2 90 54 bf 7b b4 bf e8 0e 23 2c 11 d5 a4 3f
       -0.08001323523115961 0.04068807281285364
000530 5e 26 bd 4b 4c 0c a3 3f 00 00 00 00 38 5c ad bf
       0.037203201528041005 -0.05734419822692871
000540 00 00 00 40 84 bd bd 3f 03 d8 e5 93 c3 5b b4 bf
       0.11617304384708405 -0.07952520714556503
000550 c5 1e 32 eb 23 ab c2 3f 6c e6 67 af 58 8a c9 3f
       0.1458477877060799 0.1995344978784489
000560 a0 f1 ad 64 62 55 74 3f 11 7e de a2 9c d8 b8 3f
       0.004964241360422866 0.09705523468300493
000570 5e 9b 25 01 e8 c9 ae bf ee 99 29 30 e5 a7 87 bf
       -0.06013417257309216 -0.011550703556349764
000580 24 e5 94 6e 9c 4a b6 3f 39 2e c3 14 3a 51 91 bf
       0.08707597446200005 -0.016911418454397007
000590 cd 24 0d 08 57 61 b3 3f 85 2c 90 8b d5 4b cb bf
       0.07570404001775728 -0.21325177492721906
0005a0 db 4b e9 5e fe 12 b8 bf 00 00 00 c0 43 0f bb 3f
       -0.09403981988116021 0.10570167005062103
0005b0 5d b1 c4 8e 86 80 9b bf 46 7d b0 4a 5f e3 bf 3f
       -0.026857473815810596 0.12456317494842492
0005c0 38 49 96 84 fd fa a7 bf e9 c8 1f 5e 19 e8 b5 bf
       -0.04683677905554123 -0.085572801093608
0005d0 e2 3c 4e 00 f1 b3 be 3f b0 39 bc da 78 17 9d bf
       0.11993318803273526 -0.028409851408520204
0005e0 af 0e 67 5a dc 72 bc bf 00 00 00 00 b1 67 9b bf
       -0.11112763602346364 -0.026762738823890686
0005f0 d0 e5 29 4c fc 41 b4 3f 84 00 c9 35 b4 19 be 3f
       0.07913185939278056 0.11757971108545645
000600 00 00 00 c0 d0 3c b8 3f 00 00 00 80 37 70 be bf
       0.09467796981334686 -0.11889979243278503
000610 00 00 00 00 22 02 a3 bf 00 00 00 00 66 b6 a6 bf
       -0.03712564706802368 -0.044360339641571045
000620 00 00 00 00 a0 1a 64 bf 00 00 00 80 51 2c b1 3f
       -0.002454102039337158 0.0670824944972992
000630 00 00 00 40 36 07 b8 3f 00 00 00 40 71 d5 bd bf
       0.09386004507541656 -0.11653812229633331
000640 00 00 00 00 94 7d bd bf 00 00 00 00 b3 a8 99 3f
       -0.11519742012023926 0.0250575989484787
000650 00 00 00 c0 71 33 b5 bf 00 00 00 80 bf 92 a0 3f
       -0.0828162282705307 0.032369598746299744
000660 00 00 00 00 ce fc 98 bf 00 00 00 80 79 a9 af bf
       -0.024401873350143433 -0.061839863657951355
000670 00 00 00 00 6b 7a ac 3f 00 00 00 c0 72 16 b5 3f
       0.05562147498130798 0.08237378299236298
000680 00 00 00 00 80 60 7c bf 00 00 00 c0 59 af bb 3f
       -0.006927967071533203 0.10814438760280609
000690 00 00 00 40 2e dc b1 3f 00 00 00 00 de 4f ac 3f
       0.06976594030857086 0.05529683828353882
0006a0 00 00 00 00 6e 43 85 bf 00 00 00 80 ae c9 b2 bf
       -0.010382518172264099 -0.0733899176120758
0006b0 00 00 00 00 78 92 9d 3f 00 00 00 c0 14 fe b5 bf
       0.02887904644012451 -0.08590821921825409
0006c0 00 00 00 00 34 aa 92 3f 00 00 00 80 4e 42 be bf
       0.01822739839553833 -0.11819925904273987
0006d0 00 00 00 40 a1 42 b3 3f 00 00 00 80 a9 8b b4 3f
       0.07523544132709503 0.08025607466697693
0006e0 00 00 00 00 65 80 af 3f 00 00 00 00 62 fe a2 bf
       0.06152644753456116 -0.037097036838531494
0006f0 00 00 00 00 05 41 a8 bf 00 00 00 80 cb 6a bc bf
       -0.04737105965614319 -0.11100456118583679
000700 00 00 00 00 ee dd b2 3f 00 00 00 00 80 8f 8c 3f
       0.07369887828826904 0.013945579528808594
000710 00 00 00 00 18 74 64 bf 00 00 00 00 9a a1 a0 3f
       -0.002496764063835144 0.032482922077178955
000720 00 00 00 c0 92 a8 bd 3f 00 00 00 00 8f 28 98 3f
       0.11585347354412079 0.02359221875667572
000730 00 00 00 c0 08 7d bf 3f 00 00 00 c0 b3 c2 b6 bf
       0.12300162017345428 -0.08890841901302338
000740 00 00 00 00 50 66 59 3f 00 00 00 80 90 07 ba bf
       0.0015502721071243286 -0.10167792439460754
000750 00 00 00 80 20 67 bf 3f 00 00 00 80 a6 9e aa 3f
       0.1226673424243927 0.05199165642261505
000760 00 00 00 40 36 1c ba bf 00 00 00 00 10 32 87 3f
       -0.10199297964572906 0.011325955390930176
000770 00 00 00 80 45 d3 a8 3f 00 00 00 80 fe 8f ad 3f
       0.048486873507499695 0.05773921310901642
000780 00 00 00 c0 c8 44 b5 bf 00 00 00 00 23 60 96 3f
       -0.08308081328868866 0.021851107478141785
000790 00 00 00 40 ff 66 b6 3f 00 00 00 00 1a 6b be bf
       0.08750911056995392 -0.11882174015045166
0007a0 00 00 00 00 96 c0 8d 3f 00 00 00 80 5b 27 ab bf
       0.014527484774589539 -0.053034648299217224
0007b0 00 00 00 80 8a d6 a6 bf 00 00 00 80 55 60 bb 3f
       -0.044605568051338196 0.1069386899471283
0007c0 00 00 00 00 f6 43 b0 bf 00 00 00 00 bc 02 82 bf
       -0.06353700160980225 -0.008794277906417847
0007d0 00 00 00 00 11 28 be bf 00 00 00 80 f3 f5 aa bf
       -0.11779886484146118 -0.052657708525657654
0007e0 00 00 00 c0 6b 36 b7 bf 00 00 00 00 43 bf 98 3f
       -0.09067414700984955 0.024167105555534363
0007f0 00 00 00 c0 7f 45 b3 bf 00 00 00 40 af c2 ba 3f
       -0.07527922093868256 0.10453315079212189

fc2.bias f8 [64]
000000 b6 78 e4 34 52 f0 b7 bf 7c 54 1a 8c d7 14 79 3f
       -0.0935107592708587 0.0061233920875071145
000010 5c 28 92 3f 3b 76 a0 bf 00 00 00 80 42 32 b2 bf
       -0.032152034292338455 -0.07107940316200256
000020 00 00 00 00 ab 04 bb bf a1 4e e7 4e ff b6 bb 3f
       -0.10553997755050659 0.10826106716495555
000030 eb ae a7 12 ea 77 b7 3f 92 e7 42 72 40 3e b3 bf
       0.09167349772877358 -0.07516863622268335
000040 20 f7 08 5f d7 2e bf bf 6d c4 a0 4a 9f 3e bb bf
       -0.12180849142256678 -0.10642428943607891
000050 d0 2b 10 63 3e 1d b0 3f 87 d9 dc 65 37 f0 9e 3f
       0.06294622343572986 0.030213227836804826
000060 33 25 ba 96 c9 87 9b bf 95 cf 4b e8 16 4a b1 3f
       -0.02688517553773302 0.06753676577846897
000070 00 00 00 40 6a d2 b5 bf 47 c3 b1 8a 3c 07 80 3f
       -0.08524192869663239 0.007826302511803397
000080 46 4c bf 7a 62 9f 7a 3f 86 af 6d 24 bd c8 9c bf
       0.00649965733096553 -0.028109507893006057
000090 cf d7 bb be b0 14 b9 3f 2b db e2 e2 32 57 ba 3f
       0.09797196060739498 0.10289304770672618
0000a0 d3 b3 64 ae c3 02 ad bf 0f e0 14 67 2d f7 8b 3f
       -0.056661715543988266 0.013655047138499325
0000b0 09 cd e0 a8 63 28 84 3f d6 90 50 74 4e 49 c0 3f
       0.009842661467792018 0.12723713569096756
0000c0 f4 43 75 f0 36 28 b1 3f 9e ef 6a 9a 7b 36 bc 3f
       0.06701987619932465 0.11020634193385923
0000d0 bd 56 d0 4d fe 1d 75 3f 22 c7 33 05 dd e5 a3 3f
       0.005155557036251754 0.038863093266526386
0000e0 0f 30 f7 c9 d6 54 92 bf 81 b5 9b 94 d9 c1 88 3f
       -0.01790176017475181 0.012088489387191316
0000f0 9b e5 ab 08 f5 bb b8 bf e5 73 6a f8 8f 09 69 bf
       -0.09661799871164194 -0.0030563175126432245
000100 8a a3 bf ab c1 d1 a6 3f 00 00 00 00 ec ad 98 bf
       0.044569065299419355 -0.024100959300994873
000110 fe 1d 4c 1d 08 fe af 3f fe c2 d8 fc ab bf b8 bf
       0.06248498304017501 -0.0966746799756599
000120 0d 17 60 ce e4 27 90 3f a6 12 44 2c 45 74 b3 3f
       0.015777182670738066 0.07599289255819972
000130 01 99 e8 ca 70 c6 be bf e4 e7 05 6f a3 d8 a6 bf
       -0.12021546319792621 -0.044621569922085574
000140 88 c4 23 b3 2e 45 ae 3f 9a 90 b3 c2 4e 07 c1 3f
       0.05912156998409396 0.13303551203637626
000150 6a 25 9b e1 db cd b8 bf 21 17 bf c9 01 6b b2 bf
       -0.09689115770301773 -0.07194529700708731
000160 13 20 14 57 5e 5d a4 bf 8a a0 40 15 16 c6 b1 3f
       -0.039774845246995615 0.06942880648478159
000170 00 00 00 00 cc 2c 9b bf f8 de 21 ff 58 05 93 bf
       -0.026538074016571045 -0.018575087139168084
000180 f9 7a b6 32 6d 0a 65 3f 11 3b bc 23 f0 fd ad 3f
       0.002568448331387582 0.058578018533912986
000190 a3 d5 09 98 c8 71 a3 bf 34 74 40 b5 5b 2c b9 3f
       -0.03797747474610993 0.09833310294239156
0001a0 9a 36 30 3e dc a2 b9 bf 7a 65 fc 02 6b f4 60 3f
       -0.10014130132932522 0.0020696725913579824
0001b0 b4 db c3 8f 3f c5 c0 bf 37 b3 22 f5 60 2c b4 bf
       -0.1310195400216948 -0.07880216583971565
0001c0 00 00 00 40 51 87 b8 bf cd e6 06 b9 07 08 b3 3f
       -0.0958147794008255 0.07434128062495944
0001d0 27 3c 97 3e 02 16 b1 3f 76 7c e4 b7 87 a0 70 3f
       0.06674207714171186 0.0040593434808037145
0001e0 2a 1e 03 db 13 84 82 bf a5 80 37 ea b9 0d b2 bf
       -0.009040980454655918 -0.07052194564994581
0001f0 e2 52 80 a0 56 de a2 bf b5 5a f0 97 3a 13 9a bf
       -0.036852557270469224 -0.025463977359403162

bn2_fc.weight f8 [64]
000000 00 00 00 00 00 00 f0 3f 00 00 00 00 00 00 f0 3f
       1.0 1.0
000010 00 00 00 00 00 00 f0 3f 00 00 00 00 00 00 f0 3f
       1.0 1.0
000020 00 00 00 00 00 00 f0 3f 00 00 00 00 00 00 f0 3f
       1.0 1.0
000030 00 00 00 00 00 00 f0 3f 00 00 00 00 00 00 f0 3f
       1.0 1.0
000040 00 00 00 00 00 00 f0 3f 00 00 00 00 00 00 f0 3f
       1.0 1.0
000050 00 00 00 00 00 00 f0 3f 00 00 00 00 00 00 f0 3f
       1.0 1.0
000060 00 00 00 00 00 00 f0 3f 00 00 00 00 00 00 f0 3f
       1.0 1.0
000070 00 00 00 00 00 00 f0 3f 00 00 00 00 00 00 f0 3f
       1.0 1.0
000080 00 00 00 00 00 00 f0 3f 00 00 00 00 00 00 f0 3f
       1.0 1.0
000090 00 00 00 00 00 00 f0 3f 00 00 00 00 00 00 f0 3f
       1.0 1.0
0000a0 00 00 00 00 00 00 f0 3f 00 00 00 00 00 00 f0 3f
       1.0 1.0
0000b0 00 00 00 00 00 00 f0 3f 00 00 00 00 00 00 f0 3f
       1.0 1.0
0000c0 00 00 00 00 00 00 f0 3f 00 00 00 00 00 00 f0 3f
       1.0 1.0
0000d0 00 00 00 00 00 00 f0 3f 00 00 00 00 00 00 f0 3f
       1.0 1.0
0000e0 00 00 00 00 00 00 f0 3f 00 00 00 00 00 00 f0 3f
       1.0 1.0
0000f0 00 00 00 00 00 00 f0 3f 00 00 00 00 00 00 f0 3f
       1.0 1.0
000100 00 00 00 00 00 00 f0 3f 00 00 00 00 00 00 f0 3f
       1.0 1.0
000110 00 00 00 00 00 00 f0 3f 00 00 00 00 00 00 f0 3f
       1.0 1.0
000120 00 00 00 00 00 00 f0 3f 00 00 00 00 00 00 f0 3f
       1.0 1.0
000130 00 00 00 00 00 00 f0 3f 00 00 00 00 00 00 f0 3f
       1.0 1.0
000140 00 00 00 00 00 00 f0 3f 00 00 00 00 00 00 f0 3f
       1.0 1.0
000150 00 00 00 00 00 00 f0 3f 00 00 00 00 00 00 f0 3f
       1.0 1.0
000160 00 00 00 00 00 00 f0 3f 00 00 00 00 00 00 f0 3f
       1.0 1.0
000170 00 00 00 00 00 00 f0 3f 00 00 00 00 00 00 f0 3f
       1.0 1.0
000180 00 00 00 00 00 00 f0 3f 00 00 00 00 00 00 f0 3f
       1.0 1.0
000190 00 00 00 00 00 00 f0 3f 00 00 00 00 00 00 f0 3f
       1.0 1.0
0001a0 00 00 00 00 00 00 f0 3f 00 00 00 00 00 00 f0 3f
       1.0 1.0
0001b0 00 00 00 00 00 00 f0 3f 00 00 00 00 00 00 f0 3f
       1.0 1.0
0001c0 00 00 00 00 00 00 f0 3f 00 00 00 00 00 00 f0 3f
       1.0 1.0
0001d0 00 00 00 00 00 00 f0 3f 00 00 00 00 00 00 f0 3f
       1.0 1.0
0001e0 00 00 00 00 00 00 f0 3f 00 00 00 00 00 00 f0 3f
       1.0 1.0
0001f0 00 00 00 00 00 00 f0 3f 00 00 00 00 00 00 f0 3f
       1.0 1.0

bn2_fc.bias f8 [64]
000000 00 00 00 00 00 00 00 00 00 00 00 00 00 00 00 00
       0.0 0.0
000010 00 00 00 00 00 00 00 00 00 00 00 00 00 00 00 00
       0.0 0.0
000020 00 00 00 00 00 00 00 00 00 00 00 00 00 00 00 00
       0.0 0.0
000030 00 00 00 00 00 00 00 00 00 00 00 00 00 00 00 00
       0.0 0.0
000040 00 00 00 00 00 00 00 00 00 00 00 00 00 00 00 00
       0.0 0.0
000050 00 00 00 00 00 00 00 00 00 00 00 00 00 00 00 00
       0.0 0.0
000060 00 00 00 00 00 00 00 00 00 00 00 00 00 00 00 00
       0.0 0.0
000070 00 00 00 00 00 00 00 00 00 00 00 00 00 00 00 00
       0.0 0.0
000080 00 00 00 00 00 00 00 00 00 00 00 00 00 00 00 00
       0.0 0.0
000090 00 00 00 00 00 00 00 00 00 00 00 00 00 00 00 00
       0.0 0.0
0000a0 00 00 00 00 00 00 00 00 00 00 00 00 00 00 00 00
       0.0 0.0
0000b0 00 00 00 00 00 00 00 00 00 00 00 00 00 00 00 00
       0.0 0.0
0000c0 00 00 00 00 00 00 00 00 00 00 00 00 00 00 00 00
       0.0 0.0
0000d0 00 00 00 00 00 00 00 00 00 00 00 00 00 00 00 00
       0.0 0.0
0000e0 00 00 00 00 00 00 00 00 00 00 00 00 00 00 00 00
       0.0 0.0
0000f0 00 00 00 00 00 00 00 00 00 00 00 00 00 00 00 00
       0.0 0.0
000100 00 00 00 00 00 00 00 00 00 00 00 00 00 00 00 00
       0.0 0.0
000110 00 00 00 00 00 00 00 00 00 00 00 00 00 00 00 00
       0.0 0.0
000120 00 00 00 00 00 00 00 00 00 00 00 00 00 00 00 00
       0.0 0.0
000130 00 00 00 00 00 00 00 00 00 00 00 00 00 00 00 00
       0.0 0.0
000140 00 00 00 00 00 00 00 00 00 00 00 00 00 00 00 00
       0.0 0.0
000150 00 00 00 00 00 00 00 00 00 00 00 00 00 00 00 00
       0.0 0.0
000160 00 00 00 00 00 00 00 00 00 00 00 00 00 00 00 00
       0.0 0.0
000170 00 00 00 00 00 00 00 00 00 00 00 00 00 00 00 00
       0.0 0.0
000180 00 00 00 00 00 00 00 00 00 00 00 00 00 00 00 00
       0.0 0.0
000190 00 00 00 00 00 00 00 00 00 00 00 00 00 00 00 00
       0.0 0.0
0001a0 00 00 00 00 00 00 00 00 00 00 00 00 00 00 00 00
       0.0 0.0
0001b0 00 00 00 00 00 00 00 00 00 00 00 00 00 00 00 00
       0.0 0.0
0001c0 00 00 00 00 00 00 00 00 00 00 00 00 00 00 00 00
       0.0 0.0
0001d0 00 00 00 00 00 00 00 00 00 00 00 00 00 00 00 00
       0.0 0.0
0001e0 00 00 00 00 00 00 00 00 00 00 00 00 00 00 00 00
       0.0 0.0
0001f0 00 00 00 00 00 00 00 00 00 00 00 00 00 00 00 00
       0.0 0.0

bn2_fc.running_mean f8 [64]
000000 00 00 00 00 00 00 00 00 00 00 00 00 00 00 00 00
       0.0 0.0
000010 00 00 00 00 00 00 00 00 00 00 00 00 00 00 00 00
       0.0 0.0
000020 00 00 00 00 00 00 00 00 00 00 00 00 00 00 00 00
       0.0 0.0
000030 00 00 00 00 00 00 00 00 00 00 00 00 00 00 00 00
       0.0 0.0
000040 00 00 00 00 00 00 00 00 00 00 00 00 00 00 00 00
       0.0 0.0
000050 00 00 00 00 00 00 00 00 00 00 00 00 00 00 00 00
       0.0 0.0
000060 00 00 00 00 00 00 00 00 00 00 00 00 00 00 00 00
       0.0 0.0
000070 00 00 00 00 00 00 00 00 00 00 00 00 00 00 00 00
       0.0 0.0
000080 00 00 00 00 00 00 00 00 00 00 00 00 00 00 00 00
       0.0 0.0
000090 00 00 00 00 00 00 00 00 00 00 00 00 00 00 00 00
       0.0 0.0
0000a0 00 00 00 00 00 00 00 00 00 00 00 00 00 00 00 00
       0.0 0.0
0000b0 00 00 00 00 00 00 00 00 00 00 00 00 00 00 00 00
       0.0 0.0
0000c0 00 00 00 00 00 00 00 00 00 00 00 00 00 00 00 00
       0.0 0.0
0000d0 00 00 00 00 00 00 00 00 00 00 00 00 00 00 00 00
       0.0 0.0
0000e0 00 00 00 00 00 00 00 00 00 00 00 00 00 00 00 00
       0.0 0.0
0000f0 00 00 00 00 00 00 00 00 00 00 00 00 00 00 00 00
       0.0 0.0
000100 00 00 00 00 00 00 00 00 00 00 00 00 00 00 00 00
       0.0 0.0
000110 00 00 00 00 00 00 00 00 00 00 00 00 00 00 00 00
       0.0 0.0
000120 00 00 00 00 00 00 00 00 00 00 00 00 00 00 00 00
       0.0 0.0
000130 00 00 00 00 00 00 00 00 00 00 00 00 00 00 00 00
       0.0 0.0
000140 00 00 00 00 00 00 00 00 00 00 00 00 00 00 00 00
       0.0 0.0
000150 00 00 00 00 00 00 00 00 00 00 00 00 00 00 00 00
       0.0 0.0
000160 00 00 00 00 00 00 00 00 00 00 00 00 00 00 00 00
       0.0 0.0
000170 00 00 00 00 00 00 00 00 00 00 00 00 00 00 00 00
       0.0 0.0
000180 00 00 00 00 00 00 00 00 00 00 00 00 00 00 00 00
       0.0 0.0
000190 00 00 00 00 00 00 00 00 00 00 00 00 00 00 00 00
       0.0 0.0
0001a0 00 00 00 00 00 00 00 00 00 00 00 00 00 00 00 00
       0.0 0.0
0001b0 00 00 00 00 00 00 00 00 00 00 00 00 00 00 00 00
       0.0 0.0
0001c0 00 00 00 00 00 00 00 00 00 00 00 00 00 00 00 00
       0.0 0.0
0001d0 00 00 00 00 00 00 00 00 00 00 00 00 00 00 00 00
       0.0 0.0
0001e0 00 00 00 00 00 00 00 00 00 00 00 00 00 00 00 00
       0.0 0.0
0001f0 00 00 00 00 00 00 00 00 00 00 00 00 00 00 00 00
       0.0 0.0
