model_path/data12/G12.pth (torch, 652927 bytes, 12 tensors)

gru1.weight_ih_l0 f8 [192, 13]
0.04385082423686981 -0.022044271230697632 -0.03864656388759613 0.07538919150829315 -0.014135181903839111 0.06153096258640289 -0.021758317947387695 -0.05854593217372894
-0.058375418186187744 -0.06247851252555847 -0.1033058762550354 -0.025983884930610657 0.07173006236553192 -0.0727139562368393 0.04163697361946106 -0.06977018713951111
-0.10115563869476318 0.12490123510360718 -0.08089283108711243 -0.04045383632183075 -0.11999896168708801 -0.10967865586280823 0.09695951640605927 -0.006152495741844177
-0.06657503545284271 0.06815238296985626 0.05764409899711609 -0.06788879632949829 -0.005036532878875732 0.033891528844833374 0.016398772597312927 0.0915568619966507
-0.041186437010765076 0.05683574080467224 0.06464627385139465 -0.10342712700366974 0.013121992349624634 0.031670719385147095 0.09385181963443756 0.05127330124378204
0.07226066291332245 -0.007167637348175049 0.0892522782087326 0.03624333441257477 -0.05217182636260986 -0.03100620210170746 0.12051807343959808 0.053953155875205994
0.0086449533700943 0.10435828566551208 0.01489885151386261 -0.029832348227500916 0.09817004203796387 0.10997550189495087 0.07588915526866913 -0.1097380518913269
-0.01682804524898529 0.05342563986778259 0.01584276556968689 0.09565286338329315 -0.1128266304731369 -0.095913827419281 -0.09487934410572052 -0.03009273111820221
0.02916356921195984 -0.08501960337162018 0.08485384285449982 -0.11666643619537354 0.09504912793636322 -0.11639446020126343 0.08496011793613434 -0.08438622951507568
-0.07497543096542358 -0.0017609000205993652 0.040788859128952026 0.006917625665664673 -0.03205026686191559 -0.08782969415187836 -0.07509572803974152 -0.06080146133899689
0.06490139663219452 -0.09227238595485687 -0.04705195128917694 -0.05291241407394409 -0.01244451105594635 0.012525826692581177 -0.048204436898231506 -0.11185185611248016
0.029415100812911987 0.0650550127029419 0.12021002173423767 0.06717702746391296 0.07844366133213043 -0.06794944405555725 -0.11497393250465393 -0.11170691251754761
0.025717809796333313 -0.05661801993846893 -0.020143970847129822 0.09786926209926605 0.021723777055740356 0.04449044167995453 0.05279679596424103 0.026931121945381165
0.06780259311199188 -0.0042589157819747925 -0.0719556212425232 -0.09469898045063019 -0.07933330535888672 -0.022234931588172913 -0.01083749532699585 -0.07538101077079773
0.08406247198581696 -0.11811524629592896 0.03397767245769501 -0.06637443602085114 -0.02203822135925293 0.12398555874824524 0.07304111123085022 -0.04763020575046539
0.027067750692367554 -0.04379229247570038 0.003842100501060486 -0.11555792391300201 -0.005927249789237976 0.12426877021789551 -0.06699715554714203 0.05192328989505768
0.12299904227256775 -0.09387053549289703 -0.0029340535402297974 0.06103427708148956 0.01399683952331543 0.04685066640377045 0.1057964414358139 -0.048851385712623596
-0.03926810622215271 0.10311397910118103 -0.0724719911813736 -0.06547461450099945 0.08129049837589264 -0.03007560968399048 0.036426007747650146 0.030224144458770752
-0.04819001257419586 0.08234032988548279 0.07658316195011139 -0.014779254794120789 -0.030280455946922302 0.030807971954345703 -0.04239451885223389 -0.01815849542617798
0.05429956316947937 -0.03289450705051422 0.09133927524089813 0.07480274140834808 -0.06897641718387604 -0.05708150565624237 -0.03180935978889465 0.09163492918014526
-0.015207022428512573 -0.11785568296909332 0.10744443535804749 -0.05760645866394043 -0.06491719186306 -0.10762810707092285 0.060773834586143494 -0.027167081832885742
-0.02456723153591156 0.06173810362815857 -0.0104198157787323 -0.052303314208984375 0.028388798236846924 -0.08711324632167816 -0.03418941795825958 0.05959293246269226
0.04291525483131409 0.09086711704730988 0.08825157582759857 0.04897396266460419 0.06794862449169159 -0.055973634123802185 0.027032658457756042 0.04253806173801422
-0.12302044034004211 -0.08512511849403381 0.039709433913230896 0.025390267372131348 -0.10481460392475128 -0.04265093803405762 -0.034690290689468384 0.04188406467437744
-0.07849335670471191 0.10618588328361511 0.11063921451568604 -0.11988851428031921 -0.10791879892349243 0.01699255406856537 -0.0357719361782074 -0.08845894038677216
-0.013927370309829712 -0.06479710340499878 0.005632758140563965 -0.1065639853477478 -0.0028204023838043213 0.0994933694601059 0.03873749077320099 -0.049365267157554626
0.07711532711982727 0.09531378746032715 0.08924466371536255 -0.10980287194252014 0.11994509398937225 0.08346129953861237 -0.008577093482017517 0.09732465445995331
-0.05901540815830231 -0.07802949845790863 0.0846843272447586 -0.018286272883415222 -0.03575913608074188 -0.08928115665912628 -0.05311374366283417 -0.04622797667980194
-0.06286275386810303 -0.05570542812347412 0.011982977390289307 0.11165018379688263 0.08133615553379059 0.05688472092151642 0.07797598838806152 0.047914519906044006
0.11948889493942261 -0.05624456703662872 0.09758572280406952 0.11391636729240417 -0.0005298405885696411 0.07825401425361633 0.014788597822189331 -0.11018900573253632
-0.01503986120223999 -0.052406325936317444 -0.11497557163238525 -0.035855263471603394 -0.09575752913951874 0.011268079280853271 0.03129452466964722 -0.0514787882566452
-0.07223111391067505 0.11721198260784149 0.11372821033000946 0.05613188445568085 0.1107637882232666 0.10231265425682068 0.03488324582576752 -0.04239167273044586
00000000: 0000 0080 9d73 a63f 0000 0000 c692 96bf
00000010: 0000 0080 7bc9 a3bf 0000 00c0 b44c b33f
00000020: 0000 0000 e8f2 8cbf 0000 0080 fc80 af3f
00000030: 0000 0000 d047 96bf 0000 0080 bbf9 adbf
00000040: 0000 0000 62e3 adbf 0000 0000 2ffd afbf
00000050: 0000 0000 4172 babf 0000 0000 859b 9abf
00000060: 0000 00c0 e65c b23f 0000 00c0 619d b2bf
00000070: 0000 0000 7151 a53f 0000 0080 75dc b1bf
00000080: 0000 0000 56e5 b9bf 0000 0000 87f9 bf3f
00000090: 0000 0080 64b5 b4bf 0000 0080 5db6 a4bf
000000a0: 0000 0080 40b8 bebf 0000 0080 e613 bcbf
000000b0: 0000 00c0 56d2 b83f 0000 0000 5c33 79bf
000000c0: 0000 00c0 0f0b b1bf 0000 0040 6f72 b13f
000000d0: 0000 0000 8783 ad3f 0000 0000 2961 b1bf
000000e0: 0000 0000 30a1 74bf 0000 0000 3b5a a13f
000000f0: 0000 0000 d7ca 903f 0000 0040 4570 b73f
00000100: 0000 0080 6316 a5bf 0000 0000 9319 ad3f
00000110: 0000 0080 a88c b03f 0000 0040 337a babf
00000120: 0000 0000 b4df 8a3f 0000 0000 2537 a03f
00000130: 0000 0040 ac06 b83f 0000 0080 7e40 aa3f
00000140: 0000 00c0 ac7f b23f 0000 0000 d05b 7dbf
00000150: 0000 00c0 3cd9 b63f 0000 0080 7c8e a23f
00000160: 0000 0000 44b6 aabf 0000 0000 17c0 9fbf
00000170: 0000 00c0 45da be3f 0000 0080 bf9f ab3f
00000180: 0000 0000 72b4 813f 0000 0080 39b7 ba3f
00000190: 0000 0000 4a83 8e3f 0000 0000 5f8c 9ebf
000001a0: 0000 0000 ac21 b93f 0000 00c0 5a27 bc3f
000001b0: 0000 00c0 786d b33f 0000 0000 cb17 bcbf
000001c0: 0000 0000 5f3b 91bf 0000 0000 9b5a ab3f
000001d0: 0000 0000 1639 903f 0000 00c0 b47c b83f
000001e0: 0000 00c0 34e2 bcbf 0000 0000 cf8d b8bf
000001f0: 0000 0040 034a b8bf 0000 0000 a1d0 9ebf
00000200: 0000 0000 0edd 9d3f 0000 0040 d8c3 b5bf
00000210: 0000 0040 fbb8 b53f 0000 0000 dadd bdbf
00000220: 0000 00c0 2355 b83f 0000 0000 07cc bdbf
00000230: 0000 0040 f2bf b53f 0000 0000 569a b5bf
00000240: 0000 0000 9731 b3bf 0000 0000 c0d9 5cbf
00000250: 0000 0000 47e2 a43f 0000 0000 a855 7c3f
00000260: 0000 0080 e468 a0bf 0000 00c0 017c b6bf
00000270: 0000 0040 7939 b3bf 0000 0080 5e21 afbf
00000280: 0000 00c0 609d b03f 0000 00c0 299f b7bf
00000290: 0000 0080 3117 a8bf 0000 0000 5617 abbf
000002a0: 0000 0000 827c 89bf 0000 0000 24a7 893f
000002b0: 0000 0080 40ae a8bf 0000 00c0 52a2 bcbf
000002c0: 0000 0000 fe1e 9e3f 0000 0000 72a7 b03f
000002d0: 0000 0080 15c6 be3f 0000 0080 8332 b13f
000002e0: 0000 0040 e214 b43f 0000 0080 2265 b1bf
000002f0: 0000 0080 ee6e bdbf 0000 0000 d398 bcbf
00000300: 0000 0000 c555 9a3f 0000 0080 09fd acbf
00000310: 0000 0000 9fa0 94bf 0000 00c0 f50d b93f
00000320: 0000 0000 c23e 963f 0000 0080 73c7 a63f
00000330: 0000 0080 2e08 ab3f 0000 0000 d593 9b3f
00000340: 0000 00c0 825b b13f 0000 0000 cc71 71bf
00000350: 0000 0000 af6b b2bf 0000 0040 313e b8bf
00000360: 0000 0000 304f b4bf 0000 0000 c1c4 96bf
00000370: 0000 0000 f831 86bf 0000 0080 2b4c b3bf
00000380: 0000 0040 1e85 b53f 0000 0000 cd3c bebf
00000390: 0000 0080 8565 a13f 0000 0040 eafd b0bf
000003a0: 0000 0000 3091 96bf 0000 0080 84bd bf3f
000003b0: 0000 0080 d2b2 b23f 0000 0080 fc62 a8bf
000003c0: 0000 0000 a6b7 9b3f 0000 0080 f16b a6bf
000003d0: 0000 0000 7879 6f3f 0000 0040 3495 bdbf
000003e0: 0000 0000 2c47 78bf 0000 0000 14d0 bf3f
000003f0: 0000 00c0 b926 b1bf 0000 0080 b095 aa3f
00000400: 0000 0080 dd7c bf3f 0000 0040 e607 b8bf
00000410: 0000 0000 2809 68bf 0000 0080 e23f af3f
00000420: 0000 0000 60aa 8c3f 0000 0080 cffc a73f
00000430: 0000 00c0 7915 bb3f 0000 0080 0c03 a9bf
00000440: 0000 0000 f31a a4bf 0000 0080 ad65 ba3f
00000450: 0000 0040 868d b2bf 0000 00c0 f1c2 b0bf
00000460: 0000 0040 74cf b43f 0000 0000 24cc 9ebf
00000470: 0000 0000 6ea6 a23f 0000 0000 14f3 9e3f
00000480: 0000 0080 5cac a8bf 0000 0080 4114 b53f
00000490: 0000 0040 f49a b33f 0000 0000 9644 8ebf
000004a0: 0000 0000 d701 9fbf 0000 0000 208c 9f3f
000004b0: 0000 0000 bcb4 a5bf 0000 0000 2498 92bf
000004c0: 0000 0000 27cd ab3f 0000 0080 8cd7 a0bf
000004d0: 0000 00c0 0262 b73f 0000 00c0 4526 b33f
000004e0: 0000 0040 70a8 b1bf 0000 0080 c939 adbf
000004f0: 0000 0000 5149 a0bf 0000 0000 6375 b73f
00000500: 0000 0000 dc24 8fbf 0000 0040 ca2b bebf
00000510: 0000 0080 7a81 bb3f 0000 0000 987e adbf
00000520: 0000 00c0 699e b0bf 0000 0000 848d bbbf
00000530: 0000 0080 bf1d af3f 0000 0000 b0d1 9bbf
00000540: 0000 0000 2728 99bf 0000 0000 239c af3f
00000550: 0000 0000 fc56 85bf 0000 0000 80c7 aabf
00000560: 0000 0000 f411 9d3f 0000 00c0 0d4d b6bf
00000570: 0000 0080 4681 a1bf 0000 0000 f782 ae3f
00000580: 0000 0000 fdf8 a53f 0000 0040 1143 b73f
00000590: 0000 00c0 a797 b63f 0000 0080 1d13 a93f
000005a0: 0000 00c0 1465 b13f 0000 0080 93a8 acbf
000005b0: 0000 0000 73ae 9b3f 0000 0080 8cc7 a53f
000005c0: 0000 0080 447e bfbf 0000 0080 c2ca b5bf
000005d0: 0000 0080 cb54 a43f 0000 0000 e8ff 993f
000005e0: 0000 0040 21d5 babf 0000 0000 58d6 a5bf
000005f0: 0000 0000 edc2 a1bf 0000 0000 d471 a53f
00000600: 0000 0000 2418 b4bf 0000 0080 ff2e bb3f
00000610: 0000 0000 da52 bc3f 0000 0080 03b1 bebf
00000620: 0000 0000 91a0 bbbf 0000 0000 7f66 913f
00000630: 0000 0000 b350 a2bf 0000 00c0 3ea5 b6bf
00000640: 0000 0000 f485 8cbf 0000 0000 8b96 b0bf
00000650: 0000 0000 6012 773f 0000 0000 c747 bbbf
00000660: 0000 0000 d01a 67bf 0000 00c0 6578 b93f
00000670: 0000 0080 66d5 a33f 0000 0080 6746 a9bf
00000680: 0000 0080 d4bd b33f 0000 0000 7c66 b83f
00000690: 0000 0000 bdd8 b63f 0000 0080 0a1c bcbf
000006a0: 0000 00c0 b8b4 be3f 0000 0040 b85d b53f
000006b0: 0000 0000 de90 81bf 0000 00c0 44ea b83f
000006c0: 0000 0080 4437 aebf 0000 00c0 bdf9 b3bf
000006d0: 0000 0040 dfad b53f 0000 0000 a3b9 92bf
000006e0: 0000 0080 054f a2bf 0000 0040 21db b6bf
000006f0: 0000 0080 b931 abbf 0000 0080 31ab a7bf
00000700: 0000 0000 c617 b0bf 0000 0000 6c85 acbf
00000710: 0000 0000 888a 883f 0000 0040 1b95 bc3f
00000720: 0000 0040 72d2 b43f 0000 0080 fe1f ad3f
00000730: 0000 0000 3cf6 b33f 0000 0080 4088 a83f
00000740: 0000 0000 d396 be3f 0000 0080 16cc acbf
00000750: 0000 00c0 60fb b83f 0000 0080 9f29 bd3f
00000760: 0000 0000 a05c 41bf 0000 0080 7408 b43f
00000770: 0000 0000 7c49 8e3f 0000 00c0 5835 bcbf
00000780: 0000 0000 38cd 8ebf 0000 0080 00d5 aabf
00000790: 0000 0000 0a6f bdbf 0000 0000 9f5b a2bf
000007a0: 0000 00c0 9083 b8bf 0000 0000 b813 873f
000007b0: 0000 0000 d605 a03f 0000 0080 6d5b aabf
000007c0: 0000 0000 bd7d b2bf 0000 00c0 9a01 be3f
000007d0: 0000 00c0 4a1d bd3f 0000 0080 51bd ac3f
000007e0: 0000 0000 045b bc3f 0000 0080 2931 ba3f
000007f0: 0000 0080 37dc a13f 0000 0080 5cb4 a5bf

gru1.weight_hh_l0 f8 [192, 64]
0.01935376226902008 -0.0638083815574646 -0.11108973622322083 -0.02180047333240509 0.02529817819595337 0.07992340624332428 0.0039850324392318726 -0.04791061580181122
0.05675710737705231 -0.11719633638858795 -0.06151409447193146 -0.11966153979301453 0.011211991310119629 -0.09852945804595947 0.09802094101905823 0.005572155117988586
0.12391187250614166 -0.04916210472583771 0.009178563952445984 0.0815998911857605 -0.10625070333480835 -0.06311504542827606 -0.03161635994911194 0.09759442508220673
0.062251970171928406 0.03273385763168335 -0.059509843587875366 0.022866621613502502 -0.026374787092208862 -0.0950746089220047 0.11342726647853851 0.11605779826641083
0.019029751420021057 -0.0018475651741027832 0.12031735479831696 0.06453454494476318 -0.06836272776126862 0.03716583549976349 0.020335987210273743 0.10001061856746674
0.026845857501029968 -0.05600152909755707 0.07537980377674103 -0.12142947316169739 0.08468236029148102 0.02434954047203064 -0.02151322364807129 0.003475695848464966
-0.00544150173664093 -0.11986866593360901 -0.09157232940196991 0.10696452856063843 -0.10600343346595764 0.0028919577598571777 0.030277356505393982 -0.02098257839679718
-0.0818108320236206 -0.10698962211608887 0.05534276366233826 -0.12422618269920349 0.0909850150346756 0.07222539186477661 0.06676720082759857 0.08424997329711914
-0.12059155106544495 -0.044377461075782776 -0.1218041330575943 -0.02341441810131073 0.08406871557235718 0.1150372326374054 0.0071513354778289795 0.07465407252311707
-0.10387155413627625 -0.12118373811244965 0.09359055757522583 0.08238314092159271 -0.0106678307056427 -0.04211486876010895 0.09770181775093079 -0.08463671803474426
0.06435194611549377 -0.09799852967262268 0.10229429602622986 0.0558367520570755 -0.03519293665885925 0.032720670104026794 0.06682945787906647 0.02554181218147278
-0.06421108543872833 0.10290911793708801 0.05485212802886963 0.10416127741336823 -0.1072026789188385 0.08348812162876129 -0.11781877279281616 0.09173975884914398
-0.01072770357131958 0.03690806031227112 -0.0988781750202179 0.019673168659210205 -0.013766855001449585 -0.09125785529613495 -0.014100641012191772 -0.03233283758163452
-0.022490784525871277 -0.0006421655416488647 0.09369641542434692 -0.08388587832450867 0.01065012812614441 -0.11135637760162354 -0.00839143991470337 0.023581579327583313
-0.06892666220664978 0.018492043018341064 0.06461501121520996 -0.05005253851413727 -0.026816263794898987 0.07775929570198059 0.11714832484722137 -0.004320919513702393
-0.01674559712409973 -0.06538435816764832 -0.05696767568588257 0.1058645248413086 -0.006214126944541931 0.033093199133872986 -0.09019042551517487 0.07934530079364777
-0.08280737698078156 -0.04132090508937836 0.04350501298904419 0.02425980567932129 0.01732426881790161 0.09029370546340942 0.023819580674171448 0.057398974895477295
-0.014053136110305786 0.052997201681137085 -0.04528820514678955 -0.038797467947006226 -0.12151408195495605 -0.00022716820240020752 -0.048666998744010925 -0.0914173275232315
-0.06264233589172363 0.015619665384292603 -0.06506860256195068 -0.0391516387462616 -0.09096424281597137 0.06670515239238739 -0.08088889718055725 0.03647066652774811
-0.117274209856987 0.12099935114383698 -0.08805882930755615 -0.12276072800159454 0.08250674605369568 0.11802634596824646 -0.018044039607048035 0.02401067316532135
-0.033458709716796875 0.015775740146636963 0.11420416831970215 -0.013470172882080078 -0.06992499530315399 -0.0058141350746154785 0.1240224689245224 0.10910145938396454
0.03720785677433014 -0.017246603965759277 0.04662066698074341 0.01949484646320343 -0.06720472872257233 -0.01702740788459778 0.020011186599731445 -0.07264494895935059
-0.06248481571674347 -0.11760561168193817 0.03662236034870148 0.011213630437850952 -0.12284766137599945 0.11722095310688019 -0.04126608371734619 -0.09394091367721558
0.05850934982299805 0.09012582898139954 -0.04231816530227661 0.04334159195423126 0.058934763073921204 0.061223551630973816 0.004507735371589661 -0.07214921712875366
0.007820814847946167 -0.08735638856887817 0.06358681619167328 -0.002781212329864502 0.046940192580223083 -0.09518609941005707 -0.09194080531597137 -0.1182565838098526
-0.02843625843524933 -0.06341846287250519 0.012996301054954529 0.10352946817874908 -0.03393241763114929 0.07335072755813599 -0.03353840112686157 0.04321962594985962
0.017788633704185486 0.07240921258926392 0.06206957995891571 0.12044735252857208 -0.09001855552196503 0.04418276250362396 0.05680745840072632 0.02256566286087036
-0.077192023396492 -0.008044138550758362 0.1044190376996994 -0.04434286057949066 -0.09918087720870972 0.03868390619754791 0.01705789566040039 0.12236881256103516
-0.09399455785751343 -0.08263032138347626 0.04239456355571747 -0.021931171417236328 -0.011578112840652466 -0.07498593628406525 0.04667101800441742 0.100365549325943
-0.12194280326366425 0.08757342398166656 0.07060936093330383 -0.09217917919158936 -0.0700674057006836 0.027426496148109436 -0.11247725784778595 0.08043430745601654
-0.11881609261035919 0.05202166736125946 -0.09335976839065552 0.006764888763427734 0.049898579716682434 0.10411955416202545 0.05076366662979126 0.014862626791000366
-0.11011107265949249 0.018715158104896545 -0.05348905920982361 0.010827913880348206 -0.03152604401111603 -0.09600204229354858 0.006194934248924255 0.009017795324325562
00000000: 0000 0000 79d1 933f 0000 0000 bf55 b0bf
00000010: 0000 0080 6070 bcbf 0000 0000 dd52 96bf
00000020: 0000 0000 c4e7 993f 0000 0040 dc75 b43f
00000030: 0000 0000 9c52 703f 0000 0080 bd87 a8bf
00000040: 0000 0080 440f ad3f 0000 0040 9400 bebf
00000050: 0000 0080 c67e afbf 0000 0080 23a2 bebf
00000060: 0000 0000 50f6 863f 0000 0000 3a39 b9bf
00000070: 0000 0080 e617 b93f 0000 0000 d4d2 763f
00000080: 0000 0040 b0b8 bf3f 0000 0080 c62b a9bf
00000090: 0000 0000 36cc 823f 0000 0000 bbe3 b43f
000000a0: 0000 0000 3f33 bbbf 0000 00c0 4e28 b0bf
000000b0: 0000 0000 0530 a0bf 0000 00c0 f2fb b83f
000000c0: 0000 0080 7ddf af3f 0000 0000 7ec2 a03f
000000d0: 0000 0000 1378 aebf 0000 0000 596a 973f
000000e0: 0000 0000 fe01 9bbf 0000 0040 cf56 b8bf
000000f0: 0000 00c0 9109 bd3f 0000 00c0 f6b5 bd3f
00000100: 0000 0000 897c 933f 0000 0000 4045 5ebf
00000110: 0000 0040 1ecd be3f 0000 0000 5685 b03f
00000120: 0000 0040 3880 b1bf 0000 0080 6607 a33f
00000130: 0000 0000 f5d2 943f 0000 00c0 4b9a b93f
00000140: 0000 0000 7b7d 9b3f 0000 0080 3bac acbf
00000150: 0000 0040 174c b33f 0000 0080 0016 bfbf
00000160: 0000 0040 bead b53f 0000 0000 16ef 983f
00000170: 0000 0000 9007 96bf 0000 0000 1079 6c3f
00000180: 0000 0000 d449 76bf 0000 0080 b6af bebf
00000190: 0000 00c0 4871 b7bf 0000 0000 0762 bb3f
000001a0: 0000 0080 0a23 bbbf 0000 0000 e0b0 673f
000001b0: 0000 0000 0701 9f3f 0000 0000 757c 95bf
000001c0: 0000 0000 8ef1 b4bf 0000 0000 ac63 bbbf
000001d0: 0000 0000 e355 ac3f 0000 0080 49cd bfbf
000001e0: 0000 0040 cb4a b73f 0000 0000 5d7d b23f
000001f0: 0000 00c0 a717 b13f 0000 0000 6891 b53f
00000200: 0000 0080 16df bebf 0000 0080 a4b8 a6bf
00000210: 0000 0040 8e2e bfbf 0000 0000 f3f9 97bf
00000220: 0000 0000 8785 b53f 0000 0080 1473 bd3f
00000230: 0000 0000 b84a 7d3f 0000 0080 871c b33f
00000240: 0000 0080 5397 babf 0000 00c0 e505 bfbf
00000250: 0000 0000 8df5 b73f 0000 00c0 0f17 b53f
00000260: 0000 0000 04d9 85bf 0000 0080 1490 a5bf
00000270: 0000 0080 fc02 b93f 0000 0080 c0aa b5bf
00000280: 0000 0080 5e79 b03f 0000 0080 6e16 b9bf
00000290: 0000 0080 f52f ba3f 0000 0080 a296 ac3f
000002a0: 0000 0000 cf04 a2bf 0000 0080 c3c0 a03f
000002b0: 0000 0040 bc1b b13f 0000 0000 a227 9a3f
000002c0: 0000 0040 2370 b0bf 0000 0080 4058 ba3f
000002d0: 0000 0000 9415 ac3f 0000 0040 50aa ba3f
000002e0: 0000 0080 a271 bbbf 0000 0040 7a5f b53f
000002f0: 0000 0000 5f29 bebf 0000 00c0 417c b73f
00000300: 0000 0000 68f8 85bf 0000 0000 9de5 a23f
00000310: 0000 0080 1450 b9bf 0000 0000 3425 943f
00000320: 0000 0000 cc31 8cbf 0000 00c0 ac5c b7bf
00000330: 0000 0000 cce0 8cbf 0000 0000 ee8d a0bf
00000340: 0000 0000 d307 97bf 0000 0000 e00a 45bf
00000350: 0000 0000 7dfc b73f 0000 0080 8b79 b5bf
00000360: 0000 0000 bccf 853f 0000 0000 da81 bcbf
00000370: 0000 0000 882f 81bf 0000 0000 c525 983f
00000380: 0000 0080 2da5 b1bf 0000 0000 94ef 923f
00000390: 0000 0000 9c8a b03f 0000 0080 7ca0 a9bf
000003a0: 0000 0000 b975 9bbf 0000 0080 08e8 b33f
000003b0: 0000 00c0 6efd bd3f 0000 0000 d0b2 71bf
000003c0: 0000 0000 c225 91bf 0000 0080 07bd b0bf
000003d0: 0000 0000 de2a adbf 0000 0000 f019 bb3f
000003e0: 0000 0000 fc73 79bf 0000 0080 97f1 a03f
000003f0: 0000 0040 b816 b7bf 0000 0040 f94f b43f
00000400: 0000 0040 dd32 b5bf 0000 0080 0328 a5bf
00000410: 0000 0000 4a46 a63f 0000 0000 90d7 983f
00000420: 0000 0000 74bd 913f 0000 0000 7d1d b73f
00000430: 0000 0000 2964 983f 0000 0000 6663 ad3f
00000440: 0000 0000 e4c7 8cbf 0000 0000 7322 ab3f
00000450: 0000 0000 0430 a7bf 0000 0000 43dd a3bf
00000460: 0000 0000 8c1b bfbf 0000 0000 80c6 2dbf
00000470: 0000 0080 e1ea a8bf 0000 0040 2067 b7bf
00000480: 0000 0000 5409 b0bf 0000 0000 34fd 8f3f
00000490: 0000 0000 56a8 b0bf 0000 0000 af0b a4bf
000004a0: 0000 00c0 6e49 b7bf 0000 00c0 9613 b13f
000004b0: 0000 0080 22b5 b4bf 0000 0080 48ac a23f
000004c0: 0000 00c0 ae05 bebf 0000 0040 d0f9 be3f
000004d0: 0000 0000 068b b6bf 0000 0040 3f6d bfbf
000004e0: 0000 0080 291f b53f 0000 0080 f936 be3f
000004f0: 0000 0000 237a 92bf 0000 0000 4196 983f
00000500: 0000 0000 8021 a1bf 0000 0000 8427 903f
00000510: 0000 0000 7c3c bd3f 0000 0000 4096 8bbf
00000520: 0000 00c0 9ae6 b1bf 0000 0000 90d0 77bf
00000530: 0000 00c0 efbf bf3f 0000 00c0 12ee bb3f
00000540: 0000 0080 e80c a33f 0000 0000 18a9 91bf
00000550: 0000 0000 aade a73f 0000 0000 75f6 933f
00000560: 0000 0040 5434 b1bf 0000 0000 a26f 91bf
00000570: 0000 0000 d07d 943f 0000 0000 dc98 b2bf
00000580: 0000 0080 02fe afbf 0000 00c0 661b bebf
00000590: 0000 0080 2ac0 a23f 0000 0000 2cf7 863f
000005a0: 0000 00c0 f172 bfbf 0000 0040 3102 be3f
000005b0: 0000 0000 d420 a5bf 0000 0000 830c b8bf
000005c0: 0000 0000 f0f4 ad3f 0000 0080 7c12 b73f
000005d0: 0000 0000 baaa a5bf 0000 0080 de30 a63f
000005e0: 0000 0080 b22c ae3f 0000 0080 b158 af3f
000005f0: 0000 0000 b476 723f 0000 0000 5f78 b2bf
00000600: 0000 0000 5c04 803f 0000 0000 fd5c b6bf
00000610: 0000 00c0 3947 b03f 0000 0000 a0c8 66bf
00000620: 0000 0080 8b08 a83f 0000 00c0 1d5e b8bf
00000630: 0000 00c0 6e89 b7bf 0000 0040 1046 bebf
00000640: 0000 0000 651e 9dbf 0000 0040 313c b0bf
00000650: 0000 0000 ce9d 8a3f 0000 0040 e880 ba3f
00000660: 0000 0000 975f a1bf 0000 0000 1dc7 b23f
00000670: 0000 0000 f22b a1bf 0000 0000 e220 a63f
00000680: 0000 0000 2f37 923f 0000 0000 6989 b23f
00000690: 0000 0080 95c7 af3f 0000 0040 a3d5 be3f
000006a0: 0000 00c0 740b b7bf 0000 0080 1f9f a63f
000006b0: 0000 0000 de15 ad3f 0000 0000 741b 973f
000006c0: 0000 0040 dbc2 b3bf 0000 0000 7279 80bf
000006d0: 0000 00c0 34bb ba3f 0000 0080 1bb4 a6bf
000006e0: 0000 0000 eb63 b9bf 0000 0080 60ce a33f
000006f0: 0000 0000 a077 913f 0000 0000 9053 bf3f
00000700: 0000 0000 0710 b8bf 0000 00c0 4227 b5bf
00000710: 0000 0080 bdb4 a53f 0000 0000 2075 96bf
00000720: 0000 0000 44b6 87bf 0000 0040 4732 b3bf
00000730: 0000 0080 43e5 a73f 0000 0080 8eb1 b93f
00000740: 0000 00c0 a437 bfbf 0000 0040 366b b63f
00000750: 0000 0080 7413 b23f 0000 0000 0e99 b7bf
00000760: 0000 0000 f0ef b1bf 0000 0000 b115 9c3f
00000770: 0000 0040 4fcb bcbf 0000 00c0 5797 b43f
00000780: 0000 0040 bb6a bebf 0000 0080 95a2 aa3f
00000790: 0000 0000 6de6 b7bf 0000 0000 80b5 7b3f
000007a0: 0000 0080 4e8c a93f 0000 0040 94a7 ba3f
000007b0: 0000 0000 b2fd a93f 0000 0000 4c70 8e3f
000007c0: 0000 0040 3d30 bcbf 0000 0000 112a 933f
000007d0: 0000 0000 eb62 abbf 0000 0000 f22c 863f
000007e0: 0000 0080 2e24 a0bf 0000 0000 9793 b8bf
000007f0: 0000 0000 dc5f 793f 0000 0000 ec77 823f

gru1.bias_ih_l0 f8 [192]
0.015616998076438904 0.023436307907104492 -0.09863409399986267 0.04799734055995941 0.038974642753601074 -0.001413300633430481 0.0996948778629303 -0.0726662278175354
0.007091045379638672 0.036643192172050476 0.10494793951511383 0.042275577783584595 0.06655280292034149 0.11356642842292786 -0.0012278854846954346 0.10671956837177277
-0.0310993492603302 0.036138519644737244 -0.08759590983390808 0.03462047874927521 0.0037343204021453857 0.03968881070613861 -0.12222746014595032 -0.020189940929412842
-0.020688891410827637 0.0831950455904007 -0.12091906368732452 -0.07741692662239075 0.08715015649795532 0.057304397225379944 -0.06745202839374542 0.06931445002555847
0.11449484527111053 0.08504225313663483 -0.04448173940181732 -0.05874210596084595 -0.07264786958694458 -0.09239257872104645 0.02899259328842163 0.11066263914108276
0.07606908679008484 -0.00020259618759155273 -0.03541173040866852 -0.04943664371967316 -0.016704440116882324 0.11166377365589142 0.022878512740135193 -0.023719146847724915
-0.0775577574968338 -0.04669894278049469 0.11320413649082184 0.04814763367176056 0.060477688908576965 0.011549144983291626 -0.07875522971153259 0.02585117518901825
-0.016532957553863525 -0.012645915150642395 -0.019742697477340698 -0.025319039821624756 -0.0044214725494384766 -0.1002882868051529 -0.06458158791065216 0.02560405433177948
-0.09463097155094147 0.09527124464511871 0.08150869607925415 -0.06032523512840271 0.08423273265361786 -0.020934924483299255 0.05657514929771423 0.06885260343551636
-0.026345372200012207 -0.06759786605834961 0.09890656173229218 -0.021893978118896484 0.07416634261608124 -0.017909422516822815 -0.061652734875679016 0.062226101756095886
0.05360575020313263 -0.03101755678653717 0.04621179401874542 -0.04895119369029999 0.06524710357189178 0.12269465625286102 0.07303282618522644 -0.06925538182258606
0.1078319400548935 -0.04449498653411865 -0.0925365686416626 0.12234002351760864 -0.08407187461853027 -0.04763589799404144 0.08664226531982422 0.11364580690860748
0.11107078194618225 0.04450739920139313 0.07521885633468628 -0.04177457094192505 0.044981494545936584 -0.06566287577152252 0.11729945242404938 -0.10042011737823486
0.02082003653049469 -0.09183546900749207 -0.09231756627559662 0.05315791070461273 0.029129475355148315 -0.07176224887371063 0.07301926612854004 -0.03945833444595337
-0.11119025945663452 0.032899945974349976 -0.11960692703723907 0.11813601851463318 0.10920670628547668 -0.08493801951408386 -0.08374936878681183 0.07816240191459656
-0.0021497756242752075 -0.04781314730644226 -0.10633130371570587 -0.08268935978412628 -0.10880029201507568 0.10010182857513428 0.032841578125953674 0.040387123823165894
0.08564150333404541 0.02279423177242279 0.11033618450164795 0.09019927680492401 -0.07695624232292175 0.11730681359767914 -0.1226285845041275 -0.09046822786331177
0.1010342687368393 -0.11819744110107422 -0.0010046809911727905 -0.04332154989242554 0.06010620296001434 0.1163821816444397 0.10391199588775635 0.03807671368122101
-0.0386805385351181 -0.07982400059700012 -0.05291464924812317 -0.10707873106002808 -0.11291921138763428 -0.05407071113586426 -0.11304612457752228 -0.03163802623748779
0.05760878324508667 0.002430275082588196 0.05354887247085571 -0.04764038324356079 -0.05292831361293793 -0.11427187919616699 -0.030185893177986145 0.1182858794927597
-0.007021307945251465 -0.06768152117729187 -0.0006390362977981567 0.06163856387138367 0.1058773398399353 -0.08508656919002533 0.0013456344604492188 0.10861478745937347
0.06235843896865845 -0.0769660621881485 0.08968381583690643 -0.11624768376350403 -0.08975499868392944 0.11697100102901459 -0.019640058279037476 0.11070729792118073
-0.06147991120815277 -0.061588987708091736 -0.02848893404006958 -0.08219830691814423 0.033585160970687866 -0.11526402831077576 -0.08306559920310974 -0.08811457455158234
-0.04421883821487427 0.05829349160194397 0.029026076197624207 -0.02477152645587921 0.09672075510025024 0.0050357431173324585 0.0664733350276947 0.07741118967533112
00000000: 0000 0000 cefb 8f3f 0000 0000 b0ff 973f
00000010: 0000 0080 1540 b9bf 0000 0080 1b93 a83f
00000020: 0000 0000 7cf4 a33f 0000 0000 d027 57bf
00000030: 0000 0080 9a85 b93f 0000 0000 419a b2bf
00000040: 0000 0000 800b 7d3f 0000 0080 e5c2 a23f
00000050: 0000 0040 dedd ba3f 0000 0000 25a5 a53f
00000060: 0000 00c0 9a09 b13f 0000 0080 b012 bd3f
00000070: 0000 0000 201e 54bf 0000 0040 f951 bb3f
00000080: 0000 0000 82d8 9fbf 0000 0080 bf80 a23f
00000090: 0000 0080 af6c b6bf 0000 0080 c6b9 a13f
000000a0: 0000 0000 7097 6e3f 0000 0080 1752 a43f
000000b0: 0000 0080 4c4a bfbf 0000 0000 acac 94bf
000000c0: 0000 0000 782f 95bf 0000 0040 454c b53f
000000d0: 0000 0040 8df4 bebf 0000 0080 98d1 b3bf
000000e0: 0000 0000 794f b63f 0000 0080 0057 ad3f
000000f0: 0000 0040 8944 b1bf 0000 0080 97be b13f
00000100: 0000 00c0 884f bd3f 0000 0040 54c5 b53f
00000110: 0000 0080 4fc6 a6bf 0000 0000 7213 aebf
00000120: 0000 0000 0d99 b2bf 0000 0040 0aa7 b7bf
00000130: 0000 0000 3cb0 9d3f 0000 0000 6354 bc3f
00000140: 0000 0080 4379 b33f 0000 0000 008e 2abf
00000150: 0000 0080 7c21 a2bf 0000 0080 c24f a9bf
00000160: 0000 0000 f81a 91bf 0000 0040 ff95 bc3f
00000170: 0000 0000 776d 973f 0000 0000 d549 98bf
00000180: 0000 0040 d3da b3bf 0000 0080 ece8 a7bf
00000190: 0000 0040 f2fa bc3f 0000 0080 cea6 a83f
000001a0: 0000 0080 eef6 ae3f 0000 0000 14a7 873f
000001b0: 0000 0080 4d29 b4bf 0000 0000 bb78 9a3f
000001c0: 0000 0000 04ee 90bf 0000 0000 1ae6 89bf
000001d0: 0000 0000 6e37 94bf 0000 0000 3ced 99bf
000001e0: 0000 0000 401c 72bf 0000 0040 7eac b9bf
000001f0: 0000 0040 6b88 b0bf 0000 0000 f337 9a3f
00000200: 0000 0040 bc39 b8bf 0000 0040 b263 b83f
00000210: 0000 0000 c1dd b43f 0000 0000 f3e2 aebf
00000220: 0000 00c0 4690 b53f 0000 0000 f76f 95bf
00000230: 0000 0000 6bf7 ac3f 0000 0000 53a0 b13f
00000240: 0000 0000 48fa 9abf 0000 0000 184e b1bf
00000250: 0000 00c0 f051 b93f 0000 0000 606b 96bf
00000260: 0000 00c0 90fc b23f 0000 0000 d956 92bf
00000270: 0000 0080 f290 afbf 0000 0080 19dc af3f
00000280: 0000 0080 3672 ab3f 0000 0000 11c3 9fbf
00000290: 0000 0080 12a9 a73f 0000 0080 2110 a9bf
000002a0: 0000 00c0 08b4 b03f 0000 00c0 ea68 bf3f
000002b0: 0000 0080 47b2 b23f 0000 0080 b8ba b1bf
000002c0: 0000 00c0 df9a bb3f 0000 0000 0cc8 a6bf
000002d0: 0000 0000 7ab0 b7bf 0000 0000 ad51 bf3f
000002e0: 0000 0000 bc85 b5bf 0000 0080 bb63 a8bf
000002f0: 0000 0000 302e b63f 0000 0040 e417 bd3f
00000300: 0000 0080 226f bc3f 0000 0080 acc9 a63f
00000310: 0000 0000 8b41 b33f 0000 0000 7a63 a5bf
00000320: 0000 0080 d007 a73f 0000 0040 48cf b0bf
00000330: 0000 0040 5607 be3f 0000 0000 22b5 b9bf
00000340: 0000 0000 d951 953f 0000 0080 8782 b7bf
00000350: 0000 00c0 1fa2 b7bf 0000 0080 8337 ab3f
00000360: 0000 0000 1ed4 9d3f 0000 00c0 025f b2bf
00000370: 0000 0000 64b1 b23f 0000 0000 e233 a4bf
00000380: 0000 0000 f776 bcbf 0000 0000 43d8 a03f
00000390: 0000 0040 8f9e bebf 0000 0080 293e be3f
000003a0: 0000 0080 f8f4 bb3f 0000 0080 7fbe b5bf
000003b0: 0000 0040 9970 b5bf 0000 0080 7302 b43f
000003c0: 0000 0000 689c 61bf 0000 0000 f77a a8bf
000003d0: 0000 0040 8738 bbbf 0000 0040 212b b5bf
000003e0: 0000 0000 56da bbbf 0000 0000 46a0 b93f
000003f0: 0000 0080 9cd0 a03f 0000 0000 9fad a43f
00000400: 0000 0000 9aec b53f 0000 0000 5f57 973f
00000410: 0000 0000 fe3e bc3f 0000 00c0 4c17 b73f
00000420: 0000 0080 67b3 b3bf 0000 00c0 d107 be3f
00000430: 0000 0040 9664 bfbf 0000 0000 ed28 b7bf
00000440: 0000 00c0 61dd b93f 0000 0000 3042 bebf
00000450: 0000 0000 f075 50bf 0000 0000 3e2e a6bf
00000460: 0000 0080 3dc6 ae3f 0000 0000 39cb bd3f
00000470: 0000 0000 fa99 ba3f 0000 0080 ca7e a33f
00000480: 0000 0080 efcd a3bf 0000 0080 586f b4bf
00000490: 0000 0000 a117 abbf 0000 0000 8369 bbbf
000004a0: 0000 0000 46e8 bcbf 0000 0000 28af abbf
000004b0: 0000 0040 97f0 bcbf 0000 0000 dc32 a0bf
000004c0: 0000 0000 e67e ad3f 0000 0000 a8e8 633f
000004d0: 0000 0000 c26a ab3f 0000 0000 5264 a8bf
000004e0: 0000 0080 6b19 abbf 0000 0000 ec40 bdbf
000004f0: 0000 0000 0de9 9ebf 0000 00c0 fb47 be3f
00000500: 0000 0000 60c2 7cbf 0000 0080 9353 b1bf
00000510: 0000 0000 a0f0 44bf 0000 0000 178f af3f
00000520: 0000 0000 c71a bb3f 0000 00c0 3bc8 b5bf
00000530: 0000 0000 000c 563f 0000 00c0 2dce bb3f
00000540: 0000 0000 72ed af3f 0000 0040 0cb4 b3bf
00000550: 0000 00c0 84f5 b63f 0000 0080 68c2 bdbf
00000560: 0000 0000 2ffa b6bf 0000 00c0 cff1 bd3f
00000570: 0000 0000 861c 94bf 0000 0040 5057 bc3f
00000580: 0000 0080 4b7a afbf 0000 0080 9788 afbf
00000590: 0000 0000 342c 9dbf 0000 00c0 f20a b5bf
000005a0: 0000 0000 1332 a13f 0000 0080 f181 bdbf
000005b0: 0000 0080 c943 b5bf 0000 0040 ad8e b6bf
000005c0: 0000 0000 daa3 a6bf 0000 0000 a5d8 ad3f
000005d0: 0000 0000 03b9 9d3f 0000 0000 b55d 99bf
000005e0: 0000 0000 b1c2 b83f 0000 0000 5ca0 743f
000005f0: 0000 0080 6504 b13f 0000 0040 38d1 b33f

gru1.bias_hh_l0 f8 [192]
-0.020602881908416748 -0.10603843629360199 0.00032873451709747314 0.1208803802728653 0.09242899715900421 -0.08787325024604797 0.10406811535358429 -0.06696358323097229
-0.001367136836051941 -0.06516234576702118 -0.05688847601413727 0.007382318377494812 0.0210421085357666 0.037894755601882935 -0.10362368822097778 -0.09794199466705322
-0.04197855293750763 0.10008031129837036 0.08727982640266418 -0.031023263931274414 0.05538727343082428 0.05848081409931183 0.0025307387113571167 0.0789545476436615
0.05280420184135437 -0.10182414948940277 -0.07361780107021332 0.07077176868915558 -0.010907113552093506 -0.10114945471286774 0.07690665125846863 -0.0062459856271743774
-0.10020661354064941 -0.03790566325187683 -0.08073796331882477 -0.06497275829315186 0.12191130220890045 -0.023241207003593445 -0.12134934961795807 0.056897372007369995
-0.12184308469295502 0.05232682824134827 -0.03054797649383545 0.08380721509456635 0.03261251747608185 -0.05569237470626831 -0.051546066999435425 -0.07804492115974426
-0.058914586901664734 -0.12348861992359161 0.04285944998264313 0.04947283864021301 0.07992921769618988 0.04606850445270538 -0.011959001421928406 -0.07084152102470398
-0.03245186805725098 -0.026084065437316895 0.09373129904270172 0.0880865752696991 0.09683166444301605 0.03366027772426605 -0.09465889632701874 -0.1112031489610672
0.11506924033164978 0.03488071262836456 0.036555513739585876 0.0004538297653198242 -0.03757111728191376 0.12060458958148956 0.10963723063468933 -0.03520198166370392
0.06871148943901062 -0.1137082427740097 -0.026353999972343445 -0.08414527773857117 -0.09248825907707214 0.0045011937618255615 0.015377238392829895 -0.09357719123363495
0.12266145646572113 -0.04507553577423096 -0.11679759621620178 0.04012027382850647 -0.017790690064430237 0.08878979086875916 0.10233297944068909 0.02216719090938568
0.02082352340221405 0.008310765027999878 0.0630585104227066 0.1146184653043747 0.04782351851463318 -0.019812464714050293 0.08460128307342529 0.0842217206954956
-0.014970794320106506 -0.0752919614315033 0.0029343515634536743 0.03685419261455536 0.06502336263656616 -0.10616669058799744 -0.009019851684570312 0.08150476217269897
0.057506173849105835 -0.023795291781425476 -0.02737198770046234 0.037549182772636414 -0.05953754484653473 -0.09940047562122345 -0.01801876723766327 0.0322469025850296
-0.03510415554046631 0.006359413266181946 0.12230461835861206 0.012898489832878113 -0.08385181427001953 -0.06248819828033447 0.09828981757164001 -0.08634564280509949
0.039950594305992126 -0.11183367669582367 0.08717085421085358 -0.0753941535949707 0.06387878954410553 -0.06599734723567963 0.12153056263923645 -0.09224848449230194
-0.08863858878612518 0.0995856523513794 -0.08279162645339966 -0.07062765955924988 -0.08387185633182526 -0.01510651409626007 0.11204230785369873 0.07621632516384125
-0.08583524823188782 0.11467614769935608 -0.09427076578140259 0.10001097619533539 -0.0587894469499588 0.01016920804977417 0.07894964516162872 -0.11779485642910004
0.05725353956222534 0.11719796061515808 -0.12078768014907837 0.03925082087516785 -0.12045611441135406 -0.016407430171966553 -0.06537322700023651 0.05959196388721466
0.0031025558710098267 -0.07560975849628448 -0.008967384696006775 0.1154567301273346 0.07408912479877472 0.10076776146888733 0.10847845673561096 0.02104058861732483
-0.0771472156047821 -0.0475156307220459 -0.0756848156452179 -0.10939931869506836 -0.024128884077072144 0.02896896004676819 0.03407923877239227 -0.05682215094566345
-0.027229025959968567 -0.07340779900550842 -0.08290305733680725 0.10928086936473846 -0.12247031927108765 0.062472641468048096 0.08769091963768005 0.043320342898368835
-0.054946497082710266 0.03326152265071869 -0.058338627219200134 -0.07827429473400116 0.00646798312664032 -0.015396401286125183 -0.020179197192192078 -0.027143925428390503
-0.026639819145202637 0.002735510468482971 0.1035495400428772 0.08457693457603455 0.0675283670425415 -0.025847896933555603 -0.10187409818172455 -0.060892269015312195
00000000: 0000 0000 ec18 95bf 0000 00c0 5525 bbbf
00000010: 0000 0000 408b 353f 0000 0040 04f2 be3f
00000020: 0000 0040 6da9 b73f 0000 0080 dc7e b6bf
00000030: 0000 0040 35a4 ba3f 0000 0080 8624 b1bf
00000040: 0000 0000 3066 56bf 0000 00c0 7aae b0bf
00000050: 0000 0080 7c20 adbf 0000 0000 ec3c 7e3f
00000060: 0000 0000 108c 953f 0000 0000 f166 a33f
00000070: 0000 0000 1587 babf 0000 0000 ba12 b9bf
00000080: 0000 0080 367e a5bf 0000 0000 dd9e b93f
00000090: 0000 0080 f857 b63f 0000 0000 90c4 9fbf
000000a0: 0000 0080 b85b ac3f 0000 0080 32f1 ad3f
000000b0: 0000 0000 58bb 643f 0000 0080 5d36 b43f
000000c0: 0000 0000 2709 ab3f 0000 00c0 2511 babf
000000d0: 0000 00c0 9dd8 b2bf 0000 0040 191e b23f
000000e0: 0000 0000 7856 86bf 0000 0040 eee4 b9bf
000000f0: 0000 0080 27b0 b33f 0000 0000 6495 79bf
00000100: 0000 0000 24a7 b9bf 0000 0000 5f68 a3bf
00000110: 0000 0040 3eab b4bf 0000 0000 0ea2 b0bf
00000120: 0000 0040 9435 bf3f 0000 0000 8bcc 97bf
00000130: 0000 0040 c010 bfbf 0000 0000 a721 ad3f
00000140: 0000 00c0 1b31 bfbf 0000 0000 95ca aa3f
00000150: 0000 0000 f847 9fbf 0000 00c0 6374 b53f
00000160: 0000 0080 96b2 a03f 0000 0000 b683 acbf
00000170: 0000 0000 3f64 aabf 0000 0080 c0fa b3bf
00000180: 0000 0080 0d2a aebf 0000 0040 f39c bfbf
00000190: 0000 0080 acf1 a53f 0000 0000 8154 a93f
000001a0: 0000 00c0 3d76 b43f 0000 0080 4a96 a73f
000001b0: 0000 0000 f67d 88bf 0000 0080 ab22 b2bf
000001c0: 0000 0000 889d a0bf 0000 0000 c8b5 9abf
000001d0: 0000 0040 c6fe b73f 0000 0080 d78c b63f
000001e0: 0000 00c0 f5c9 b83f 0000 0080 eb3b a13f
000001f0: 0000 00c0 903b b8bf 0000 0040 cf77 bcbf
00000200: 0000 0080 2d75 bd3f 0000 0080 e2db a13f
00000210: 0000 0080 67b7 a23f 0000 0000 00be 3d3f
00000220: 0000 0080 853c a3bf 0000 0040 f1df be3f
00000230: 0000 0080 2f11 bc3f 0000 0080 fe05 a2bf
00000240: 0000 0080 1397 b13f 0000 00c0 fb1b bdbf
00000250: 0000 0000 8bfc 9abf 0000 0080 8b8a b5bf
00000260: 0000 0080 4fad b7bf 0000 0000 d86f 723f
00000270: 0000 0000 1a7e 8f3f 0000 00c0 acf4 b7bf
00000280: 0000 00c0 bd66 bf3f 0000 0000 2414 a7bf
00000290: 0000 0080 72e6 bdbf 0000 0000 a58a a43f
000002a0: 0000 0000 b937 92bf 0000 0080 edba b63f
000002b0: 0000 0080 7e32 ba3f 0000 0000 ffb2 963f
000002c0: 0000 0000 c352 953f 0000 0000 3c05 813f
000002d0: 0000 0040 9a24 b03f 0000 00c0 a257 bd3f
000002e0: 0000 0000 537c a83f 0000 0000 b849 94bf
000002f0: 0000 0000 6ea8 b53f 0000 0000 8e8f b53f
00000300: 0000 0000 02a9 8ebf 0000 0080 5546 b3bf
00000310: 0000 0000 c809 683f 0000 0080 8dde a23f
00000320: 0000 0000 5fa5 b03f 0000 0080 bd2d bbbf
00000330: 0000 0000 0079 82bf 0000 0000 7fdd b43f
00000340: 0000 0000 7371 ad3f 0000 0000 cb5d 98bf
00000350: 0000 0000 6707 9cbf 0000 0080 a539 a33f
00000360: 0000 0080 b47b aebf 0000 0040 4f72 b9bf
00000370: 0000 0000 8373 92bf 0000 0080 aa82 a03f
00000380: 0000 0000 2cf9 a1bf 0000 0000 540c 7a3f
00000390: 0000 0000 5b4f bf3f 0000 0000 866a 8a3f
000003a0: 0000 0000 5077 b5bf 0000 0000 74fe afbf
000003b0: 0000 0080 8529 b93f 0000 0080 bf1a b6bf
000003c0: 0000 0080 6774 a43f 0000 00c0 21a1 bcbf
000003d0: 0000 0040 d450 b63f 0000 0000 084d b3bf
000003e0: 0000 0040 5c5a b03f 0000 00c0 33e5 b0bf
000003f0: 0000 0080 a01c bf3f 0000 00c0 989d b7bf
00000400: 0000 00c0 04b1 b6bf 0000 0000 727e b93f
00000410: 0000 0000 d531 b5bf 0000 0080 a714 b2bf
00000420: 0000 0040 a078 b5bf 0000 0000 2af0 8ebf
00000430: 0000 0000 ceae bc3f 0000 00c0 e982 b33f
00000440: 0000 0080 4cf9 b5bf 0000 0080 6a5b bd3f
00000450: 0000 0000 2122 b8bf 0000 00c0 519a b93f
00000460: 0000 0080 a619 aebf 0000 0000 98d3 843f
00000470: 0000 0040 0b36 b43f 0000 00c0 cd27 bebf
00000480: 0000 0000 5650 ad3f 0000 0080 af00 be3f
00000490: 0000 0000 f1eb bebf 0000 0000 af18 a43f
000004a0: 0000 0040 36d6 bebf 0000 0000 1ccd 90bf
000004b0: 0000 00c0 4cbc b0bf 0000 0080 d682 ae3f
000004c0: 0000 0000 886a 693f 0000 0040 295b b3bf
000004d0: 0000 0000 7e5d 82bf 0000 0080 928e bd3f
000004e0: 0000 0040 81f7 b23f 0000 0080 eacb b93f
000004f0: 0000 0080 3ec5 bb3f 0000 0000 aa8b 953f
00000500: 0000 0080 ebbf b3bf 0000 0000 f853 a8bf
00000510: 0000 0080 1460 b3bf 0000 0000 9801 bcbf
00000520: 0000 0000 3eb5 98bf 0000 0000 0aaa 9d3f
00000530: 0000 0080 d572 a13f 0000 0000 cb17 adbf
00000540: 0000 0000 ede1 9bbf 0000 0080 daca b2bf
00000550: 0000 0080 2239 b5bf 0000 00c0 d4f9 bb3f
00000560: 0000 0000 375a bfbf 0000 0000 6afc af3f
00000570: 0000 0080 e972 b63f 0000 0080 152e a63f
00000580: 0000 0080 f221 acbf 0000 0080 a707 a13f
00000590: 0000 0080 8fde adbf 0000 00c0 c809 b4bf
000005a0: 0000 0000 2c7e 7a3f 0000 0000 2688 8fbf
000005b0: 0000 0000 dba9 94bf 0000 0000 9ecb 9bbf
000005c0: 0000 0000 7847 9bbf 0000 0000 c868 663f
000005d0: 0000 0000 3982 ba3f 0000 0080 d5a6 b53f
000005e0: 0000 0000 8a49 b13f 0000 0000 df77 9abf
000005f0: 0000 00c0 6b14 babf 0000 0080 452d afbf
