model_path/data12/P12.pth (torch, 108013 bytes, 14 tensors)

fc1.weight f8 [64, 128]
00000000: 0000 0080 4c2f b2bf 0000 0020 5ee0 52bf
00000010: 0000 00e0 4d7c 8ebf 0000 00e0 419d b4bf
00000020: 0000 0020 4914 97bf 0000 00a0 d888 813f
00000030: 0000 0060 c326 b4bf 0000 0040 6702 a13f
00000040: 0000 00e0 9bc3 b1bf 0000 0040 5e96 8fbf
00000050: 0000 0060 d243 b13f 0000 0080 0fd8 ad3f
00000060: 0000 0040 b6e0 98bf 0000 0020 8911 abbf
00000070: 0000 0080 5941 963f 0000 0080 8475 a83f
00000080: 0000 0040 3869 a13f 0000 00e0 acc7 b1bf
00000090: 0000 0060 3320 b3bf 0000 0000 3584 a0bf
000000a0: 0000 0060 21c3 b53f 0000 0040 35b6 b33f
000000b0: 0000 0060 595f 853f 0000 0000 fb39 b4bf
000000c0: 0000 00e0 1d43 b03f 0000 00c0 9b81 a13f
000000d0: 0000 0060 5581 81bf 0000 0000 7120 b4bf
000000e0: 0000 0060 de53 92bf 0000 00c0 6d37 b2bf
000000f0: 0000 00e0 b91c 73bf 0000 0040 451f 963f
00000100: 0000 0020 9dde b33f 0000 00a0 2472 ac3f
00000110: 0000 0060 a2d4 83bf 0000 0020 d056 80bf
00000120: 0000 0020 f4f7 7d3f 0000 0060 1e8c ae3f
00000130: 0000 0080 d346 823f 0000 0020 c34c 9d3f
00000140: 0000 00c0 13b9 b23f 0000 0040 25b2 afbf
00000150: 0000 0040 93e7 b33f 0000 0060 a95c 963f
00000160: 0000 0060 783d b2bf 0000 0000 d0da b03f
00000170: 0000 0060 4dbe acbf 0000 0060 1cf5 9abf
00000180: 0000 0040 5b6d b2bf 0000 0040 95af 82bf
00000190: 0000 0080 20e6 b1bf 0000 0060 a5b9 b23f
000001a0: 0000 00c0 e00b a7bf 0000 00e0 ef16 ab3f
000001b0: 0000 0020 9415 b53f 0000 00e0 fbac 8dbf
000001c0: 0000 0060 85e6 40bf 0000 0020 fde1 b4bf
000001d0: 0000 00e0 22fb 7f3f 0000 0080 2376 9dbf
000001e0: 0000 00c0 c777 aa3f 0000 0040 ed84 b13f
000001f0: 0000 00c0 5636 8dbf 0000 00c0 30f8 b53f
00000200: 0000 00c0 33f5 b03f 0000 00e0 454a b6bf
00000210: 0000 00c0 3bb4 ae3f 0000 0020 a630 a83f
00000220: 0000 0000 9f8b a6bf 0000 00c0 9647 a8bf
00000230: 0000 00c0 5207 ac3f 0000 0020 43ed 853f
00000240: 0000 0020 178c 863f 0000 00a0 e749 b03f
00000250: 0000 0000 dd22 223f 0000 0000 1907 b63f
00000260: 0000 0040 4083 74bf 0000 0060 bf83 b43f
00000270: 0000 00c0 c457 abbf 0000 00c0 373d acbf
00000280: 0000 00e0 3859 9d3f 0000 0080 4cbf aabf
00000290: 0000 0020 590d a93f 0000 0000 05af a8bf
000002a0: 0000 0040 eb3d 7f3f 0000 00a0 c1e2 6abf
000002b0: 0000 0000 d1a9 963f 0000 0060 83be 95bf
000002c0: 0000 00e0 38ad ab3f 0000 0040 76df b03f
000002d0: 0000 00c0 dabd b13f 0000 0060 34b9 973f
000002e0: 0000 00a0 d715 823f 0000 00c0 5e22 b33f
000002f0: 0000 0080 aa2b a33f 0000 0020 f23f 923f
00000300: 0000 00e0 883a adbf 0000 00c0 de67 6f3f
00000310: 0000 00c0 26e1 aebf 0000 0080 3711 a0bf
00000320: 0000 0000 0b84 90bf 0000 0020 abea 9fbf
00000330: 0000 0040 a052 92bf 0000 00a0 e505 b63f
00000340: 0000 00c0 ae5a 4a3f 0000 0020 39b5 83bf
00000350: 0000 0060 a80b 993f 0000 0080 9fa7 a4bf
00000360: 0000 00e0 946a aa3f 0000 0000 b6f9 8fbf
00000370: 0000 00e0 2deb a43f 0000 00e0 091e 9f3f
00000380: 0000 0000 5e30 9cbf 0000 0040 36d8 a53f
00000390: 0000 00c0 43d1 a8bf 0000 0000 16e9 b0bf
000003a0: 0000 0040 6979 aebf 0000 00c0 68b5 a63f
000003b0: 0000 0000 c8bf a63f 0000 0000 e366 9fbf
000003c0: 0000 00e0 f7f7 95bf 0000 0040 703e a5bf
000003d0: 0000 0020 251d b3bf 0000 0060 8a34 81bf
000003e0: 0000 0000 4e1e afbf 0000 0000 a581 983f
000003f0: 0000 00c0 aba0 8f3f 0000 00a0 fb08 b03f
00000400: 0000 0000 2006 70bf 0000 00a0 fb7b a63f
00000410: 0000 0080 b761 b23f 0000 00c0 3f34 86bf
00000420: 0000 00c0 cea6 b53f 0000 0060 b801 92bf
00000430: 0000 00e0 d3de 773f 0000 0080 5dd6 903f
00000440: 0000 00e0 563b b63f 0000 0060 91c5 b13f
00000450: 0000 00c0 9607 b4bf 0000 0080 c8f6 aabf
00000460: 0000 0020 6bab abbf 0000 0060 c346 9ebf
00000470: 0000 00c0 5681 813f 0000 00e0 1f2d 93bf
00000480: 0000 00c0 8042 a13f 0000 00e0 2e0d b2bf
00000490: 0000 0080 4c16 b53f 0000 00c0 f3f9 873f
000004a0: 0000 0020 46d3 a83f 0000 0000 3a8a b33f
000004b0: 0000 00a0 c4ea a0bf 0000 00a0 797f b6bf
000004c0: 0000 00a0 99f0 b43f 0000 00c0 93bb a2bf
000004d0: 0000 0020 67d9 973f 0000 0080 f6c7 683f
000004e0: 0000 0080 38a1 9fbf 0000 00c0 d72a b63f
000004f0: 0000 00a0 3e2d b4bf 0000 00a0 7c45 a9bf
00000500: 0000 00e0 4919 993f 0000 0080 eaf3 a4bf
00000510: 0000 0040 518d a33f 0000 0040 2be9 87bf
00000520: 0000 00a0 cc9a b03f 0000 0060 4eca b0bf
00000530: 0000 0040 b764 b43f 0000 00a0 6e79 a0bf
00000540: 0000 0080 3399 b1bf 0000 0040 c2ad b3bf
00000550: 0000 00c0 5c51 b4bf 0000 0060 3b51 b03f
00000560: 0000 0060 cc53 abbf 0000 0080 0a29 aebf
00000570: 0000 00e0 b32d abbf 0000 00c0 af30 88bf
00000580: 0000 0040 4712 aebf 0000 00a0 89c7 983f
00000590: 0000 00c0 8dfe b5bf 0000 0040 19b3 90bf
000005a0: 0000 0020 a518 a3bf 0000 0020 574e b63f
000005b0: 0000 0000 9e26 a93f 0000 00c0 67ec 633f
000005c0: 0000 0040 10fc 8c3f 0000 0060 51f4 79bf
000005d0: 0000 00a0 4005 9abf 0000 00a0 2ce1 933f
000005e0: 0000 00c0 c0ea aa3f 0000 0060 94e9 a83f
000005f0: 0000 0020 3b5d b43f 0000 0020 fec6 943f
00000600: 0000 0060 0318 823f 0000 00c0 5b3c 95bf
00000610: 0000 0020 ad0e b0bf 0000 00e0 1b18 b2bf
00000620: 0000 0020 d1ff a1bf 0000 00c0 6c22 a0bf
00000630: 0000 0040 b1ce b33f 0000 0080 3397 b13f
00000640: 0000 0040 c054 a5bf 0000 00a0 28b7 b43f
00000650: 0000 0080 ce2f b63f 0000 0040 91c8 953f
00000660: 0000 0040 e5be b33f 0000 0080 5fe7 943f
00000670: 0000 0020 da9e 9abf 0000 0000 e516 9c3f
00000680: 0000 00c0 3531 9ebf 0000 00e0 d5f9 b5bf
00000690: 0000 00e0 5d1e ae3f 0000 00c0 5808 32bf
000006a0: 0000 0000 205a 9bbf 0000 0040 cbc7 5fbf
000006b0: 0000 00a0 e606 b53f 0000 0020 0e03 b3bf
000006c0: 0000 0040 7061 893f 0000 00a0 75ce b03f
000006d0: 0000 0040 2791 a63f 0000 00a0 9309 a13f
000006e0: 0000 0080 1d1c b23f 0000 0040 52f5 73bf
000006f0: 0000 00a0 d1c3 a03f 0000 0000 f2d3 99bf
00000700: 0000 0060 38e6 9bbf 0000 00a0 db8d b43f
00000710: 0000 0040 055d a93f 0000 0060 6136 b5bf
00000720: 0000 0000 a2e5 943f 0000 0080 9f49 aebf
00000730: 0000 0000 7b01 b03f 0000 0080 063c a0bf
00000740: 0000 00e0 645a 963f 0000 00e0 15d1 b03f
00000750: 0000 0040 4756 afbf 0000 0020 a194 a1bf
00000760: 0000 00c0 bf78 ad3f 0000 00c0 4455 9abf
00000770: 0000 0040 f4ee 9bbf 0000 00e0 7682 b53f
00000780: 0000 00e0 31fa 873f 0000 0080 e349 9a3f
00000790: 0000 0000 eb84 98bf 0000 0060 8a55 b63f
000007a0: 0000 00c0 db88 85bf 0000 00c0 9de4 a33f
000007b0: 0000 0060 7ef0 9fbf 0000 0040 d6ff b13f
000007c0: 0000 0080 f623 b1bf 0000 0000 0aaa b13f
000007d0: 0000 0060 577a a83f 0000 0020 5146 a83f
000007e0: 0000 0060 acdd b23f 0000 0000 f78e 8c3f
000007f0: 0000 0080 bc0e b13f 0000 0000 3d2f a63f
-0.07103422284126282 -0.0011521262349560857 -0.014885528944432735 -0.08052455633878708 -0.0225383210927248 0.008561794646084309 -0.07871647924184799 0.03322146087884903
-0.06939100474119186 -0.015423523262143135 0.06744112819433212 0.05828903615474701 -0.02429470792412758 -0.05286816135048866 0.021733663976192474 0.04777158796787262
0.03400588780641556 -0.06945305317640305 -0.07471009343862534 -0.03225865960121155 0.08500870317220688 0.07699902355670929 0.010435770265758038 -0.07900971174240112
0.06352411955595016 0.034191958606243134 -0.008547465316951275 -0.07862001657485962 -0.017898058518767357 -0.0711582750082016 -0.004666067194193602 0.02160366252064705
0.07761556655168533 0.05555834248661995 -0.009682911448180676 -0.00797808263450861 0.007316545117646456 0.059662770479917526 0.008924152702093124 0.02861313708126545
0.07313655316829681 -0.06190601736307144 0.07775230705738068 0.021837851032614708 -0.07125046104192734 0.06583881378173828 -0.05613939091563225 -0.026325648650527
-0.07198114693164825 -0.009123960509896278 -0.0699177086353302 0.07314523309469223 -0.045012496411800385 0.05290937051177025 0.08236051350831985 -0.0144900968298316
-0.0005157614941708744 -0.08157331496477127 0.007807861547917128 -0.02877097576856613 0.05169510096311569 0.06843455135822296 -0.014263799414038658 0.0858183354139328
0.06624148786067963 -0.08707081526517868 0.059968821704387665 0.047246161848306656 -0.044033974409103394 -0.047421179711818695 0.05474337190389633 0.010706447996199131
0.011009388603270054 0.0636276975274086 0.0001383681083098054 0.08604580163955688 -0.005007983185350895 0.08013530820608139 -0.05340399593114853 -0.055154554545879364
0.028660668060183525 -0.05224074423313141 0.04892996326088905 -0.04821029305458069 0.007627409882843494 -0.003281953977420926 0.02213217318058014 -0.021234562620520592
0.05405595526099205 0.06590975821018219 0.06930319964885712 0.023167436942458153 0.008830723352730274 0.07474319636821747 0.03744252026081085 0.017822058871388435
-0.057087209075689316 0.003833708819001913 -0.06031151860952377 -0.03138135373592377 -0.016128703951835632 -0.031168626621365547 -0.017893318086862564 0.08602748066186905
0.0008042672416195273 -0.009622999466955662 0.02445853315293789 -0.04034136235713959 0.05159440264105797 -0.015613004565238953 0.040856774896383286 0.03038802556693554
-0.02752825617790222 0.04266519099473953 -0.048471562564373016 -0.06605660915374756 -0.059520043432712555 0.04435279220342636 0.04443192481994629 -0.030665919184684753
-0.0214537363499403 -0.04149199277162552 -0.07466346770524979 -0.00840099435299635 -0.06077808141708374 0.02393205463886261 0.015443174168467522 0.06263706833124161
-0.003912091255187988 0.043914664536714554 0.07180353999137878 -0.010841844603419304 0.08457653224468231 -0.01758468709886074 0.005827739369124174 0.016442738473415375
0.08684294670820236 0.06942089647054672 -0.07824079692363739 -0.05266405642032623 -0.05404219403862953 -0.029566815122961998 0.008547475561499596 -0.01872682385146618
0.033710502088069916 -0.07051365822553635 0.08237150311470032 0.011707214638590813 0.04848689213395119 0.07632791996002197 -0.03304113820195198 -0.0878826156258583
0.08179626613855362 -0.03658735007047653 0.02329026348888874 0.0030250372365117073 -0.030888445675373077 0.08659122884273529 -0.07881537824869156 -0.049358267337083817
0.02451053075492382 -0.040923431515693665 0.03818754106760025 -0.01167520321905613 0.06486205011606216 -0.06558694690465927 0.07966180145740509 -0.03217645362019539
-0.06874391436576843 -0.07687009871006012 -0.07936649024486542 0.06373950093984604 -0.053373705595731735 -0.05890686810016632 -0.05308305844664574 -0.01181161217391491
-0.05873320251703262 0.02419867552816868 -0.08591543138027191 -0.01630820706486702 -0.03729740157723427 0.08713287860155106 0.049122750759124756 0.00243206275627017
0.01415264792740345 -0.006336515303701162 -0.025410661473870277 0.0194136593490839 0.05257227271795273 0.048657070845365524 0.07954759150743484 0.020290346816182137
0.008834864012897015 -0.020738061517477036 -0.06272394210100174 -0.07068037241697311 -0.03515485301613808 -0.03151264041662216 0.07737262547016144 0.06871339678764343
-0.041662223637104034 0.0809197798371315 0.08666697144508362 0.021272916346788406 0.07713158428668976 0.020413868129253387 -0.025996597483754158 0.02743108570575714
-0.029484596103429794 -0.08584343641996384 0.058825429528951645 -0.0002751557040028274 -0.026710987091064453 -0.0019397244323045015 0.08213654905557632 -0.07426536828279495
0.012392880395054817 0.0656503215432167 0.04407618194818497 0.033276189118623734 0.07074150443077087 -0.00487262848764658 0.03274397924542427 -0.025222569704055786
-0.027245407924056053 0.0802895799279213 0.049537815153598785 -0.08286102861166 0.02040722966194153 -0.05915544927120209 0.06252259016036987 -0.03170795738697052
0.02182920090854168 0.06569039076566696 -0.06120512634515762 -0.03433707728981972 0.05756186693906784 -0.025715898722410202 -0.027278725057840347 0.08402197808027267
0.011707677505910397 0.025672487914562225 -0.023944541811943054 0.0872427448630333 -0.010514942929148674 0.03885357826948166 -0.031190847977995872 0.07031001150608063
-0.06695500016212463 0.06900084018707275 0.047808390110731125 0.0474114753305912 0.07369496673345566 0.013944558799266815 0.06663110852241516 0.0433291494846344

fc1.bias f8 [64]
00000000: 0000 00a0 cd15 9bbf 0000 0020 1720 933f
00000010: 0000 0060 6cb6 b5bf 0000 0060 9a98 a73f
00000020: 0000 0040 6a32 963f 0000 00a0 0df4 ab3f
00000030: 0000 0040 a836 9fbf 0000 00a0 b8fe 933f
00000040: 0000 0020 ec33 b63f 0000 0020 2e88 8abf
00000050: 0000 0040 2b1e 98bf 0000 0080 ff49 26bf
00000060: 0000 0000 135b 98bf 0000 0000 a0e9 a73f
00000070: 0000 0040 d306 94bf 0000 00e0 d844 b13f
00000080: 0000 0020 28a0 943f 0000 00e0 3957 ac3f
00000090: 0000 00c0 339b b1bf 0000 0020 24ee 88bf
000000a0: 0000 0040 4f2e b1bf 0000 0040 0955 58bf
000000b0: 0000 00a0 83db 7b3f 0000 00c0 cb78 7d3f
000000c0: 0000 0060 0458 90bf 0000 0000 771e a43f
000000d0: 0000 00a0 b69c b4bf 0000 0060 6189 a03f
000000e0: 0000 0040 1e3c af3f 0000 0080 eef3 91bf
000000f0: 0000 0060 4a0c 81bf 0000 00e0 2219 b03f
00000100: 0000 00c0 bf3d a43f 0000 0020 f294 a53f
00000110: 0000 00e0 0d3b b6bf 0000 0000 3719 a73f
00000120: 0000 00c0 41fb 6b3f 0000 00e0 2c8d a93f
00000130: 0000 00c0 4861 a03f 0000 00e0 81a2 84bf
00000140: 0000 0020 e8f7 a33f 0000 0020 70aa b33f
00000150: 0000 00e0 795a 9d3f 0000 0080 0a1b 743f
00000160: 0000 0040 ced5 943f 0000 0000 ac37 b63f
00000170: 0000 0060 8180 a4bf 0000 0080 6906 b13f
00000180: 0000 0080 bf8a abbf 0000 00a0 d329 b6bf
00000190: 0000 00c0 b57b b43f 0000 0020 ec4b 8cbf
000001a0: 0000 0020 2321 b43f 0000 0040 6f13 b33f
000001b0: 0000 00e0 3856 92bf 0000 0020 b797 b53f
000001c0: 0000 00a0 fb14 a13f 0000 0020 02e2 a73f
000001d0: 0000 0080 8eb6 b33f 0000 0060 6faf 983f
000001e0: 0000 0000 57b1 94bf 0000 0080 5f87 b23f
000001f0: 0000 00a0 d0c1 793f 0000 0020 f499 b33f
-0.02645036019384861 0.018677102401852608 -0.08481480926275253 0.0460861437022686 0.021676693111658096 0.05459635332226753 -0.030481938272714615 0.019526371732354164
0.08672977238893509 -0.012955055572092533 -0.023552585393190384 -0.00017005199333652854 -0.023784920573234558 0.04670429229736328 -0.01955728605389595 0.06745677441358566
0.020142199471592903 0.05535298213362694 -0.06877444684505463 -0.012172968126833439 -0.06711287796497345 -0.001485117943957448 0.006801141891628504 0.007195278070867062
-0.015960758551955223 0.039294928312301636 -0.0805162563920021 0.03229812905192375 0.06100554019212723 -0.017532087862491608 -0.008324223570525646 0.06288354843854904
0.03953360766172409 0.04215199127793312 -0.08683859556913376 0.04511424899101257 0.0034157070331275463 0.0499052070081234 0.031992219388484955 -0.01007558312267065
0.039000753313302994 0.07681942731142044 0.02866545133292675 0.004908600822091103 0.020346853882074356 0.08678698539733887 -0.04004291817545891 0.0665040910243988
-0.053792938590049744 -0.08657572418451309 0.08001266419887543 -0.013816685415804386 0.07863063365221024 0.07451529800891876 -0.01790703646838665 0.084346242249012
0.033363211899995804 0.046646181493997574 0.0770043432712555 0.02410673163831234 -0.02020774781703949 0.07237812876701355 0.006288351956754923 0.07656789571046829

bn1_fc.weight f8 [64]
00000000: 0000 0000 0000 f03f 0000 0000 0000 f03f
00000010: 0000 0000 0000 f03f 0000 0000 0000 f03f
00000020: 0000 0000 0000 f03f 0000 0000 0000 f03f
00000030: 0000 0000 0000 f03f 0000 0000 0000 f03f
00000040: 0000 0000 0000 f03f 0000 0000 0000 f03f
00000050: 0000 0000 0000 f03f 0000 0000 0000 f03f
00000060: 0000 0000 0000 f03f 0000 0000 0000 f03f
00000070: 0000 0000 0000 f03f 0000 0000 0000 f03f
00000080: 0000 0000 0000 f03f 0000 0000 0000 f03f
00000090: 0000 0000 0000 f03f 0000 0000 0000 f03f
000000a0: 0000 0000 0000 f03f 0000 0000 0000 f03f
000000b0: 0000 0000 0000 f03f 0000 0000 0000 f03f
000000c0: 0000 0000 0000 f03f 0000 0000 0000 f03f
000000d0: 0000 0000 0000 f03f 0000 0000 0000 f03f
000000e0: 0000 0000 0000 f03f 0000 0000 0000 f03f
000000f0: 0000 0000 0000 f03f 0000 0000 0000 f03f
00000100: 0000 0000 0000 f03f 0000 0000 0000 f03f
00000110: 0000 0000 0000 f03f 0000 0000 0000 f03f
00000120: 0000 0000 0000 f03f 0000 0000 0000 f03f
00000130: 0000 0000 0000 f03f 0000 0000 0000 f03f
00000140: 0000 0000 0000 f03f 0000 0000 0000 f03f
00000150: 0000 0000 0000 f03f 0000 0000 0000 f03f
00000160: 0000 0000 0000 f03f 0000 0000 0000 f03f
00000170: 0000 0000 0000 f03f 0000 0000 0000 f03f
00000180: 0000 0000 0000 f03f 0000 0000 0000 f03f
00000190: 0000 0000 0000 f03f 0000 0000 0000 f03f
000001a0: 0000 0000 0000 f03f 0000 0000 0000 f03f
000001b0: 0000 0000 0000 f03f 0000 0000 0000 f03f
000001c0: 0000 0000 0000 f03f 0000 0000 0000 f03f
000001d0: 0000 0000 0000 f03f 0000 0000 0000 f03f
000001e0: 0000 0000 0000 f03f 0000 0000 0000 f03f
000001f0: 0000 0000 0000 f03f 0000 0000 0000 f03f
1.0 1.0 1.0 1.0 1.0 1.0 1.0 1.0
1.0 1.0 1.0 1.0 1.0 1.0 1.0 1.0
1.0 1.0 1.0 1.0 1.0 1.0 1.0 1.0
1.0 1.0 1.0 1.0 1.0 1.0 1.0 1.0
1.0 1.0 1.0 1.0 1.0 1.0 1.0 1.0
1.0 1.0 1.0 1.0 1.0 1.0 1.0 1.0
1.0 1.0 1.0 1.0 1.0 1.0 1.0 1.0
1.0 1.0 1.0 1.0 1.0 1.0 1.0 1.0

bn1_fc.bias f8 [64]
00000000: 0000 0000 0000 0000 0000 0000 0000 0000
00000010: 0000 0000 0000 0000 0000 0000 0000 0000
00000020: 0000 0000 0000 0000 0000 0000 0000 0000
00000030: 0000 0000 0000 0000 0000 0000 0000 0000
00000040: 0000 0000 0000 0000 0000 0000 0000 0000
00000050: 0000 0000 0000 0000 0000 0000 0000 0000
00000060: 0000 0000 0000 0000 0000 0000 0000 0000
00000070: 0000 0000 0000 0000 0000 0000 0000 0000
00000080: 0000 0000 0000 0000 0000 0000 0000 0000
00000090: 0000 0000 0000 0000 0000 0000 0000 0000
000000a0: 0000 0000 0000 0000 0000 0000 0000 0000
000000b0: 0000 0000 0000 0000 0000 0000 0000 0000
000000c0: 0000 0000 0000 0000 0000 0000 0000 0000
000000d0: 0000 0000 0000 0000 0000 0000 0000 0000
000000e0: 0000 0000 0000 0000 0000 0000 0000 0000
000000f0: 0000 0000 0000 0000 0000 0000 0000 0000
00000100: 0000 0000 0000 0000 0000 0000 0000 0000
00000110: 0000 0000 0000 0000 0000 0000 0000 0000
00000120: 0000 0000 0000 0000 0000 0000 0000 0000
00000130: 0000 0000 0000 0000 0000 0000 0000 0000
00000140: 0000 0000 0000 0000 0000 0000 0000 0000
00000150: 0000 0000 0000 0000 0000 0000 0000 0000
00000160: 0000 0000 0000 0000 0000 0000 0000 0000
00000170: 0000 0000 0000 0000 0000 0000 0000 0000
00000180: 0000 0000 0000 0000 0000 0000 0000 0000
00000190: 0000 0000 0000 0000 0000 0000 0000 0000
000001a0: 0000 0000 0000 0000 0000 0000 0000 0000
000001b0: 0000 0000 0000 0000 0000 0000 0000 0000
000001c0: 0000 0000 0000 0000 0000 0000 0000 0000
000001d0: 0000 0000 0000 0000 0000 0000 0000 0000
000001e0: 0000 0000 0000 0000 0000 0000 0000 0000
000001f0: 0000 0000 0000 0000 0000 0000 0000 0000
0.0 0.0 0.0 0.0 0.0 0.0 0.0 0.0
0.0 0.0 0.0 0.0 0.0 0.0 0.0 0.0
0.0 0.0 0.0 0.0 0.0 0.0 0.0 0.0
0.0 0.0 0.0 0.0 0.0 0.0 0.0 0.0
0.0 0.0 0.0 0.0 0.0 0.0 0.0 0.0
0.0 0.0 0.0 0.0 0.0 0.0 0.0 0.0
0.0 0.0 0.0 0.0 0.0 0.0 0.0 0.0
0.0 0.0 0.0 0.0 0.0 0.0 0.0 0.0

bn1_fc.running_mean f8 [64]
00000000: 0000 0000 0000 0000 0000 0000 0000 0000
00000010: 0000 0000 0000 0000 0000 0000 0000 0000
00000020: 0000 0000 0000 0000 0000 0000 0000 0000
00000030: 0000 0000 0000 0000 0000 0000 0000 0000
00000040: 0000 0000 0000 0000 0000 0000 0000 0000
00000050: 0000 0000 0000 0000 0000 0000 0000 0000
00000060: 0000 0000 0000 0000 0000 0000 0000 0000
00000070: 0000 0000 0000 0000 0000 0000 0000 0000
00000080: 0000 0000 0000 0000 0000 0000 0000 0000
00000090: 0000 0000 0000 0000 0000 0000 0000 0000
000000a0: 0000 0000 0000 0000 0000 0000 0000 0000
000000b0: 0000 0000 0000 0000 0000 0000 0000 0000
000000c0: 0000 0000 0000 0000 0000 0000 0000 0000
000000d0: 0000 0000 0000 0000 0000 0000 0000 0000
000000e0: 0000 0000 0000 0000 0000 0000 0000 0000
000000f0: 0000 0000 0000 0000 0000 0000 0000 0000
00000100: 0000 0000 0000 0000 0000 0000 0000 0000
00000110: 0000 0000 0000 0000 0000 0000 0000 0000
00000120: 0000 0000 0000 0000 0000 0000 0000 0000
00000130: 0000 0000 0000 0000 0000 0000 0000 0000
00000140: 0000 0000 0000 0000 0000 0000 0000 0000
00000150: 0000 0000 0000 0000 0000 0000 0000 0000
00000160: 0000 0000 0000 0000 0000 0000 0000 0000
00000170: 0000 0000 0000 0000 0000 0000 0000 0000
00000180: 0000 0000 0000 0000 0000 0000 0000 0000
00000190: 0000 0000 0000 0000 0000 0000 0000 0000
000001a0: 0000 0000 0000 0000 0000 0000 0000 0000
000001b0: 0000 0000 0000 0000 0000 0000 0000 0000
000001c0: 0000 0000 0000 0000 0000 0000 0000 0000
000001d0: 0000 0000 0000 0000 0000 0000 0000 0000
000001e0: 0000 0000 0000 0000 0000 0000 0000 0000
000001f0: 0000 0000 0000 0000 0000 0000 0000 0000
0.0 0.0 0.0 0.0 0.0 0.0 0.0 0.0
0.0 0.0 0.0 0.0 0.0 0.0 0.0 0.0
0.0 0.0 0.0 0.0 0.0 0.0 0.0 0.0
0.0 0.0 0.0 0.0 0.0 0.0 0.0 0.0
0.0 0.0 0.0 0.0 0.0 0.0 0.0 0.0
0.0 0.0 0.0 0.0 0.0 0.0 0.0 0.0
0.0 0.0 0.0 0.0 0.0 0.0 0.0 0.0
0.0 0.0 0.0 0.0 0.0 0.0 0.0 0.0

bn1_fc.running_var f8 [64]
00000000: 0000 0000 0000 f03f 0000 0000 0000 f03f
00000010: 0000 0000 0000 f03f 0000 0000 0000 f03f
00000020: 0000 0000 0000 f03f 0000 0000 0000 f03f
00000030: 0000 0000 0000 f03f 0000 0000 0000 f03f
00000040: 0000 0000 0000 f03f 0000 0000 0000 f03f
00000050: 0000 0000 0000 f03f 0000 0000 0000 f03f
00000060: 0000 0000 0000 f03f 0000 0000 0000 f03f
00000070: 0000 0000 0000 f03f 0000 0000 0000 f03f
00000080: 0000 0000 0000 f03f 0000 0000 0000 f03f
00000090: 0000 0000 0000 f03f 0000 0000 0000 f03f
000000a0: 0000 0000 0000 f03f 0000 0000 0000 f03f
000000b0: 0000 0000 0000 f03f 0000 0000 0000 f03f
000000c0: 0000 0000 0000 f03f 0000 0000 0000 f03f
000000d0: 0000 0000 0000 f03f 0000 0000 0000 f03f
000000e0: 0000 0000 0000 f03f 0000 0000 0000 f03f
000000f0: 0000 0000 0000 f03f 0000 0000 0000 f03f
00000100: 0000 0000 0000 f03f 0000 0000 0000 f03f
00000110: 0000 0000 0000 f03f 0000 0000 0000 f03f
00000120: 0000 0000 0000 f03f 0000 0000 0000 f03f
00000130: 0000 0000 0000 f03f 0000 0000 0000 f03f
00000140: 0000 0000 0000 f03f 0000 0000 0000 f03f
00000150: 0000 0000 0000 f03f 0000 0000 0000 f03f
00000160: 0000 0000 0000 f03f 0000 0000 0000 f03f
00000170: 0000 0000 0000 f03f 0000 0000 0000 f03f
00000180: 0000 0000 0000 f03f 0000 0000 0000 f03f
00000190: 0000 0000 0000 f03f 0000 0000 0000 f03f
000001a0: 0000 0000 0000 f03f 0000 0000 0000 f03f
000001b0: 0000 0000 0000 f03f 0000 0000 0000 f03f
000001c0: 0000 0000 0000 f03f 0000 0000 0000 f03f
000001d0: 0000 0000 0000 f03f 0000 0000 0000 f03f
000001e0: 0000 0000 0000 f03f 0000 0000 0000 f03f
000001f0: 0000 0000 0000 f03f 0000 0000 0000 f03f
1.0 1.0 1.0 1.0 1.0 1.0 1.0 1.0
1.0 1.0 1.0 1.0 1.0 1.0 1.0 1.0
1.0 1.0 1.0 1.0 1.0 1.0 1.0 1.0
1.0 1.0 1.0 1.0 1.0 1.0 1.0 1.0
1.0 1.0 1.0 1.0 1.0 1.0 1.0 1.0
1.0 1.0 1.0 1.0 1.0 1.0 1.0 1.0
1.0 1.0 1.0 1.0 1.0 1.0 1.0 1.0
1.0 1.0 1.0 1.0 1.0 1.0 1.0 1.0

fc2.weight f8 [64, 64]
00000000: 0000 0000 4479 88bf 0000 0080 39e2 adbf
00000010: 0000 0040 3007 babf 0000 0000 405f 47bf
00000020: 0000 0080 60bd b5bf 0000 0080 ba08 adbf
00000030: 0000 0000 c05e 603f 0000 00c0 fa07 b0bf
00000040: 0000 00c0 1e61 b73f 0000 0080 027f acbf
00000050: 0000 0000 749a a73f 0000 00c0 1f0c b9bf
00000060: 0000 00c0 5dcf b8bf 0000 0000 52b4 833f
00000070: 0000 0040 0c6a babf 0000 0040 4e66 b4bf
00000080: 0000 0000 3e34 b2bf 0000 0080 7b46 b83f
00000090: 0000 0000 1119 b63f 0000 0000 17e0 af3f
000000a0: 0000 00c0 de75 b1bf 0000 0040 39a4 b43f
000000b0: 0000 0000 0fc4 b83f 0000 0000 d716 b33f
000000c0: 0000 00c0 0914 b4bf 0000 0000 405a 4b3f
000000d0: 0000 0000 99ec b53f 0000 0000 e249 85bf
000000e0: 0000 0000 c89a 9bbf 0000 0080 a462 ae3f
000000f0: 0000 0000 8e31 bdbf 0000 0040 bff1 bf3f
00000100: 0000 00c0 ae8b b4bf 0000 0080 ce48 bebf
00000110: 0000 0040 c593 b03f 0000 0080 e6dc a73f
00000120: 0000 0000 1b0b b1bf 0000 0080 49ca b2bf
00000130: 0000 0000 610f b3bf 0000 0000 8aba a23f
00000140: 0000 00c0 8c4e bbbf 0000 0080 07ab bfbf
00000150: 0000 0040 0416 bcbf 0000 0000 69cf adbf
00000160: 0000 00c0 42e2 babf 0000 00c0 3631 bc3f
00000170: 0000 0000 3181 9bbf 0000 0000 7be0 9ebf
00000180: 0000 0000 2723 adbf 0000 00c0 c3a7 b2bf
00000190: 0000 0000 8f2e a8bf 0000 0080 196c bc3f
000001a0: 0000 0000 6039 54bf 0000 0080 356c bb3f
000001b0: 0000 0040 cb3f bcbf 0000 0080 adc8 b03f
000001c0: 0000 00c0 a3a6 bc3f 0000 0040 8838 bb3f
000001d0: 0000 0000 594b adbf 0000 0000 06b9 b8bf
000001e0: 0000 0080 4e46 b6bf 0000 0080 8d7d b43f
000001f0: 0000 0000 1fff 9d3f 0000 0000 733e b3bf
00000200: 0000 0080 e891 a13f 0000 0040 7f34 bcbf
00000210: 0000 0080 3101 bb3f 0000 0080 682f a43f
00000220: 0000 0040 c161 b73f 0000 00c0 6d81 babf
00000230: 0000 0000 c073 93bf 0000 0000 297d bd3f
00000240: 0000 0080 a8c4 aebf 0000 0040 0764 be3f
00000250: 0000 0000 3b20 b43f 0000 0040 3f05 bcbf
00000260: 0000 0080 bd38 a0bf 0000 0000 2445 873f
00000270: 0000 00c0 9026 bdbf 0000 0000 559d ba3f
00000280: 0000 0000 8a49 92bf 0000 0000 0012 2ebf
00000290: 0000 00c0 780e b73f 0000 0040 430c b7bf
000002a0: 0000 0000 bdad a33f 0000 0000 f31f bf3f
000002b0: 0000 0040 faf3 b43f 0000 0080 b4ad bebf
000002c0: 0000 0000 e578 9bbf 0000 0000 7058 603f
000002d0: 0000 00c0 1ff5 b1bf 0000 0080 76d5 b8bf
000002e0: 0000 00c0 24db bc3f 0000 0000 b0b5 683f
000002f0: 0000 00c0 551f b63f 0000 0000 a2d7 b7bf
00000300: 0000 0080 23e9 bd3f 0000 0080 1ce4 b73f
00000310: 0000 0080 33d1 a7bf 0000 0040 7fa8 b23f
00000320: 0000 0000 5eaa b8bf 0000 0080 3b2c aebf
00000330: 0000 0000 49f6 a73f 0000 0000 5239 9d3f
00000340: 0000 0080 62fe a83f 0000 0080 5b96 bebf
00000350: 0000 0080 7527 ab3f 0000 0000 c9d3 b9bf
00000360: 0000 0000 9069 6f3f 0000 0000 e888 6b3f
00000370: 0000 0080 339c a8bf 0000 0080 af40 ac3f
00000380: 0000 0080 f042 abbf 0000 0040 cf7f b03f
00000390: 0000 0000 b079 82bf 0000 0000 bb42 ab3f
000003a0: 0000 0000 a92f a93f 0000 0000 375a b8bf
000003b0: 0000 00c0 14db b6bf 0000 0080 d7ef a1bf
000003c0: 0000 0040 716f bdbf 0000 00c0 b01a b83f
000003d0: 0000 00c0 0f7a b83f 0000 0000 33f6 bb3f
000003e0: 0000 0000 d299 823f 0000 00c0 e806 babf
000003f0: 0000 00c0 c21a b7bf 0000 0000 2a97 b83f
00000400: 0000 0000 d374 a13f 0000 0000 5146 a33f
00000410: 0000 0000 fe9c 843f 0000 0040 2068 b6bf
00000420: 0000 0000 aa10 953f 0000 0000 8da4 a5bf
00000430: 0000 0000 72c2 a83f 0000 0000 e4ab a03f
00000440: 0000 0000 d416 a2bf 0000 0000 ad3b 96bf
00000450: 0000 0000 f2aa a83f 0000 0080 fef6 b23f
00000460: 0000 0080 a967 b9bf 0000 0000 7f1d 99bf
00000470: 0000 0040 7ea9 b23f 0000 0000 63db af3f
00000480: 0000 0000 eab8 8f3f 0000 00c0 34cb b2bf
00000490: 0000 0000 d059 6cbf 0000 0080 64b0 b7bf
000004a0: 0000 0080 903c a63f 0000 0000 a074 48bf
000004b0: 0000 0000 a952 913f 0000 0000 6f47 9fbf
000004c0: 0000 0080 4728 a6bf 0000 00c0 bbb4 b93f
000004d0: 0000 0000 0007 babf 0000 0080 816b bfbf
000004e0: 0000 0080 ff75 a73f 0000 0080 fcdf a8bf
000004f0: 0000 0040 1601 b73f 0000 0000 c8f1 bd3f
00000500: 0000 0080 9a2c afbf 0000 0000 6741 a13f
00000510: 0000 0040 e32e b4bf 0000 00c0 d1ed bd3f
00000520: 0000 0000 914c b13f 0000 0040 08f4 b3bf
00000530: 0000 00c0 20cd b03f 0000 00c0 ef5f b3bf
00000540: 0000 0000 f825 8abf 0000 0000 3d29 903f
00000550: 0000 00c0 c687 b33f 0000 0000 4080 753f
00000560: 0000 0000 a303 bf3f 0000 0000 64bf a33f
00000570: 0000 00c0 d6d3 bb3f 0000 0000 1e53 bc3f
00000580: 0000 0000 337b b33f 0000 0080 9de9 ad3f
00000590: 0000 0000 4bcf 93bf 0000 0040 b157 bc3f
000005a0: 0000 0080 2050 ac3f 0000 0000 b0b8 a53f
000005b0: 0000 0000 193d 90bf 0000 0000 240b 7a3f
000005c0: 0000 0040 bd1d b23f 0000 0000 0e8d ac3f
000005d0: 0000 0080 99cf afbf 0000 0080 be06 a53f
000005e0: 0000 0040 aa85 b53f 0000 0080 8b8c ad3f
000005f0: 0000 0040 fc05 bb3f 0000 0080 df1f b63f
00000600: 0000 0080 3b13 b33f 0000 0000 14b1 753f
00000610: 0000 0080 cb7e be3f 0000 0040 793f bc3f
00000620: 0000 0040 9661 b93f 0000 0080 5246 b93f
00000630: 0000 0000 216a 99bf 0000 0080 ca41 a0bf
00000640: 0000 0000 aedf 84bf 0000 0000 b0e0 8abf
00000650: 0000 0080 d94a bcbf 0000 0000 13eb a33f
00000660: 0000 0000 58db aebf 0000 0000 0f6f b63f
00000670: 0000 0000 2f65 a93f 0000 0000 006f 15bf
00000680: 0000 0000 a039 7bbf 0000 0000 d844 6bbf
00000690: 0000 0000 cb84 ba3f 0000 0080 9b3e abbf
000006a0: 0000 0000 1ec0 85bf 0000 00c0 5c42 bcbf
000006b0: 0000 00c0 cab3 b73f 0000 00c0 d242 b9bf
000006c0: 0000 0080 88b7 b63f 0000 0080 ccac a83f
000006d0: 0000 0080 2e8a a2bf 0000 0040 c581 b0bf
000006e0: 0000 0000 8e9a 9ebf 0000 00c0 5333 b73f
000006f0: 0000 0080 ace3 abbf 0000 0080 1ae0 acbf
00000700: 0000 0040 4674 b7bf 0000 0000 64b6 b1bf
00000710: 0000 0040 3959 b8bf 0000 0000 224e b43f
00000720: 0000 0000 afe9 b53f 0000 0000 b980 b2bf
00000730: 0000 0080 a1f1 a03f 0000 0000 2b2d 963f
00000740: 0000 0000 1870 91bf 0000 0000 c64f bfbf
00000750: 0000 0080 e3a5 bd3f 0000 0000 f483 9c3f
00000760: 0000 0000 01ae aebf 0000 0080 f53d b0bf
00000770: 0000 0000 4793 b63f 0000 0000 c675 b93f
00000780: 0000 0000 3e6e a0bf 0000 00c0 448e bf3f
00000790: 0000 0000 59da 923f 0000 0000 4f50 ba3f
000007a0: 0000 0040 3bd9 bf3f 0000 0000 e30e a03f
000007b0: 0000 00c0 5a12 b53f 0000 0000 fcb6 743f
000007c0: 0000 0040 bc1a bebf 0000 0000 ccdb 8fbf
000007d0: 0000 0080 105b a83f 0000 0040 473f b03f
000007e0: 0000 00c0 51e1 b0bf 0000 0080 841b a33f
000007f0: 0000 0000 4aca a83f 0000 0080 84f4 aebf
-0.011950045824050903 -0.05836658179759979 -0.10167218744754791 -0.0007132589817047119 -0.08492091298103333 -0.056707218289375305 0.001998305320739746 -0.06262175738811493
0.09132568538188934 -0.05565650761127472 0.04610025882720947 -0.09784124791622162 -0.09691415727138519 0.009621277451515198 -0.1031806617975235 -0.07968606054782867
-0.07110965251922607 0.09482547640800476 0.08631998300552368 0.06225654482841492 -0.06820480525493622 0.08063085377216339 0.09674161672592163 0.07456725835800171
-0.07843075692653656 0.000834733247756958 0.08564144372940063 -0.010394826531410217 -0.02695763111114502 0.059346333146095276 -0.1140373945236206 0.1247825175523758
-0.080256387591362 -0.11829844117164612 0.06475479900836945 0.046607211232185364 -0.06657570600509644 -0.07339915633201599 -0.07445341348648071 0.036579430103302
-0.10666732490062714 -0.12370344996452332 -0.1097109466791153 -0.05822303891181946 -0.10501496493816376 0.11012594401836395 -0.026860013604164124 -0.030153200030326843
-0.05690881609916687 -0.07287238538265228 -0.04723021388053894 0.11102446913719177 -0.0012343823909759521 0.10711988806724548 -0.1103484183549881 0.06556209921836853
0.11191771924495697 0.10633136332035065 -0.057215481996536255 -0.09657323360443115 -0.08701029419898987 0.08004078269004822 0.029293522238731384 -0.07517164945602417
0.03431631624698639 -0.11017604172229767 0.10548695921897888 0.039424195885658264 0.09133537113666534 -0.1035374253988266 -0.018996238708496094 0.11519104242324829
-0.06009413301944733 0.11871381103992462 0.07861679792404175 -0.10945506393909454 -0.03168289363384247 0.011362344026565552 -0.11386971175670624 0.10396319627761841
-0.017858654260635376 -0.00022941827774047852 0.09006457030773163 -0.09003086388111115 0.038434892892837524 0.12158125638961792 0.08184780180454254 -0.11983802914619446
-0.02682836353778839 0.001995295286178589 -0.07014654576778412 -0.09700718522071838 0.112718865275383 0.0030163228511810303 0.08641563355922699 -0.09313404560089111
0.11683866381645203 0.0933244526386261 -0.046517953276634216 0.07288356125354767 -0.09634959697723389 -0.05893121659755707 0.0468008816242218 0.02853897213935852
0.04881580173969269 -0.11948177218437195 0.053035423159599304 -0.10088783502578735 0.0038345158100128174 0.0033611804246902466 -0.048066720366477966 0.05518101155757904
-0.05324508249759674 0.0644502192735672 -0.009021162986755371 0.053243488073349 0.04919174313545227 -0.09512656927108765 -0.08928041160106659 -0.0350329726934433
-0.11498172581195831 0.09415726363658905 0.09561251103878021 0.10922545194625854 0.009082451462745667 -0.10166792571544647 -0.09025208652019501 0.09605658054351807
0.034094423055648804 0.0376458466053009 0.010065063834190369 -0.087526336312294 0.020571380853652954 -0.042271047830581665 0.0483585000038147 0.032561421394348145
-0.03533041477203369 -0.02171202003955841 0.04817920923233032 0.07408133149147034 -0.09923800826072693 -0.024526581168174744 0.0728987604379654 0.06222066283226013
0.01548941433429718 -0.0734131783246994 -0.003460794687271118 -0.09253528714179993 0.04343082010746002 -0.0007463246583938599 0.01691688597202301 -0.030545935034751892
-0.04327605664730072 0.10041402280330658 -0.1016693115234375 -0.12273415923118591 0.045822128653526306 -0.04858388006687164 0.08986033499240875 0.11697053909301758
-0.0608871728181839 0.03370210528373718 -0.07884044945240021 0.11691008508205414 0.06757456064224243 -0.0779423862695694 0.0656300038099289 -0.0756826251745224
-0.0127677321434021 0.01578231155872345 0.07629053294658661 0.0052492618560791016 0.12114924192428589 0.03856956958770752 0.10870115458965302 0.11064326763153076
0.07609862089157104 0.05842296779155731 -0.019345447421073914 0.11071307957172394 0.0552988201379776 0.042424678802490234 -0.01585806906223297 0.006358280777931213
0.07076628506183624 0.05576366186141968 -0.06213073432445526 0.041067078709602356 0.08407081663608551 0.057712897658348083 0.10556007921695709 0.0864238440990448
0.07451221346855164 0.0052958279848098755 0.11912223696708679 0.11034353077411652 0.09914530813694 0.09872928261756897 -0.024818912148475647 -0.03175194561481476
-0.010192260146141052 -0.013123869895935059 -0.11051711440086365 0.038902848958969116 -0.06026721000671387 0.08763211965560913 0.04960009455680847 -8.176267147064209e-05
-0.00664675235748291 -0.0033287256956100464 0.1035887598991394 -0.05321203172206879 -0.010620340704917908 -0.11038760840892792 0.09258715808391571 -0.09867589175701141
0.08873799443244934 0.048193350434303284 -0.03621049225330353 -0.06448014080524445 -0.029886454343795776 0.09062694013118744 -0.05447138845920563 -0.056397274136543274
-0.09161795675754547 -0.06918931007385254 -0.09511144459247589 0.07931721210479736 0.0855969786643982 -0.07227665185928345 0.03309349715709686 0.02165667712688446
-0.017029166221618652 -0.12231099605560303 0.1158125102519989 0.027847111225128174 -0.05992129445075989 -0.06344541907310486 0.08818477392196655 0.09945333003997803
-0.03209108114242554 0.12326459586620331 0.018411055207252502 0.10278791189193726 0.12440843880176544 0.03136357665061951 0.08231131732463837 0.00505731999874115
-0.11759544909000397 -0.01555594801902771 0.04756976664066315 0.06346555054187775 -0.06593810021877289 0.03731931746006012 0.04841834306716919 -0.06045927107334137

fc2.bias f8 [64]
00000000: 0000 0000 04b6 9bbf 0000 00c0 b774 b83f
00000010: 0000 0040 a20a b7bf 0000 0040 ad25 b63f
00000020: 0000 0080 91ef a3bf 0000 0080 5d4f ac3f
00000030: 0000 0000 af7c a7bf 0000 0000 28fd 933f
00000040: 0000 0000 02df 98bf 0000 0000 924f aebf
00000050: 0000 0040 8caf be3f 0000 0000 64c4 953f
00000060: 0000 0000 fcd2 723f 0000 00c0 1d39 bfbf
00000070: 0000 0080 b4e1 b0bf 0000 0000 3ca3 85bf
00000080: 0000 0000 e564 94bf 0000 0040 672e b3bf
00000090: 0000 0000 0efa a0bf 0000 0000 200c b0bf
000000a0: 0000 00c0 6dbd b4bf 0000 0000 e062 483f
000000b0: 0000 0000 0c72 9c3f 0000 0000 ef08 a63f
000000c0: 0000 0000 ab42 b4bf 0000 0080 1e87 a6bf
000000d0: 0000 00c0 2f71 b13f 0000 0000 c1be 9bbf
000000e0: 0000 0080 a96f a13f 0000 0080 7ea3 bdbf
000000f0: 0000 0080 d5de b23f 0000 00c0 7840 bb3f
00000100: 0000 0040 0ecf bc3f 0000 00c0 7727 b23f
00000110: 0000 0000 9206 b63f 0000 0000 262a aa3f
00000120: 0000 0080 93fd b5bf 0000 0000 9f08 b9bf
00000130: 0000 0000 c177 90bf 0000 0000 9253 9f3f
00000140: 0000 0000 7c3b 87bf 0000 00c0 cf21 b43f
00000150: 0000 0040 6ce3 bcbf 0000 00c0 ad79 b0bf
00000160: 0000 0080 4622 a03f 0000 0080 c5d8 a3bf
00000170: 0000 0040 a12a b4bf 0000 0080 e126 b2bf
00000180: 0000 0000 7819 633f 0000 0000 c2b3 933f
00000190: 0000 0000 c8d0 863f 0000 0000 8597 a9bf
000001a0: 0000 0080 6704 a7bf 0000 0080 ec9a a4bf
000001b0: 0000 0000 34dc 7fbf 0000 0000 702f 6fbf
000001c0: 0000 0000 b483 84bf 0000 0000 3374 adbf
000001d0: 0000 0000 3b9e aa3f 0000 00c0 3699 b13f
000001e0: 0000 0040 8f0b b23f 0000 0000 8373 adbf
000001f0: 0000 0080 4bb6 ad3f 0000 0000 ab5d a33f
-0.027061522006988525 0.09553097188472748 -0.09000600874423981 0.08651240170001984 -0.03893713653087616 0.055293008685112 -0.04587313532829285 0.01952040195465088
-0.024288207292556763 -0.059200823307037354 0.11986614763736725 0.021256983280181885 0.004595741629600525 -0.12196527421474457 -0.06594398617744446 -0.010565251111984253
-0.01991613209247589 -0.07492680847644806 -0.03315776586532593 -0.06268501281738281 -0.0810154527425766 0.0007442086935043335 0.027778804302215576 0.04303690791130066
-0.07914227247238159 -0.043999627232551575 0.06813333928585052 -0.027094855904579163 0.034055039286613464 -0.11577597260475159 0.07371267676353455 0.10645250976085663
0.11253441870212555 0.07091473042964935 0.08603775501251221 0.05110281705856323 -0.08590051531791687 -0.09778779745101929 -0.016081824898719788 0.030592232942581177
-0.011343926191329956 0.07864092290401459 -0.11284519731998444 -0.06435666978359222 0.03151150047779083 -0.03876321017742157 -0.07877548038959503 -0.07090577483177185
0.002331480383872986 0.01924040913581848 0.011140406131744385 -0.049984127283096313 -0.044955477118492126 -0.04024447500705719 -0.007778361439704895 -0.0038067996501922607
-0.010016828775405884 -0.05752715468406677 0.051988452672958374 0.06874410808086395 0.07048888504505157 -0.05752190947532654 0.05803142488002777 0.037824004888534546

bn2_fc.weight f8 [64]
00000000: 0000 0000 0000 f03f 0000 0000 0000 f03f
00000010: 0000 0000 0000 f03f 0000 0000 0000 f03f
00000020: 0000 0000 0000 f03f 0000 0000 0000 f03f
00000030: 0000 0000 0000 f03f 0000 0000 0000 f03f
00000040: 0000 0000 0000 f03f 0000 0000 0000 f03f
00000050: 0000 0000 0000 f03f 0000 0000 0000 f03f
00000060: 0000 0000 0000 f03f 0000 0000 0000 f03f
00000070: 0000 0000 0000 f03f 0000 0000 0000 f03f
00000080: 0000 0000 0000 f03f 0000 0000 0000 f03f
00000090: 0000 0000 0000 f03f 0000 0000 0000 f03f
000000a0: 0000 0000 0000 f03f 0000 0000 0000 f03f
000000b0: 0000 0000 0000 f03f 0000 0000 0000 f03f
000000c0: 0000 0000 0000 f03f 0000 0000 0000 f03f
000000d0: 0000 0000 0000 f03f 0000 0000 0000 f03f
000000e0: 0000 0000 0000 f03f 0000 0000 0000 f03f
000000f0: 0000 0000 0000 f03f 0000 0000 0000 f03f
00000100: 0000 0000 0000 f03f 0000 0000 0000 f03f
00000110: 0000 0000 0000 f03f 0000 0000 0000 f03f
00000120: 0000 0000 0000 f03f 0000 0000 0000 f03f
00000130: 0000 0000 0000 f03f 0000 0000 0000 f03f
00000140: 0000 0000 0000 f03f 0000 0000 0000 f03f
00000150: 0000 0000 0000 f03f 0000 0000 0000 f03f
00000160: 0000 0000 0000 f03f 0000 0000 0000 f03f
00000170: 0000 0000 0000 f03f 0000 0000 0000 f03f
00000180: 0000 0000 0000 f03f 0000 0000 0000 f03f
00000190: 0000 0000 0000 f03f 0000 0000 0000 f03f
000001a0: 0000 0000 0000 f03f 0000 0000 0000 f03f
000001b0: 0000 0000 0000 f03f 0000 0000 0000 f03f
000001c0: 0000 0000 0000 f03f 0000 0000 0000 f03f
000001d0: 0000 0000 0000 f03f 0000 0000 0000 f03f
000001e0: 0000 0000 0000 f03f 0000 0000 0000 f03f
000001f0: 0000 0000 0000 f03f 0000 0000 0000 f03f
1.0 1.0 1.0 1.0 1.0 1.0 1.0 1.0
1.0 1.0 1.0 1.0 1.0 1.0 1.0 1.0
1.0 1.0 1.0 1.0 1.0 1.0 1.0 1.0
1.0 1.0 1.0 1.0 1.0 1.0 1.0 1.0
1.0 1.0 1.0 1.0 1.0 1.0 1.0 1.0
1.0 1.0 1.0 1.0 1.0 1.0 1.0 1.0
1.0 1.0 1.0 1.0 1.0 1.0 1.0 1.0
1.0 1.0 1.0 1.0 1.0 1.0 1.0 1.0

bn2_fc.bias f8 [64]
00000000: 0000 0000 0000 0000 0000 0000 0000 0000
00000010: 0000 0000 0000 0000 0000 0000 0000 0000
00000020: 0000 0000 0000 0000 0000 0000 0000 0000
00000030: 0000 0000 0000 0000 0000 0000 0000 0000
00000040: 0000 0000 0000 0000 0000 0000 0000 0000
00000050: 0000 0000 0000 0000 0000 0000 0000 0000
00000060: 0000 0000 0000 0000 0000 0000 0000 0000
00000070: 0000 0000 0000 0000 0000 0000 0000 0000
00000080: 0000 0000 0000 0000 0000 0000 0000 0000
00000090: 0000 0000 0000 0000 0000 0000 0000 0000
000000a0: 0000 0000 0000 0000 0000 0000 0000 0000
000000b0: 0000 0000 0000 0000 0000 0000 0000 0000
000000c0: 0000 0000 0000 0000 0000 0000 0000 0000
000000d0: 0000 0000 0000 0000 0000 0000 0000 0000
000000e0: 0000 0000 0000 0000 0000 0000 0000 0000
000000f0: 0000 0000 0000 0000 0000 0000 0000 0000
00000100: 0000 0000 0000 0000 0000 0000 0000 0000
00000110: 0000 0000 0000 0000 0000 0000 0000 0000
00000120: 0000 0000 0000 0000 0000 0000 0000 0000
00000130: 0000 0000 0000 0000 0000 0000 0000 0000
00000140: 0000 0000 0000 0000 0000 0000 0000 0000
00000150: 0000 0000 0000 0000 0000 0000 0000 0000
00000160: 0000 0000 0000 0000 0000 0000 0000 0000
00000170: 0000 0000 0000 0000 0000 0000 0000 0000
00000180: 0000 0000 0000 0000 0000 0000 0000 0000
00000190: 0000 0000 0000 0000 0000 0000 0000 0000
000001a0: 0000 0000 0000 0000 0000 0000 0000 0000
000001b0: 0000 0000 0000 0000 0000 0000 0000 0000
000001c0: 0000 0000 0000 0000 0000 0000 0000 0000
000001d0: 0000 0000 0000 0000 0000 0000 0000 0000
000001e0: 0000 0000 0000 0000 0000 0000 0000 0000
000001f0: 0000 0000 0000 0000 0000 0000 0000 0000
0.0 0.0 0.0 0.0 0.0 0.0 0.0 0.0
0.0 0.0 0.0 0.0 0.0 0.0 0.0 0.0
0.0 0.0 0.0 0.0 0.0 0.0 0.0 0.0
0.0 0.0 0.0 0.0 0.0 0.0 0.0 0.0
0.0 0.0 0.0 0.0 0.0 0.0 0.0 0.0
0.0 0.0 0.0 0.0 0.0 0.0 0.0 0.0
0.0 0.0 0.0 0.0 0.0 0.0 0.0 0.0
0.0 0.0 0.0 0.0 0.0 0.0 0.0 0.0

bn2_fc.running_mean f8 [64]
00000000: 0000 0000 0000 0000 0000 0000 0000 0000
00000010: 0000 0000 0000 0000 0000 0000 0000 0000
00000020: 0000 0000 0000 0000 0000 0000 0000 0000
00000030: 0000 0000 0000 0000 0000 0000 0000 0000
00000040: 0000 0000 0000 0000 0000 0000 0000 0000
00000050: 0000 0000 0000 0000 0000 0000 0000 0000
00000060: 0000 0000 0000 0000 0000 0000 0000 0000
00000070: 0000 0000 0000 0000 0000 0000 0000 0000
00000080: 0000 0000 0000 0000 0000 0000 0000 0000
00000090: 0000 0000 0000 0000 0000 0000 0000 0000
000000a0: 0000 0000 0000 0000 0000 0000 0000 0000
000000b0: 0000 0000 0000 0000 0000 0000 0000 0000
000000c0: 0000 0000 0000 0000 0000 0000 0000 0000
000000d0: 0000 0000 0000 0000 0000 0000 0000 0000
000000e0: 0000 0000 0000 0000 0000 0000 0000 0000
000000f0: 0000 0000 0000 0000 0000 0000 0000 0000
00000100: 0000 0000 0000 0000 0000 0000 0000 0000
00000110: 0000 0000 0000 0000 0000 0000 0000 0000
00000120: 0000 0000 0000 0000 0000 0000 0000 0000
00000130: 0000 0000 0000 0000 0000 0000 0000 0000
00000140: 0000 0000 0000 0000 0000 0000 0000 0000
00000150: 0000 0000 0000 0000 0000 0000 0000 0000
00000160: 0000 0000 0000 0000 0000 0000 0000 0000
00000170: 0000 0000 0000 0000 0000 0000 0000 0000
00000180: 0000 0000 0000 0000 0000 0000 0000 0000
00000190: 0000 0000 0000 0000 0000 0000 0000 0000
000001a0: 0000 0000 0000 0000 0000 0000 0000 0000
000001b0: 0000 0000 0000 0000 0000 0000 0000 0000
000001c0: 0000 0000 0000 0000 0000 0000 0000 0000
000001d0: 0000 0000 0000 0000 0000 0000 0000 0000
000001e0: 0000 0000 0000 0000 0000 0000 0000 0000
000001f0: 0000 0000 0000 0000 0000 0000 0000 0000
0.0 0.0 0.0 0.0 0.0 0.0 0.0 0.0
0.0 0.0 0.0 0.0 0.0 0.0 0.0 0.0
0.0 0.0 0.0 0.0 0.0 0.0 0.0 0.0
0.0 0.0 0.0 0.0 0.0 0.0 0.0 0.0
0.0 0.0 0.0 0.0 0.0 0.0 0.0 0.0
0.0 0.0 0.0 0.0 0.0 0.0 0.0 0.0
0.0 0.0 0.0 0.0 0.0 0.0 0.0 0.0
0.0 0.0 0.0 0.0 0.0 0.0 0.0 0.0

bn2_fc.running_var f8 [64]
00000000: 0000 0000 0000 f03f 0000 0000 0000 f03f
00000010: 0000 0000 0000 f03f 0000 0000 0000 f03f
00000020: 0000 0000 0000 f03f 0000 0000 0000 f03f
00000030: 0000 0000 0000 f03f 0000 0000 0000 f03f
00000040: 0000 0000 0000 f03f 0000 0000 0000 f03f
00000050: 0000 0000 0000 f03f 0000 0000 0000 f03f
00000060: 0000 0000 0000 f03f 0000 0000 0000 f03f
00000070: 0000 0000 0000 f03f 0000 0000 0000 f03f
00000080: 0000 0000 0000 f03f 0000 0000 0000 f03f
00000090: 0000 0000 0000 f03f 0000 0000 0000 f03f
000000a0: 0000 0000 0000 f03f 0000 0000 0000 f03f
000000b0: 0000 0000 0000 f03f 0000 0000 0000 f03f
000000c0: 0000 0000 0000 f03f 0000 0000 0000 f03f
000000d0: 0000 0000 0000 f03f 0000 0000 0000 f03f
000000e0: 0000 0000 0000 f03f 0000 0000 0000 f03f
000000f0: 0000 0000 0000 f03f 0000 0000 0000 f03f
00000100: 0000 0000 0000 f03f 0000 0000 0000 f03f
00000110: 0000 0000 0000 f03f 0000 0000 0000 f03f
00000120: 0000 0000 0000 f03f 0000 0000 0000 f03f
00000130: 0000 0000 0000 f03f 0000 0000 0000 f03f
00000140: 0000 0000 0000 f03f 0000 0000 0000 f03f
00000150: 0000 0000 0000 f03f 0000 0000 0000 f03f
00000160: 0000 0000 0000 f03f 0000 0000 0000 f03f
00000170: 0000 0000 0000 f03f 0000 0000 0000 f03f
00000180: 0000 0000 0000 f03f 0000 0000 0000 f03f
00000190: 0000 0000 0000 f03f 0000 0000 0000 f03f
000001a0: 0000 0000 0000 f03f 0000 0000 0000 f03f
000001b0: 0000 0000 0000 f03f 0000 0000 0000 f03f
000001c0: 0000 0000 0000 f03f 0000 0000 0000 f03f
000001d0: 0000 0000 0000 f03f 0000 0000 0000 f03f
000001e0: 0000 0000 0000 f03f 0000 0000 0000 f03f
000001f0: 0000 0000 0000 f03f 0000 0000 0000 f03f
1.0 1.0 1.0 1.0 1.0 1.0 1.0 1.0
1.0 1.0 1.0 1.0 1.0 1.0 1.0 1.0
1.0 1.0 1.0 1.0 1.0 1.0 1.0 1.0
1.0 1.0 1.0 1.0 1.0 1.0 1.0 1.0
1.0 1.0 1.0 1.0 1.0 1.0 1.0 1.0
1.0 1.0 1.0 1.0 1.0 1.0 1.0 1.0
1.0 1.0 1.0 1.0 1.0 1.0 1.0 1.0
1.0 1.0 1.0 1.0 1.0 1.0 1.0 1.0

fc3.weight f8 [1, 64]
00000000: 0000 0000 8426 bfbf 0000 0000 aab4 9abf
00000010: 0000 00c0 6674 babf 0000 0080 3607 b8bf
00000020: 0000 0000 1057 7b3f 0000 00c0 3f59 b03f
00000030: 0000 0080 7097 bebf 0000 0000 0c02 823f
00000040: 0000 0080 a8e7 b23f 0000 0000 0a8f 8fbf
00000050: 0000 0000 b816 87bf 0000 0080 69b6 a1bf
00000060: 0000 0080 98b8 bcbf 0000 0000 ce6d 8d3f
00000070: 0000 0000 fa91 823f 0000 0080 35d7 bc3f
00000080: 0000 0040 9347 bcbf 0000 0000 7254 b03f
00000090: 0000 0000 a176 a63f 0000 0080 08a2 b8bf
000000a0: 0000 0000 0c93 9bbf 0000 0080 7411 adbf
000000b0: 0000 0080 48da b6bf 0000 0000 d0be 7abf
000000c0: 0000 0000 04bd b03f 0000 0000 1bcf b7bf
000000d0: 0000 0040 b923 b13f 0000 0000 bb37 903f
000000e0: 0000 0000 46a2 a8bf 0000 0080 c1c0 ab3f
000000f0: 0000 0080 6c24 abbf 0000 00c0 5454 b4bf
00000100: 0000 0000 f56d a33f 0000 0000 21a6 a0bf
00000110: 0000 0000 a8c9 793f 0000 0080 66e8 a0bf
00000120: 0000 0000 e852 7d3f 0000 0080 c65d adbf
00000130: 0000 00c0 9a01 b43f 0000 00c0 e167 bdbf
00000140: 0000 0080 d451 ae3f 0000 0080 d139 af3f
00000150: 0000 0080 9663 a6bf 0000 00c0 4428 b23f
00000160: 0000 0040 53ca bb3f 0000 0000 38a5 9dbf
00000170: 0000 0040 abf4 b03f 0000 0000 7135 ac3f
00000180: 0000 00c0 3096 b4bf 0000 00c0 454e b23f
00000190: 0000 0000 a575 9a3f 0000 00c0 0e13 b7bf
000001a0: 0000 0000 ad88 90bf 0000 0000 f606 8ebf
000001b0: 0000 0000 db58 b8bf 0000 0000 946d 7a3f
000001c0: 0000 0000 ecd7 953f 0000 0080 2dd5 b93f
000001d0: 0000 0080 82d7 bbbf 0000 0000 e508 abbf
000001e0: 0000 0000 be5d 923f 0000 0000 082d 78bf
000001f0: 0000 0040 18de b2bf 0000 00c0 e213 ba3f
-0.12168145179748535 -0.026079803705215454 -0.10333864390850067 -0.09386005997657776 0.006674826145172119 0.06386183202266693 -0.11949828267097473 0.008792966604232788
0.07384732365608215 -0.015409544110298157 -0.011273801326751709 -0.0345948189496994 -0.11219170689582825 0.014369592070579529 0.009067490696907043 0.11265882849693298
-0.11046715080738068 0.0637885332107544 0.04387381672859192 -0.09622243046760559 -0.0269281268119812 -0.056773796677589417 -0.08926823735237122 -0.006529629230499268
0.0653841495513916 -0.09300392866134644 0.06695134937763214 0.015837594866752625 -0.04811304807662964 0.05420498549938202 -0.053012266755104065 -0.07941178977489471
0.037948280572891235 -0.032517462968826294 0.006295830011367798 -0.03302307426929474 0.007159143686294556 -0.05735607445240021 0.07814948260784149 -0.11486636102199554
0.059218063950538635 0.06098799407482147 -0.0437285453081131 0.07092694938182831 0.10855598747730255 -0.02895057201385498 0.06623335182666779 0.05509522557258606
-0.0804167240858078 0.07150684297084808 0.02583940327167511 -0.09013454616069794 -0.016146376729011536 -0.014661714434623718 -0.09510582685470581 0.006452158093452454
0.021331489086151123 0.10090908408164978 -0.10875716805458069 -0.05280223488807678 0.017935723066329956 -0.005902320146560669 -0.0737013965845108 0.10186593234539032

fc3.bias f8 [1]
00000000: 0000 0000 c153 923f
0.017897620797157288
